mlruns/0/d1b5ee4f546c45d59933a647d1567909/artifacts/checkpoint.pth (torch_old, 28447 bytes, 6 tensors)

fc1.weight f4 [64, 37]
0.13664447 -0.06534289 -0.016857553 0.1088552 -0.11589463 0.03980387 0.06529096 -0.14837411
0.039510615 -0.043801904 0.16169417 0.016413255 0.1382065 0.08855017 0.074780256 -0.14256847
0.1490999 -0.118729986 0.085423216 0.08773045 0.012391761 0.15250146 -0.034291368 -0.08664985
0.06726603 -0.020445824 -0.12932087 -0.10720578 -0.091306515 0.060303714 -0.10030294 0.08440166
0.13970688 -0.053592637 0.104809746 -0.009811439 0.11492368 -0.006448573 -0.11499521 0.12846297
-0.10288884 0.04572568 0.09785243 -0.11978909 -0.13551289 0.09194051 -0.15642028 -0.111726366
0.0683829 -0.053608492 0.11163779 -0.039123714 0.035314213 -0.08152578 0.025764307 -0.14882243
-0.11700964 -0.115330555 0.018727971 -0.019816225 0.16240607 0.00816636 0.14314051 -0.09631532
0.046437446 -0.016628474 0.15649559 0.069751486 0.0003995028 -0.117081136 -0.13064894 -0.05079475
0.08217156 -0.10526848 -0.07742287 -0.15345915 0.1423234 0.14074099 -0.10702569 -0.004783314
-0.0057411124 0.016072165 -0.11284991 -0.11602651 -0.031907488 -0.12952414 0.010799567 -0.09553822
-0.13833131 -0.016723812 -0.07578994 0.06048298 0.12304398 -0.10583751 -0.061679818 -0.03568786
-0.15935121 -0.166292 0.055147026 -0.0168654 -0.07911491 0.14696305 -0.17169529 0.13443235
-0.16677228 -0.10314142 0.08260828 -0.0459327 -0.059771504 -0.112784885 0.039990824 0.12634659
0.06535941 0.16028908 -0.13010429 -0.12616634 -0.10151249 -0.008110866 0.014712788 0.0079325745
0.022773515 -0.11048373 -0.043190677 0.023796793 0.05080072 -0.10432776 0.10564003 -0.009538543
0.0728847 0.14659084 0.089661695 0.06774977 -0.059397172 -0.119121365 0.063266225 0.13586596
0.10159545 0.013735445 0.12462297 -0.070092775 -0.06490799 -0.08121794 -0.08219642 0.0029853156
-0.16974878 0.12444066 -0.16830084 -0.06191294 0.07364987 0.005309984 -0.06578372 -0.13240774
0.109058805 0.1672571 0.028917044 -0.06644187 -0.039396163 -0.108547814 0.05804199 0.07475795
-0.021146348 -0.06956394 0.09715438 -0.0137005625 0.068828076 0.048640642 0.123215206 -0.06444394
-0.13429633 0.02368094 -0.1379125 -0.15633912 0.13373518 0.000810873 0.12152723 0.08101832
0.14217606 0.042408336 0.1601831 -0.05421392 -0.092837185 -0.010193163 -0.024303848 0.102983914
-0.010020744 0.008149727 -0.08789775 -0.12551352 0.047653448 -0.09068791 0.13951142 0.14041595
-0.15213908 -0.07739984 -0.11347862 0.15216164 -0.090801276 0.14600587 0.11927072 -0.0324781
-0.060197346 0.11370915 -0.038115017 -0.035630483 0.019014345 -0.16542208 -0.014368741 0.083804674
-0.07961004 -0.02646252 -0.11555115 -0.033636127 0.07298696 -0.020506628 -0.13138872 0.022198703
-0.12676558 0.1336079 0.05229802 0.005176371 -0.12637962 0.15056075 -0.14585948 0.009321565
-0.13135591 -0.13765426 0.05679993 0.12628044 0.065694354 0.16281414 -0.0035343107 -0.102945
0.05292251 -0.007790867 0.034922175 -0.015653474 -0.13501069 -0.045371436 0.1699612 0.09687304
0.15048881 0.05910989 0.15500712 0.039687924 0.026674263 -0.025679177 -0.051217742 0.10895713
-0.09776027 -0.034899555 0.09409085 0.0015854865 -0.088371664 -0.018427666 0.07963534 -0.041123744
00000000: 87ec 0b3e 7ed2 85bd da18 8abc 7aef de3d
00000010: 2a5a edbd 6209 233d 44b7 853d 62ef 17be
00000020: e2d5 213d a069 33bd 2893 253e 1775 863c
00000030: 0186 0d3e cb59 b53d 6426 993d 78fd 11be
00000040: a5ad 183e b528 f3bd 5ef2 ae3d 06ac b33d
00000050: d006 4b3c 5829 1c3e 1b75 0cbd 7a75 b1bd
00000060: c6c2 893d 007e a7bc b16c 04be b48e dbbd
00000070: e9fe babd 0701 773d a16b cdbd c7da ac3d
00000080: 520f 0f3e f483 5bbd 7ea6 d63d 28c0 20bc
00000090: 1b5d eb3d 8d4e d3bb 9c82 ebbd cc8b 033e
000000a0: 62b7 d2bd da4a 3b3d db66 c83d fb53 f5bd
000000b0: e4c3 0abe 4e4b bc3d a32c 20be cbd0 e4bd
000000c0: 550c 8c3d 9494 5bbd 5ba2 e43d 3040 20bd
000000d0: a3a5 103d fdf6 a6bd ab0f d33c e864 18be
000000e0: c0a2 efbd 6d32 ecbd 676b 993c a355 a2bc
000000f0: c74d 263e 32cc 053c 6d93 123e f740 c5bd
00000100: 3135 3e3d 7038 88bc 6140 203e ded9 8e3d
00000110: 5c74 d139 3cc8 efbd d6c8 05be 280e 50bd
00000120: 9049 a83d 0097 d7bd e28f 9ebd 6524 1dbe
00000130: 3abd 113e 681e 103e 4930 dbbd 59bd 9cbb
00000140: f11f bcbb c6a9 833c db1d e7bd 4f9f edbd
00000150: 6db1 02bd faa1 04be abf0 303c 8ba9 c3bd
00000160: b9a6 0dbe 6000 89bc c237 9bbd 00bd 773d
00000170: 7bfe fb3d 56c1 d8bd faa3 7cbd 6f2d 12bd
00000180: f72c 23be 7348 2abe d9e1 613d 4f29 8abc
00000190: ff06 a2bd 7b7d 163e e4d0 2fbe a2a8 093e
000001a0: 5ac6 2abe cf3b d3bd 882e a93d ed23 3cbd
000001b0: f7d2 74bd c3fb e6bd 6bcd 233d 0061 013e
000001c0: 28db 853d d222 243e 0f3a 05be c031 01be
000001d0: c8e5 cfbd 70e3 04bc e80d 713c a1f7 013c
000001e0: 868f ba3c 4b45 e2bd b5e8 30bd 7ef1 c23c
000001f0: 6a14 503d cba9 d5bd cd59 d83d 8d47 1cbc
00000200: 9344 953d e91b 163e 8da0 b73d 64c0 8a3d
00000210: 734a 73bd e7f5 f3bd b991 813d 7220 0b3e
00000220: 4611 d03d a20a 613c 543a ff3d cd8c 8fbd
00000230: 7bee 84bd 9755 a6bd 9956 a8bd 49a5 433b
00000240: a0d2 2dbe bfda fe3d 0e57 2cbe 6c98 7dbd
00000250: bed5 963d 60ff ad3b 9db9 86bd e595 07be
00000260: 395a df3d 7245 2b3e 70e3 ec3c ad12 88bd
00000270: df5d 21bd 514e debd 70bd 6d3d b21a 993d
00000280: 1b3b adbc 8a77 8ebd e0f8 c63d 5378 60bc
00000290: bcf5 8c3d 693b 473d 4158 fc3d 2ffb 83bd
000002a0: fa84 09be 88fe c13c ef38 0dbe 5d17 20be
000002b0: e0f1 083e c490 543a 45e3 f83d efec a53d
000002c0: 9a96 113e 5db4 2d3d 0a07 243e 6a0f 5ebd
000002d0: 6c21 bebd 3901 27bc dd18 c7bc 3be9 d23d
000002e0: 0c2e 24bc 6f86 053c bc03 b4bd 9e86 00be
000002f0: 4330 433d 95ba b9bd 15dc 0e3e 33c9 0f3e
00000300: 59ca 1bbe cf83 9ebd 7b67 e8bd 43d0 1b3e
00000310: 05f6 b9bd 9082 153e 3544 f43d c207 05bd
00000320: 7e91 76bd 58e0 e83d 7e1e 1cbd 45f1 11bd
00000330: f9c3 9b3c 6864 29be de6a 6bbc c9a1 ab3d
00000340: 970a a3bd edc7 d8bc 15a6 ecbd 09c6 09bd
00000350: 307a 953d 84fd a7bc c48a 06be 0eda b53c
00000360: d6ce 01be 82d0 083e 7336 563d 8c9e a93b
00000370: a969 01be 992c 1a3e 305c 15be 7ab9 183c
00000380: 2a82 06be 3df5 0cbe 0ba7 683d a94f 013e
00000390: c38a 863d c0b8 263e e59f 67bb d4d4 d2bd
000003a0: 46c5 583d 874a ffbb 8e0a 0f3d b73b 80bc
000003b0: 3e40 0abe 66d7 39bd 4f0a 2e3e 5f65 c63d
000003c0: bd19 1a3e 361d 723d 30ba 1e3e ce8f 223d
000003d0: fc83 da3c 235d d2bc b2c9 51bd ea24 df3d
000003e0: 8936 c8bd d6f2 0ebd b4b2 c03d 19d0 cf3a
000003f0: 34fc b4bd 9ef5 96bc da17 a33d 5f71 28bd

fc1.bias f4 [64]
-0.054799248 -0.11036818 -0.11962969 -0.1554645 -0.09390772 0.115196854 0.11294929 -0.008514575
-0.05947549 0.14976792 -0.0011059272 0.1330336 -0.0010791318 -0.12931849 -0.16386062 -0.1275324
-0.1579201 0.051427647 -0.0405376 -0.13452192 -0.04340885 0.039544452 0.05498612 -0.09500684
-0.03241614 0.116707616 -0.105138324 -0.092477724 -0.047134284 0.07409071 -0.09831346 -0.03759489
0.00065564795 -0.039676014 -0.15145834 0.11702959 0.03228503 0.052149843 0.14955692 -0.041957974
-0.09308556 -0.10778323 -0.024707582 0.08762125 0.15957305 -0.08817083 0.064831816 -0.017198697
0.14507322 0.08544454 0.13774541 0.093367875 -0.07860924 -0.045641426 0.09822901 0.09442269
-0.107030384 -0.044570815 -0.13854869 -0.049615555 0.04132493 -0.00015793835 -0.13356318 -0.10880913
00000000: 2d75 60bd b608 e2bd 6900 f5bd 1632 1fbe
00000010: b152 c0bd 54ec eb3d f551 e73d b780 0bbc
00000020: 929c 73bd c35c 193e c2f4 90ba f639 083e
00000030: a871 8dba 116c 04be 14cb 27be da97 02be
00000040: cfb5 21be cca5 523d c10a 26bd 1dc0 09be
00000050: 7acd 31bd 5df9 213d 2039 613d f292 c2bd
00000060: c9c6 04bd 6704 ef3d c352 d7bd f664 bdbd
00000070: e10f 41bd dfbc 973d 9158 c9bd 19fd 19bd
00000080: cadf 2b3a 5183 22bd e517 1bbe 36ad ef3d
00000090: 4f3d 043d 139b 553d 7325 193e 20dc 2bbd
000000a0: a4a3 bebd 74bd dcbd 8e67 cabc c572 b33d
000000b0: 1e67 233e e892 b4bd 8bc6 843d 48e4 8cbc
000000c0: 138e 143e 8cfd ae3d 220d 0d3e a837 bf3d
000000d0: e2fd a0bd 81f2 3abd 4b2c c93d af60 c13d
000000e0: bf32 dbbd e38f 36bd b5df 0dbe ae39 4bbd
000000f0: 5444 293d 419c 25b9 c9c4 08be 52d7 debd

fc2.weight f4 [64, 64]
-0.04804518 0.022858787 -0.09534685 -0.027267398 -0.07107642 -0.03772941 0.08720014 -0.074690446
0.0071792076 0.026046414 -0.08064458 0.01424978 -0.024183566 0.10263949 0.06926753 -0.08811668
-0.104250975 0.10639867 -0.0012911562 0.00938886 0.103898786 0.038896427 -0.050427753 -0.055397883
0.06676719 0.014535759 -0.10423731 0.023226153 0.07824623 0.0633248 -0.09197874 0.032303162
-0.09706238 -0.039850425 -0.02849336 0.0370387 -0.10959566 -0.10220801 0.02242964 0.04938242
0.05795695 -0.010565367 0.06447505 0.050498124 0.0064894813 -0.018014047 -0.06261384 -0.07322754
-0.06864263 -0.109169655 -0.11507894 0.03784396 0.10870976 -0.10496771 -0.09393053 0.13711847
-0.12408562 -0.011717373 -0.024970341 -0.015055935 0.0834265 -0.096971154 0.05955222 0.09835258
0.112624824 0.0891082 -0.034797493 0.073374175 0.048961286 -0.05855796 0.013972937 0.012203195
-0.04985321 0.092804655 0.074989274 0.069378585 0.0771688 0.10247833 -0.0016079539 -0.11806478
-0.10201015 -0.043680917 -0.0074459817 -0.08211622 -0.01486538 -0.08029014 -0.103430435 -0.07325686
-0.004952442 -0.112626515 0.10133739 -0.08995404 0.10028734 0.03274911 -0.054385837 0.10738283
0.09185279 0.054879364 0.0042162007 -0.08377332 -0.02590827 0.020187575 0.015154028 0.0847769
-0.06302863 0.08119132 0.093375035 -0.114276424 -0.040480636 -0.059583295 0.056963667 -0.1017542
-0.08777336 -0.023691244 0.037640125 -0.018957132 -0.06536601 -0.08764587 -0.1221872 -0.024791535
0.027193919 0.07676052 -0.09080925 -0.10442298 -0.08650798 -0.08468562 -0.10157687 0.028366622
0.11715721 -0.06547272 -0.053290915 -0.017668864 0.122018375 0.0807399 0.038456157 -0.098191254
0.03597499 -0.024111489 -0.043033164 0.119683556 -0.08815813 0.0030816526 -0.10882843 0.09465891
-0.05655843 0.114023164 0.027869284 0.1265434 -0.04354238 -0.05316659 0.02377312 0.117276356
0.07648697 0.10632051 0.087135136 0.08538052 0.098531276 0.116666585 0.07850323 0.081398845
-0.09644803 -0.10834769 -0.10419558 0.093109086 0.08736336 -0.10013511 -0.053842716 0.08678987
-0.02183552 -0.0965307 0.04251976 -0.09092928 0.0153075615 -0.057677437 0.06234577 0.011476168
-0.0606669 0.047534596 0.0056773075 -0.098319486 0.05410486 0.051390562 0.035125267 0.023082001
-0.052687097 0.0945476 -0.09394904 -0.07184656 0.04305663 -0.029769849 0.07104912 0.1170108
-0.045046415 0.08005222 0.04665737 0.02412896 -0.09007877 -0.1300144 -0.12806161 -0.08051591
0.021721585 0.07712059 -0.02818663 0.08191031 -0.080370255 -0.109068505 -0.02528683 0.01327085
-0.09496859 0.020668276 -0.100171275 0.08311593 -0.030240405 -0.095529616 0.048814494 0.022803163
0.053018637 0.0374833 -0.12428457 0.034378793 0.08763695 0.0148567315 0.08277649 0.029648354
0.104224466 0.08763652 -0.034225434 0.057003275 0.053465825 0.03083301 -0.0070520216 -0.051328734
0.054734994 -0.078804746 0.052550524 -0.038104612 0.028759606 -0.039132293 0.10251037 -0.0999047
0.08100645 -0.12086653 -0.00038274447 -0.1267234 -0.08643297 -0.028111823 0.017313974 0.009084036
-0.030906862 0.03657723 0.07858056 0.07772732 0.07532062 0.101130694 -0.021417065 -0.11319144
00000000: 06cb 44bd 5a42 bb3c 3645 c3bd e15f dfbc
00000010: 8490 91bd 278a 1abd fd95 b23d 4ef7 98bd
00000020: 8f3f eb3b 4a5f d53c fc28 a5bd e977 693c
00000030: 9d1c c6bc a734 d23d 23dc 8d3d 8576 b4bd
00000040: 8981 d5bd 8ce7 d93d 033c a9ba bcd3 193c
00000050: e3c8 d43d dc51 1f3d 558d 4ebd e4e8 62bd
00000060: 3dbd 883d 6427 6e3c 5f7a d5bd c644 be3c
00000070: 8f3f a03d 6fb0 813d 5a5f bcbd 5250 043d
00000080: a4c8 c6bd 333a 23bd e86a e9bc e4b5 173d
00000090: b073 e0bd 6f52 d1bd 5dbe b73c 3845 4a3d
000000a0: 4464 6d3d 5c1a 2dbc 7f0b 843d 1fd7 4e3d
000000b0: b7a5 d43b 3292 93bc af3b 80bd 52f8 95bd
000000c0: 8294 8cbd 5794 dfbd 82ae ebbd 4502 1b3d
000000d0: 39a3 de3d 50f9 d6bd a65e c0bd c968 0c3e
000000e0: 9a20 febd 39fa 3fbc 9a8e ccbc 2bad 76bc
000000f0: 83db aa3d d098 c6bd 07ed 733d 146d c93d
00000100: d8a7 e63d 5c7e b63d d187 0ebd 3345 963d
00000110: a18b 483d 79da 6fbd bfee 643c e9ef 473c
00000120: e132 4cbd 5e10 be3d fa93 993d 5c16 8e3d
00000130: ad0a 9e3d 29e0 d13d fbc1 d2ba f3cb f1bd
00000140: b3ea d0bd c3ea 32bd 6cfd f3bb 8c2c a8bd
00000150: ec8d 73bc 286f a4bd 56d3 d3bd b107 96bd
00000160: 1848 a2bb bba8 e6bd fa89 cf3d d339 b8bd
00000170: 7363 cd3d ee23 063d afc3 5ebd 87eb db3d
00000180: 511d bc3d 2fc9 603d 0e28 8a3b 5991 abbd
00000190: 953d d4bc 6a60 a53c 9a48 783c 839f ad3d
000001a0: 2815 81bd a347 a63d 693b bf3d c209 eabd
000001b0: 06cf 25bd 9d0d 74bd bc52 693d 8264 d0bd
000001c0: 85c2 b3bd 2414 c2bc 882c 1a3d fd4b 9bbc
000001d0: 9dde 85bd ae7f b3bd 483d fabd 9e17 cbbc
000001e0: c8c5 de3c 9f34 9d3d 33fa b9bd b7db d5bd
000001f0: 192b b1bd a86f adbd 8907 d0bd 1e61 e83c
00000200: 1ff0 ef3d 9016 86bd 9347 5abd 4bbe 90bc
00000210: c5e4 f93d f65a a53d 3484 1d3d 7f18 c9bd
00000220: 835a 133d 7585 c5bc 8b43 30bd a71c f53d
00000230: 408c b4bd 8df5 493b 71e1 debd 88dc c13d
00000240: d0a9 67bd fa84 e93d 204e e43c 9894 013e
00000250: 7f59 32bd 36c5 59bd d9bf c23c 962e f03d
00000260: 33a5 9c3d 91be d93d e873 b23d fbdb ae3d
00000270: c4ca c93d e4ee ee3d 4dc6 a03d 70b4 a63d
00000280: 8b86 c5bd 65e5 ddbd 7e64 d5bd faaf be3d
00000290: 90eb b23d a313 cdbd 2e8a 5cbd e3be b13d
000002a0: 68e0 b2bc e3b1 c5bd 3329 2e3d 2139 babd
000002b0: 91cc 7a3c 2d3f 6cbd 475e 7f3d 8a06 3c3c
000002c0: db7d 78bd a3b3 423d b508 ba3b ba5b c9bd
000002d0: 0f9d 5d3d e97e 523d 83df 0f3d 7716 bd3c
000002e0: 6dce 57bd 2ca2 c13d 5b68 c0bd 4a24 93bd
000002f0: 265c 303d e6df f3bc 3382 913d 5ca3 ef3d
00000300: 9782 38bd 6bf2 a33d cc1b 3f3d 19aa c53c
00000310: 387b b8bd 7f22 05be 9522 03be 87e5 a4bd
00000320: 77f1 b13c 66f1 9d3d a6e7 e6bc 98c0 a73d
00000330: 2999 a4bd 4f5f dfbd 5326 cfbc fb6d 593c
00000340: e47e c2bd 8450 a93c 9926 cdbd af38 aa3d
00000350: baba f7bc 08a5 c3bd b5f1 473d b3cd ba3c
00000360: 122a 593d 1788 193d e988 febd c7d0 0c3d
00000370: 007b b33d a669 733c b886 a93d 1be1 f23c
00000380: a373 d53d c77a b33d f82f 0cbd 447c 693d
00000390: fbfe 5a3d 8295 fc3c a514 e7bb 143e 52bd
000003a0: cd31 603d 6264 a1bd 383f 573d 9513 1cbd
000003b0: 4499 eb3c 2f49 20bd f5f0 d13d d69a ccbd
000003c0: b6e6 a53d df88 f7bd 18ab c8b9 c7c3 01be
000003d0: c503 b1bd c44a e6bc 09d6 8d3c 35d5 143c
000003e0: 6330 fdbc 01d2 153d d8ee a03d 802f 9f3d
000003f0: b241 9a3d 9c1d cf3d d772 afbc ead0 e7bd

fc2.bias f4 [64]
-0.08490402 0.09199352 0.0075990893 -0.021958202 0.047554687 -0.09180909 0.064518906 0.08433346
-0.0002288146 0.08536537 -0.008497286 -0.10483951 -0.08000977 -0.05070775 0.05424434 -0.07324581
0.09874949 -0.04011305 0.044167604 -0.024295574 0.04405509 -0.10787537 0.026250673 -0.08916527
0.09074888 -0.080216385 -0.023059377 -0.093581825 0.096827604 0.0760939 -0.049495157 -0.08502191
0.031558093 -0.055591915 -0.07496195 0.005957239 -0.091848694 -0.06553911 -0.06125111 -0.10671901
-0.08723997 -0.066432536 0.014953899 0.03397727 -0.050532084 0.11061965 -0.12383609 0.05573256
-0.022195881 -0.10663086 0.04592169 0.13813055 0.01012279 -0.045203257 0.053366657 -0.03795626
0.0665701 0.049103897 0.013566743 -0.032974757 0.028470147 0.022669213 0.046950106 -0.062606014
00000000: 29e2 adbd 1967 bc3d c801 f93b b0e1 b3bc
00000010: b4c8 423d 6706 bcbd 7d22 843d 05b7 ac3d
00000020: f4ed 6fb9 0ad4 ae3d 3338 0bbc 19b6 d6bd
00000030: 2adc a3bd eeb2 4fbd 502f 5e3d e601 96bd
00000040: 2c3d ca3d 954d 24bd 17e9 343d 8307 c7bc
00000050: 1c73 343d c3ed dcbd a70b d73c 489c b6bd
00000060: 8cda b93d 7d48 a4bd 05e7 bcbc d4a7 bfbd
00000070: 8d4d c63d 1ed7 9b3d 6fbb 4abd f81f aebd
00000080: 0f43 013d 59b4 63bd a785 99bd f134 c33b
00000090: 2b1b bcbd 5e39 86bd 72e2 7abd 7f8f dabd
000000a0: dfaa b2bd c80d 88bd 3301 753c c02b 0b3d
000000b0: bbfa 4ebd 8e8c e23d c79d fdbd d347 643d
000000c0: 23d4 b5bc 4861 dabd 6218 3c3d 1872 0d3e
000000d0: 0fda 253c 0d27 39bd ff96 5a3d 0678 1bbd
000000e0: e855 883d 2b21 493d 0b47 5e3c 8a10 07bd
000000f0: 3a3a e93c c9b4 b93c c14e 403d 9537 80bd

fc3.weight f4 [4, 64]
0.12572771 -0.0103274565 0.11601961 -0.10804368 -0.07215579 -0.004277006 0.042262148 -0.052009143
0.041353665 -0.008032398 -0.053086717 0.08311079 -0.08674607 -0.048276354 -0.04337807 -0.06016174
-0.07878991 -0.055366844 0.12851188 -0.063144825 0.060752302 0.013897309 0.029426184 0.035956003
-0.059636768 0.09592491 -0.09878901 0.037970375 0.120457046 -0.056987975 0.086421065 -0.09872795
0.054760452 -0.09809806 0.0708442 0.0064772153 0.09810354 0.07919561 0.09711849 -0.0026129328
0.008006834 0.12875728 0.12923178 -0.0001455639 0.11339701 -0.014348108 -0.06306401 -0.09734411
0.102952346 -0.0018417469 -0.08171206 0.13463153 0.1110737 -0.0644312 0.0376374 -0.098671846
0.01625606 0.11742771 0.05037404 -0.09190931 0.072390735 -0.006226235 -0.10735316 -0.05165414
-0.07375712 -0.0665838 -0.06331859 -0.08899464 -0.013977855 0.12495156 0.080576405 0.035576895
-0.029770058 0.12413888 -0.019927258 0.1004241 -0.09935926 -0.12254931 0.078885645 0.05908058
0.09930734 -0.06969437 -0.10108428 0.026000535 -0.020610083 0.008244279 0.024478309 -0.06202093
-0.0007188168 -0.016775712 -0.11441852 -0.11289766 0.09141994 -0.09661652 0.08286147 -0.026133768
0.04327587 -0.017727135 -0.08295515 0.025992785 0.023104502 -0.13236544 0.10969818 0.010144243
-0.07933619 0.06457641 0.0053304466 -0.1184487 0.057818256 0.009245165 -0.05672887 0.10814884
-0.07980043 0.013878531 0.026775757 -0.01523772 0.025619704 -0.013135861 -0.02030988 -0.04049234
0.073095 0.09942276 -0.028790718 -0.08467159 0.10816023 -0.04986745 0.07477215 -0.059227724
0.06416454 0.056647543 0.04391639 -0.09509563 -0.042862542 0.081286624 0.088567875 -0.02069438
-0.093896724 0.0054865507 0.06815599 0.008292198 0.00089918263 0.017347863 0.10839439 -0.10443192
0.057611812 0.08364218 0.11467644 -0.043160696 -0.023687754 -0.09727952 -0.041100204 -0.07160554
0.0007813045 0.087507874 -0.09874833 0.09292606 0.099471636 -0.067731224 0.12476946 0.01880045
0.014888804 -0.060720295 -0.104908265 0.0009085511 -0.05036156 0.038835026 -0.02189023 0.09454983
-0.050350353 -0.008605173 -0.084250644 -0.10638732 0.038547333 0.074794166 -0.12076796 0.09080861
-0.033624053 -0.016781405 0.02428278 -0.04043536 0.037444282 0.05502141 0.050554242 -0.03151907
0.025985623 -0.10843201 -0.048341915 0.061060853 -0.024986258 0.077674724 0.038304355 -0.084736936
-0.03892659 -0.04533128 -0.0068808133 -0.015479464 0.015471578 -0.07398935 -0.10095215 -0.014087604
-0.063759856 -0.058655884 0.10978634 -0.014193289 0.10778079 0.0948984 0.036950942 0.114950135
0.040626377 0.04025285 -0.0373501 -0.0605534 -0.019958839 -0.10792982 0.04351499 0.05640015
-0.027432835 -0.10272569 0.12707712 0.085529804 -0.052372467 0.071316704 -0.0021187323 -0.09844591
0.01743054 0.026302684 0.07627426 -0.02976343 0.1117911 -0.080383144 0.09624894 -0.06483856
-0.040086556 -0.0040891776 0.12048084 -0.04455167 0.10551634 -0.0032102468 -0.089454755 0.11271752
-0.090636365 0.10543931 -0.048541527 0.057112414 -0.025185976 0.053458087 -0.06649188 -0.06405675
-0.058441907 0.03967297 0.056987036 -0.07203186 0.015738254 -0.005990858 0.13132179 0.014854497
00000000: c4be 003e 7e34 29bc b09b ed3d 0146 ddbd
00000010: 6ac6 93bd 2026 8cbb 131b 2d3d 8a07 55bd
00000020: 7662 293d 529a 03bc 7571 59bd fd35 aa3d
00000030: eca7 b1bd 6dbd 45bd 34ad 31bd 286c 76bd
00000040: 9b5c a1bd 58c8 62bd 9e98 033e 1352 81bd
00000050: 68d7 783d 8ab1 633c 2e0f f13c 9a46 133d
00000060: af45 74bd 4774 c43d e451 cabd d386 1b3d
00000070: 2fb2 f63d 396c 69bd 87fd b03d e131 cabd
00000080: 7f4c 603d a3e7 c8bd c416 913d d23e d43b
00000090: 82ea c83d 4f31 a23d 0fe6 c63d bd3d 2bbb
000000a0: 192f 033c f3d8 033e 5655 043e 83a2 18b9
000000b0: b13c e83d 5414 6bbc b427 81bd 595c c7bd
000000c0: aed8 d23d c566 f1ba a758 a7bd d9dc 093e
000000d0: 9c7a e33d 81f4 83bd ad29 1a3d 7714 cabd
000000e0: 6e2b 853c f07d f03d 0255 4e3d f33a bcbd
000000f0: 9841 943d 7205 ccbb f9db dbbd 4b93 53bd
00000100: f90d 97bd 165d 88bd 2dad 81bd d242 b6bd
00000110: 6003 65bc 9ae6 ff3d 3e05 a53d 14b9 113d
00000120: 56e0 f3bc 863c fe3d 7d3e a3bc 27ab cd3d
00000130: de7c cbbd 22fb fabd cc8e a13d 7afe 713d
00000140: a661 cb3d ecbb 8ebd 4605 cfbd 13ff d43c
00000150: 7ad6 a8bc 0313 073c bc86 c83c a909 7ebd
00000160: fb6e 3cba 386d 89bc 4254 eabd e336 e7bd
00000170: 613a bb3d e2de c5bd 46b3 a93d 7c16 d6bc
00000180: 0a42 313d 7f38 91bc 64e4 a9bd d2ee d43c
00000190: a745 bd3c ce8a 07be 70a9 e03d 0a34 263c
000001a0: 037b a2bd a340 843d 07ab ae3b 3b95 f2bd
000001b0: d6d2 6c3d 0879 173c 885c 68bd 247d dd3d
000001c0: 686e a3bd c762 633c d558 db3c a1a7 79bc
000001d0: 6ae0 d13c cb37 57bc e860 a6bc 4cdb 25bd
000001e0: d5b2 953d 299e cb3d 83da ebbc 4c68 adbd
000001f0: 1c83 dd3d d041 4cbd 2422 993d c598 72bd
00000200: b368 833d 4107 683d ace1 333d 7fc1 c2bd
00000210: a290 2fbd 9a79 a63d 1363 b53d 4387 a9bc
00000220: ed4c c0bd 86c8 b33b 5e95 8b3d 00dc 073c
00000230: 20b7 6b3a 1b1d 8e3c e1fd dd3d 67e0 d5bd
00000240: 5dfa 6b3d 974c ab3d 7bdb ea3d 45c9 30bd
00000250: d20c c2bc 7c3a c7bd b058 28bd eda5 92bd
00000260: 75d0 4c3a 5437 b33d 903c cabd 0550 be3d
00000270: c9b7 cb3d abb6 8abd 2187 ff3d 6703 9a3c
00000280: 2cf0 733c d8b5 78bd 25da d6bd d52b 6e3a
00000290: ec47 4ebd 7a11 1f3d 2453 b3bc 57a3 c13d
000002a0: 2c3c 4ebd b6fc 0cbc 9a8b acbd 98e1 d9bd
000002b0: cfe3 1d3d af2d 993d 3155 f7bd ddf9 b93d
000002c0: 60b9 09bd 2879 89bc aeec c63c 8c9f 25bd
000002d0: 2d5f 193d 215e 613d f711 4f3d 241a 01bd
000002e0: cddf d43c 9a11 debd 2c02 46bd f21a 7a3d
000002f0: fbaf ccbc ed13 9f3d 07e5 1c3d 8f8a adbd
00000300: 7d71 1fbd 4bad 39bd 7278 e1bb 949d 7dbc
00000310: 807c 7d3c ba87 97bd 00c0 cebd b2cf 66bc
00000320: 8794 82bd 2741 70bd a9d7 e03d f88a 68bc
00000330: 2dbc dc3d 185a c23d df59 173d fa6a eb3d
00000340: d867 263d 2ce0 243d 6bfc 18bd d806 78bd
00000350: b880 a3bc 4f0a ddbd c63c 323d d803 673d
00000360: d3ba e0bc d961 d2bd 8120 023e 402a af3d
00000370: 8384 56bd 7e0e 923d 6eda 0abb 029e c9bd
00000380: 7eca 8e3c ba78 d73c ae35 9c3d 70d2 f3bc
00000390: bbf2 e43d eb9f a4bd 2a1e c53d 14ca 84bd
000003a0: cd31 24bd 82fe 85bb a9be f63d d07b 36bd
000003b0: f318 d83d 0163 52bb 0e34 b7bd 71d8 e63d
000003c0: 8f9f b9bd 91f0 d73d 7bd3 46bd b5ee 693d
000003d0: d252 cebc def6 5a3d e52c 88bd 2f30 83bd
000003e0: c860 6fbd 2080 223d 3d6b 693d 7185 93bd
000003f0: 83ed 803c f64e c4bb 3879 063e 4760 733c

fc3.bias f4 [4]
-0.031035287 0.034860827 0.08258824 0.04375053
00000000: b73d febc 3aca 0e3d 0624 a93d c133 333d
