mlruns/0/77715084d509416c93bc9abc05553e08/artifacts/checkpoint.pth (torch_old, 28447 bytes, 6 tensors)

fc1.weight f4 [64, 37]
00000000: 7063 0f3e 0247 85bd 91ce 5cbb 73a0 e93d
00000010: ae4d e9bd 1849 343d 4e38 923d eee6 1cbe
00000020: 5739 4c3d a0e5 26bd 9ceb 2a3e b5e5 8c3c
00000030: dd38 043e c419 c73d 32e9 9a3d a11f 0bbe
00000040: efe3 143e 9590 ecbd f95a ac3d 10a8 b53d
00000050: aaee 8d3c 71c7 1e3e ae76 2dbd 078b 9fbd
00000060: ad2b 8e3d 3223 76bc 1fa0 fabd 9108 debd
00000070: d102 b2bd db7d 833d 4e5d d5bd 6268 b53d
00000080: 21bd 153e ca9e 45bd 3a3d dc3d 85ce 6dbc
00000090: 39dd eb3d 533c 30bc 0e9d d1bd e03f e83d
000000a0: 0545 d7bd d2fb 263d 90fe 9b3d 01c5 07be
000000b0: 74f1 f8bd b8ad b73d 2907 1abe 0551 f0bd
000000c0: cc7a 8f3d 728a 81bd 3947 e43d 1780 4dbd
000000d0: db19 023d 6de5 81bd 50a8 1c3c 7317 1fbe
000000e0: 94a0 cebd 4894 e4bd a9aa 093d 1c9d 41bd
000000f0: 43e5 0b3e f383 ba3c c474 013e 5a65 c7bd
00000100: c9a4 4a3d 3799 aebb 8ec9 213e 858a 8f3d
00000110: c75e b3bb 953d f1bd 03c2 f7bd b063 6fbd
00000120: 43d5 c33d cf19 e4bd b481 9bbd 3c51 13be
00000130: a39c 143e 448e 133e e419 d5bd 960b 2abb
00000140: 2383 2fbc f154 9d3c 66a4 ecbd 06b8 e2bd
00000150: a7ff 01bd 1718 0cbe 503e 89bb 61f6 a7bd
00000160: e927 11be 11ce eebc 9348 96bd 8595 8d3d
00000170: 847f fe3d 2dd2 cebd d682 77bd 33df 09bd
00000180: e872 3bbe eedb 25be 5387 773d d9da 56bc
00000190: d621 b3bd bd17 183e 0079 21be a675 093e
000001a0: 33fe 28be 7d49 d1bd 0105 a03d ab2f f6bc
000001b0: 08d5 65bd d45d ebbd 9c24 2d3d 381d ce3d
000001c0: ce86 6d3d 45d1 2f3e ee71 0abe ed01 21be
000001d0: 74d0 cabd ec09 623b 3aca 583c 7147 b5bc
000001e0: 1b06 0e3d 3e72 f4bd 537b 79bd c23b 683c
000001f0: 98bb 703d 9857 fcbd b762 ac3d 86ff f3bc
00000200: 752d 993d 3e8a 153e f6cf a13d 43e1 3c3d
00000210: 7994 9bbd 4b80 12be cb4a 953d 75ee f53d
00000220: a609 b03d 7670 b2ba 6b97 033e e91e 97bd
00000230: 0557 babd df93 c6bd 00da 94bd 14b6 4dbc
00000240: c423 33be 9016 e23d 3873 1fbe 2785 71bd
00000250: c47a 8f3d aaee beba 0332 21bd 2bb7 16be
00000260: 2f48 df3d 3df7 2d3e 2d77 2c3d eb0e b8bd
00000270: eb3f 1abd 783a e6bd 7359 8f3d 9c12 8d3d
00000280: 978a 5bbc 6b8c 7cbd 8b19 c73d 990a 1f3b
00000290: 8559 553d b7c9 3e3d bc4b fa3d 7c78 a2bd
000002a0: d33d 09be a1b9 763c e5d4 00be 11ee 09be
000002b0: e01a 053e 89be 2a3c 10d5 053e ebc4 8c3d
000002c0: 58af f93d 5d4d 333d a98b 203e 13b8 54bd
000002d0: 9784 b6bd cf30 25bd d551 a8bc 2eec c03d
000002e0: bc45 54bc 334a 283b fd04 afbd e925 14be
000002f0: 0594 433d c520 bbbd f50b 093e 88a3 083e
00000300: a897 18be 6906 94bd d145 eebd a4c4 153e
00000310: cc96 c1bd b6bc 333e fb05 003e d3cd 08bd
00000320: bc94 8ebd 44e8 f33d e41b 2ebd 4706 10bd
00000330: 2614 9f3c d3c6 2dbe 3462 87bc d474 9e3d
00000340: 6c29 adbd 5bc6 e5bc c245 eabd cd1c 1ebd
00000350: ab1b 973d d6e3 e4bc 6f8a 08be 3fe5 dc3c
00000360: 9982 05be 7413 023e 23f2 343d b5ee 943b
00000370: a3e3 e1bd 33e6 1a3e e1af 10be fd85 3b3c
00000380: dbfe f0bd f621 1ebe cd45 743d c1cf 073e
00000390: ef62 963d d4e5 213e aff8 6a3b d6e2 ccbd
000003a0: 213c 763d 47ed 04bc 4d08 1e3c 8645 5b3c
000003b0: be09 0dbe 19b6 15bd eb8e 243e a40e ed3d
000003c0: beff 183e 8bd5 7c3d 5c55 243e 22f7 2a3d
000003d0: 45fe 823c 0361 3dbc 8aa6 53bd 58f2 ee3d
000003e0: 166e c2bd c5cd 11bd 9b5a d03d c6fa a33b
000003f0: 7166 b2bd 8ba9 8dbc 1f4c ac3d ae0a 09bd
0.14002776 -0.06507684 -0.003369246 0.114075564 -0.11391769 0.04401502 0.071396455 -0.15322468
0.04985937 -0.04074633 0.1669144 0.017199377 0.12912317 0.09721711 0.0756401 -0.13586284
0.14540075 -0.11551014 0.08415789 0.08869946 0.017325718 0.15505768 -0.04234951 -0.07790189
0.06941924 -0.01502304 -0.12237572 -0.10841478 -0.086919434 0.064204894 -0.10418187 0.088578
0.14622928 -0.048247136 0.107538655 -0.01451457 0.11516804 -0.01075657 -0.10235034 0.11340308
-0.10511211 0.0407675 0.07616913 -0.13258745 -0.121554285 0.08968681 -0.15041794 -0.11734203
0.070058435 -0.063252345 0.11146397 -0.050170984 0.03176294 -0.063425876 0.009561613 -0.15536289
-0.100892216 -0.11161095 0.03361002 -0.04726897 0.13661675 0.022767996 0.12642199 -0.09736128
0.049473558 -0.005328323 0.15799543 0.070088424 -0.005473945 -0.11779324 -0.12097552 -0.05844468
0.09562161 -0.11137735 -0.07593098 -0.14386457 0.14512877 0.14409739 -0.10405329 -0.0025946847
-0.010712418 0.019205542 -0.11554794 -0.11070256 -0.03173795 -0.13681065 -0.0041883364 -0.0820129
-0.14175381 -0.029150994 -0.07338061 0.06913284 0.124266654 -0.100986816 -0.06042751 -0.033660125
-0.18305552 -0.16197178 0.06043179 -0.013113701 -0.08746688 0.14852805 -0.15768814 0.13423786
-0.1650322 -0.10219095 0.078134544 -0.030052027 -0.056111366 -0.11492506 0.04227124 0.10064167
0.057989888 0.17169674 -0.13520023 -0.15723391 -0.099030405 0.0034490777 0.013231808 -0.022128792
0.03467379 -0.119358525 -0.060908627 0.014174404 0.058772653 -0.12321395 0.08417266 -0.029784929
0.07479373 0.14603516 0.079009935 0.046113264 -0.07596678 -0.14306752 0.07289656 0.12008373
0.0859559 -0.0013613838 0.1285073 -0.073789425 -0.09098629 -0.09696173 -0.07268143 -0.012555618
-0.17494112 0.1103946 -0.15571296 -0.058964875 0.070058376 -0.0014566977 -0.039354336 -0.1471831
0.1090244 0.16988845 0.042105842 -0.089872204 -0.037658613 -0.11241621 0.06999483 0.06888315
-0.013399742 -0.06165735 0.09721669 0.0024267791 0.052087326 0.04657909 0.122214764 -0.07933137
-0.1340249 0.015058906 -0.12581213 -0.13469721 0.12998533 0.010421404 0.13069558 0.068734966
0.12191647 0.04377495 0.15678276 -0.05193336 -0.08912008 -0.04032975 -0.020546833 0.09420048
-0.012956079 0.0025678992 -0.08545873 -0.14467587 0.047748584 -0.0913711 0.13383467 0.13343632
-0.14901602 -0.07227785 -0.1163441 0.14625794 -0.0945259 0.17552456 0.12502281 -0.033399414
-0.069619626 0.119095355 -0.042507067 -0.035162237 0.019418787 -0.16970377 -0.01652632 0.07737127
-0.08455166 -0.028048685 -0.114390865 -0.038601685 0.07378324 -0.027940672 -0.13334058 0.026964782
-0.130381 0.12702733 0.044176232 0.0045450577 -0.110297464 0.15126877 -0.14129592 0.0114455195
-0.1176736 -0.15442643 0.05963688 0.13262846 0.07343089 0.15810329 0.0035853793 -0.10004203
0.060115937 -0.008113212 0.009645534 0.013383275 -0.13773248 -0.036550615 0.16070144 0.11575058
0.14941308 0.061727088 0.16048187 0.04173959 0.015990386 -0.011558774 -0.051672496 0.11667317
-0.094936535 -0.035596628 0.101735316 0.0050042598 -0.087109454 -0.017292758 0.084129564 -0.03345745

fc1.bias f4 [64]
00000000: 52d2 50bd 6f41 ecbd 7cd6 f1bd 75e5 30be
00000010: 6a21 c0bd 2830 e63d 2157 f23d 2340 0abc
00000020: 5104 78bd e0c3 143e 08b3 e9b9 209f 093e
00000030: bb87 293c 2da7 03be 6c79 2abe 9b1a 07be
00000040: 4db2 22be e7f7 793d c93e 19bd 33c7 0bbe
00000050: 15d1 35bd d8fb 163d da87 743d fab0 dbbd
00000060: a175 0dbd 77d5 f33d 4034 d6bd 7e6c 8ebd
00000070: c16c 3abd 25e7 aa3d e5d3 cabd be1b 1cbd
00000080: d389 4b38 a592 30bd 53cf 15be fefb f23d
00000090: a991 0d3d 3483 513d 5e9c 163e d8fa 30bd
000000a0: 8219 c1bd ea9b cbbd 1ec2 e1bc fd35 a43d
000000b0: a528 303e bb3e a1bd 4c3b 993d 6ce4 2dbc
000000c0: a5aa 163e 0420 ab3d 473a 103e 6f88 ca3d
000000d0: 4441 92bd c41f 35bd 80df c83d f841 dc3d
000000e0: 5c1e cebd c3f7 25bd 9b89 eebd aeab 5ebd
000000f0: 2074 203d 3fe1 06bb 35c6 0cbe 11dc e9bd
-0.050981827 -0.11535918 -0.11808488 -0.17275031 -0.09381373 0.11239654 0.11833025 -0.008438143
-0.06055099 0.14527845 -0.00044574612 0.13439608 0.010347302 -0.12856741 -0.16647881 -0.13193743
-0.15888329 0.061027434 -0.037413392 -0.13650207 -0.04438885 0.03686127 0.05969987 -0.10727115
-0.034536008 0.119059496 -0.10459185 -0.06954287 -0.045513872 0.083448686 -0.09903697 -0.038112395
4.852733e-05 -0.0431086 -0.14629869 0.1186447 0.03456274 0.051150516 0.14708087 -0.043207973
-0.09428693 -0.099418476 -0.027558383 0.0801811 0.17203005 -0.07873293 0.07482013 -0.010613542
0.14713533 0.08355716 0.14084731 0.09889304 -0.07141355 -0.044219747 0.09808254 0.1075477
-0.10064384 -0.040519487 -0.1164734 -0.054362945 0.039173245 -0.0020581034 -0.13747485 -0.114189275

fc2.weight f4 [64, 64]
00000000: ec2d 54bd 3070 823c 3645 c3bd 0428 30bd
00000010: e627 8ebd bcff 1bbd bf49 b33d 2662 a9bd
00000020: 609b ebbb 4864 983c 777a a2bd d371 843c
00000030: 40ad dabc 1005 cd3d f885 5a3d c094 b3bd
00000040: 84f7 dcbd a86f bd3d e0c9 27bc 3807 283c
00000050: f455 cd3d 9654 e33c 4c3e 49bd e4e8 62bd
00000060: a892 673d 8015 7c3c dc2c d0bd 7492 3c3c
00000070: 48d4 a53d 2b9e 3d3d 521b bdbd 1595 c13c
00000080: e779 c3bd 01de 1fbd 1c46 31bd e4b5 173d
00000090: 2a26 dbbd a1a8 cbbd 1a28 ac3c 3845 4a3d
000000a0: acb8 623d 1060 95bc 64e0 763d 42ae 1d3d
000000b0: 5070 13bc adde 07bd b719 a1bd b086 b1bd
000000c0: 1cd6 a2bd 6e99 e4bd e05d f3bd 807c bb3c
000000d0: 92e7 dd3d e1dd cfbd a879 bbbd e95e f93d
000000e0: bce7 fabd e75d 2dbc 8855 e1bc c069 8ebc
000000f0: 2a04 a83d e429 e5bd 6481 503d 482d ca3d
00000100: 1e00 f63d 4262 ac3d f645 afbc e8e2 953d
00000110: d359 333d cec4 59bd dcaf 8f3c 0136 ba3c
00000120: 3b33 4bbd c357 bb3d 3632 9f3d 9633 943d
00000130: f186 ac3d f4e5 e43d 2994 14bc 74d3 f0bd
00000140: db82 d0bd 72dd 60bd a746 53bc fc55 a0bd
00000150: 8798 6a3b 1fac a7bd 5485 d2bd 3c80 44bd
00000160: 5dac abbb 7459 06be 781c d03d 7ef0 bebd
00000170: 8383 d93d 716d e23c 6425 59bd 66fc d53d
00000180: ddb0 c03d a96c 8a3d 9531 00bc a09a 9fbd
00000190: 9a1d 31bd 2dbc c73c 3167 943c 6843 be3d
000001a0: 1a8e 63bd 33a0 973d ddba bf3d 975c fdbd
000001b0: ba7b 1ebd cb45 84bd cf58 743d ef9f fcbd
000001c0: 5eb9 adbd a439 00bd df65 343d 26c4 87bc
000001d0: 5849 51bd 3486 a9bd 0ca9 06be 8e3b 21bd
000001e0: d5b9 ab3c 1f51 a53d 0126 cebd 9f0d e6bd
000001f0: 2b64 babd 866a acbd 6679 a9bd 0894 003d
00000200: 9762 ed3d bca1 8bbd d9e8 65bd dc28 84bc
00000210: 77a3 f13d 8935 a63d 532b 1e3d c441 d1bd
00000220: 073d 113d 09c4 d8bc a53b 36bd 16f1 f93d
00000230: 464e bbbd e492 e339 5c71 edbd 0559 bc3d
00000240: cf09 78bd 5e56 fa3d 1548 c73c 7589 023e
00000250: da89 6fbd 375e 7cbd 7abc 003d a8d3 cb3d
00000260: b198 9f3d f4d9 e73d 1c32 a13d 281e b43d
00000270: 2086 ce3d 40b1 063e e263 a43d 04c1 973d
00000280: 8750 bebd c96c e0bd cda6 dfbd e6ca bb3d
00000290: 2ceb b13d cd9f c1bd 7a21 4abd 8753 a13d
000002a0: 8a69 bfbc d411 d6bd 6876 2c3d 2941 bdbd
000002b0: 0284 513c 4ce9 75bd 9632 8f3d a2f9 913c
000002c0: 121c 72bd 4e48 1f3d 08e7 b13b bad3 c8bd
000002d0: 52d6 813d e28b 4c3d 9d9b 173d b616 ba3c
000002e0: b9a1 6cbd 1d58 b53d cdd3 bbbd 91c4 a2bd
000002f0: 2bb6 143d 3d3b e3bc 3000 913d 9597 e83d
00000300: f014 45bd ae11 9e3d 4812 603d 75e0 cb3c
00000310: 28c0 b7bd 7dbf 06be d33d 05be 9c5c a3bd
00000320: 8596 a43c ee9d 9b3d 31de fbbc 386c a33d
00000330: fa75 b1bd 98fd d9bd 57d4 d8bc c7f3 663c
00000340: 00cc bcbd 399a 7f3c c4c6 cbbd 2015 a53d
00000350: 0405 0cbd 9016 bebd d291 3d3d 7628 c13c
00000360: d3ec 503d 510d 173d b187 f6bd d077 053d
00000370: 733e b03d cadc 463c 7c7c a53d bc3a fb3c
00000380: cc7a d43d 7a91 b03d 60f1 18bd e5cd 623d
00000390: 073c 6f3d 6295 ef3c 4bcf 17bc 6811 47bd
000003a0: 0474 5e3d f7bc a2bd 5cbd 573d ecd5 1dbd
000003b0: e752 d63c 0a3f 15bd e9a2 c53d 7af5 cbbd
000003c0: f0e6 a13d b1ea fbbd 628b 46bb e3b9 03be
000003d0: 93d2 b3bd a7da f7bc 6a0e cc3c 8bb0 0b3c
000003e0: 628d efbc c4eb 253d 8c4d be3d 1a80 a83d
000003f0: f0ed 9b3d 6d6d cb3d 8300 c1bc 6edd e4bd
-0.051801607 0.015922636 -0.09534685 -0.043006912 -0.06941204 -0.038085684 0.087543 -0.082706735
-0.007190153 0.018602505 -0.079335146 0.016167557 -0.02669394 0.10010731 0.05335042 -0.08768606
-0.10789397 0.09249812 -0.010241002 0.010255627 0.1002616 0.027750295 -0.049131677 -0.055397883
0.056536347 0.015385985 -0.10164806 0.0115095265 0.0809713 0.04629342 -0.092337266 0.023630658
-0.095447354 -0.03903008 -0.043279752 0.0370387 -0.107006386 -0.09944273 0.021015216 0.04938242
0.055351898 -0.018234283 0.06027259 0.038496263 -0.008998945 -0.033171345 -0.07866233 -0.08668268
-0.07950994 -0.11162077 -0.118831396 0.022886515 0.10835184 -0.10149742 -0.091540635 0.12176306
-0.12251231 -0.01058147 -0.027506605 -0.01738441 0.08203919 -0.11189631 0.050904647 0.09871918
0.12011741 0.08417179 -0.021395665 0.073186696 0.043786835 -0.053166203 0.017539911 0.02273083
-0.049609404 0.091475986 0.07773249 0.07236402 0.084241755 0.111766726 -0.009068527 -0.117590815
-0.10181209 -0.054898687 -0.012895263 -0.078289 0.003579648 -0.08187126 -0.102793366 -0.047973856
-0.005239053 -0.13120061 0.1016168 -0.09323214 0.10620787 0.027640076 -0.053014174 0.10448532
0.09408734 0.067590065 -0.007824321 -0.07793164 -0.04324112 0.024381721 0.018115612 0.092902005
-0.05555544 0.074036025 0.09361813 -0.12371176 -0.038692214 -0.064586245 0.059655007 -0.123351924
-0.084826216 -0.03130497 0.044042464 -0.016573023 -0.051095337 -0.0827755 -0.13150424 -0.039363436
0.020962635 0.08072113 -0.100658424 -0.11233067 -0.09101137 -0.08418755 -0.08275108 0.031391174
0.1159107 -0.06817958 -0.056130264 -0.016132765 0.117987566 0.0811568 0.038615536 -0.10217622
0.03545859 -0.026460664 -0.044490475 0.122041866 -0.09145789 0.00043406256 -0.11593887 0.09196667
-0.06055623 0.122235045 0.024326364 0.12747748 -0.058481075 -0.061613288 0.031429745 0.099524796
0.077927954 0.11320868 0.07870886 0.08794814 0.10084176 0.13153553 0.08026864 0.07409862
-0.09292703 -0.10958249 -0.109204866 0.09169559 0.086874336 -0.09454308 -0.049348332 0.0787726
-0.023365755 -0.10452619 0.04210511 -0.09240944 0.012787821 -0.060036942 0.069920704 0.01781923
-0.0591088 0.038887314 0.0054291524 -0.09806009 0.063397065 0.04993809 0.03701364 0.022715908
-0.05777142 0.08854697 -0.09171257 -0.07947648 0.03630654 -0.027738208 0.07080114 0.11357037
-0.04811567 0.07718216 0.054704934 0.024887303 -0.08972198 -0.13158984 -0.13011865 -0.07976648
0.020091305 0.07598482 -0.030745598 0.079796255 -0.0866508 -0.10644072 -0.026468439 0.014096207
-0.092185974 0.015600734 -0.09950021 0.0806067 -0.03418447 -0.09281647 0.046281643 0.023578864
0.051007103 0.036877934 -0.120376 0.032584965 0.08605661 0.012137601 0.08080384 0.030667655
0.10374984 0.086214975 -0.03733957 0.055372138 0.058406856 0.029246036 -0.009265731 -0.048600584
0.05430986 -0.079461984 0.05267082 -0.03853409 0.026162578 -0.03643707 0.09650213 -0.0995893
0.07905376 -0.12300623 -0.003029548 -0.12863879 -0.08780398 -0.030255629 0.024909217 0.008525978
-0.029242221 0.040508047 0.09292135 0.082275584 0.07613742 0.09932981 -0.023559814 -0.11175047

fc2.bias f4 [64]
00000000: 5399 c5bd be7a b63d d589 2e3c 8b1c c7bc
00000010: 191b 3f3d 9949 b9bd fb55 8d3d e903 a93d
00000020: a30b 983b d4da ba3d 18f9 0ebc 5d3a d3bd
00000030: a4f2 a2bd ab9e 54bd 9f25 553d c718 9dbd
00000040: 03d8 c53d baa5 2dbd 71ef 353d 2ed6 d6bc
00000050: 5b2a 413d f72f cdbd 53b4 fa3c 9b24 c0bd
00000060: 1579 bc3d be3f a8bd 0eae cebc ffb7 c5bd
00000070: afec d03d a7e8 973d 7762 3cbd c5bb b0bd
00000080: 6a4c 103d 50f6 5ebd f4ae b4bd ff72 533c
00000090: fff9 b4bd e11d 7dbd cbe6 66bd 926b c2bd
000000a0: 5411 b9bd 7750 80bd da2e 923c 8099 053d
000000b0: 830e 35bd 85b7 de3d 4ac3 febd 9ad3 5f3d
000000c0: 8ad2 92bc 17ce e5bd cd4d 333d 0090 103e
000000d0: 4acd 503c f221 4dbd dc91 7d3d 81bc 22bd
000000e0: d05c a33d 0218 573d 836e 853c 660a 05bd
000000f0: e70c 073d dbc0 cc3c 81c0 353d a91d 86bd
-0.09648385 0.0891013 0.010652979 -0.024305603 0.0466567 -0.09047241 0.06901165 0.08252699
0.004640059 0.091237694 -0.008726381 -0.10313866 -0.07956436 -0.05190913 0.05203783 -0.076707415
0.096603416 -0.042394377 0.044417802 -0.026225176 0.047159534 -0.10018914 0.030603563 -0.09381982
0.09202782 -0.08215283 -0.02522948 -0.09654235 0.10201394 0.07417422 -0.04599234 -0.08629564
0.035229124 -0.05443412 -0.08822432 0.012905835 -0.088367455 -0.061796073 -0.056372445 -0.09493174
-0.09036508 -0.062653475 0.017844606 0.032617092 -0.044203293 0.10874847 -0.12439592 0.05464516
-0.017922658 -0.11220949 0.04377537 0.14117432 0.012744257 -0.0500812 0.06190668 -0.039730553
0.07976687 0.05251313 0.016288048 -0.03248062 0.03297129 0.024994304 0.04437304 -0.06548626

fc3.weight f4 [4, 64]
00000000: 44c6 f03d eab4 7abc 5dfd ee3d a372 d9bd
00000010: f9dd 91bd 2026 8cbb e127 2f3d ece1 4ebd
00000020: 1acf 4e3d b6f3 f8ba 0489 57bd b631 a03d
00000030: 9450 b8bd aed0 4cbd d5aa 27bd b41a 7bbd
00000040: 9d26 9fbd 1b62 64bd 4f32 0c3e 7a54 8abd
00000050: d6e9 823d 12d0 853c 5945 ea3c c7fc 083d
00000060: f3df 7cbd bc35 c33d e18a c6bd f858 253d
00000070: 3e41 e63d eafd 65bd 8908 c33d 0079 c9bd
00000080: 9c52 653d 9223 c9bd 0fe5 7f3d 20dc 013c
00000090: 93d8 cd3d 9cea 933d eba7 b43d 3a84 adbb
000000a0: 0062 043a e83b 053e fc97 043e 739c 3b3b
000000b0: fbbe cc3d 6426 59bc b326 80bd f748 c7bd
000000c0: b339 da3d c245 9cbb 3776 a6bd 0862 0e3e
000000d0: a038 e53d 621c 7cbd 41d6 213d 062d c8bd
000000e0: ca03 c23c 089e 0c3e 754e 4c3d c0e1 bfbd
000000f0: bdfc 9c3d 1639 b3bb e890 d7bd 099e 50bd
00000100: 2e27 9fbd 3e73 95bd c92e 54bd e8bd b5bd
00000110: 9958 74bc 9ae6 ff3d 5aa5 a63d 502d 133d
00000120: 9adc f8bc dfb3 f43d 37c8 a6bc 5032 c93d
00000130: 818d cdbd 87c0 e5bd 8938 9e3d 9863 593d
00000140: ac48 c73d 492c 92bd f088 c3bd 7c77 123c
00000150: b941 bfbc f025 f43c 5f6c c53c 9062 65bd
00000160: 5e34 0fbc 902a 79bc 7dad edbd 5164 ebbd
00000170: 301c 933d 38ae bbbd 768f ac3d e9ba d6bc
00000180: d445 2e3d 8309 ecbb 712e a6bd be45 cb3c
00000190: 08bd bd3c 601c 05be 6341 f13d 8a50 2f3c
000001a0: 08b6 9bbd 4295 953d e06c a03b da7f f8bd
000001b0: cad8 8e3d cf7a 393c 885c 68bd 5c87 da3d
000001c0: a649 96bd 49ba 653c f241 dc3c bcb2 0ebc
000001d0: 4bf2 cb3c fba4 89bb 9da1 aabc 66a7 29bd
000001e0: 070c 983d c568 883d d7a2 ccbc 646b b1bd
000001f0: 3b07 e03d 4659 50bd 8ab4 973d 49ce 86bd
00000200: 9cc4 7c3d 4a56 633d 1ef8 383d 7599 e2bd
00000210: 55aa 39bd 9a79 a63d 725a b23d fcd6 a9bc
00000220: 2d03 c3bd f0f2 283c ec6b b63d ad4d 693c
00000230: 9d69 323b 0ed4 8a3c a3fe dd3d fd76 ccbd
00000240: 72d7 7a3d 0bcc a13d 72bb eb3d bb1c 2ebd
00000250: 2ccf 9dbc ad29 b3bd 844d 35bd d7a2 92bd
00000260: 8351 ce3b 93ff af3d f8f4 cfbd 9b05 b93d
00000270: a204 b83d efeb 90bd 27d0 013e dd29 9a3c
00000280: 37aa 6f3c 3739 92bd 611b d4bd e172 873b
00000290: d89b 35bd 940e 083d 8946 a2bc 7005 b53d
000002a0: 2c3c 4ebd 67c5 eabb 0f57 adbd 9260 d3bd
000002b0: 7775 fe3c d33e 953d 1750 f7bd 99ec c03d
000002c0: f874 d1bc 6b7c a3bc 657a ce3c 070b 4fbd
000002d0: e6a3 e03c 7857 443d 928d 893d 0d3f cbbc
000002e0: c7a0 8d3c 9eb5 d9bd 2551 3ebd 8874 763d
000002f0: 098e 99bc fe5e ad3d d094 0e3d 89dc a7bd
00000300: 101a c9bc a357 53bd 84a4 91bb 1792 89bc
00000310: 0b10 843c 4e1c 9bbd e107 c7bd 7faa 7bbc
00000320: 0501 63bd c195 71bd 89eb d13d 9ad2 803b
00000330: db9d cb3d 0c74 be3d 17c5 213d fd56 de3d
00000340: 5d3c 2a3d 912b 1e3d 0b84 1cbd b93b 4fbd
00000350: d762 30bc 4a1d f5bd e2ba 383d 85f8 403d
00000360: bd43 debc 93d9 e0bd d413 083e 5a2a b13d
00000370: 59c7 02bd 8eba 9a3d 72e5 8c3c c045 cbbd
00000380: f2aa 823c 44e4 5f3c 29af b33d b3ce c8bc
00000390: 9043 dd3d 9882 b3bd fbb6 a43d c6ec 84bd
000003a0: ec3f 31bd 9a75 3abb 1b8d f93d 5199 2cbd
000003b0: 4ba2 b43d 64fc a83a 0e34 b7bd ccbe dc3d
000003c0: ea28 a0bd 33cb e33d 7fde 3bbd 753a 683d
000003d0: 2e81 f6bc 343b 4d3d 9e10 97bd 24c0 71bd
000003e0: a643 9ebd d6b6 2f3d cd5e 6e3d 3f97 6ebd
000003f0: aba6 5c3c 27ca d6ba 3596 083e 183e 863c
0.11756566 -0.015301922 0.11669419 -0.10617568 -0.07122416 -0.004277006 0.04276264 -0.050508425
0.050490476 -0.001899353 -0.052620903 0.078219816 -0.08999744 -0.0500037 -0.040934402 -0.061304763
-0.07771037 -0.055757623 0.13691066 -0.06754394 0.06392257 0.016334567 0.02859752 0.033444192
-0.061737012 0.095317334 -0.09694458 0.04036805 0.11242913 -0.056150354 0.09523112 -0.09837532
0.055986986 -0.098212376 0.062474307 0.007926017 0.10051074 0.072224826 0.0882109 -0.0052953037
0.00050500035 0.13011134 0.12948602 0.0028627187 0.09997364 -0.013253782 -0.06257381 -0.09730714
0.106555365 -0.004769058 -0.081280164 0.13904583 0.11192441 -0.061550505 0.03951097 -0.097742125
0.023683447 0.13732159 0.04987951 -0.0936923 0.076653935 -0.0054694517 -0.105256855 -0.050931964
-0.07771145 -0.07297371 -0.05180243 -0.08874112 -0.014913701 0.12495156 0.08137007 0.035931885
-0.030378629 0.1194837 -0.020359142 0.098240495 -0.10036755 -0.11218362 0.07725627 0.053073496
0.09730658 -0.07137353 -0.09547603 0.00893962 -0.023346769 0.029803246 0.024099527 -0.0560022
-0.008740513 -0.015207902 -0.11605356 -0.11493743 0.07183111 -0.09164089 0.084258005 -0.026212173
0.042547062 -0.0072032823 -0.08114327 0.02481353 0.023161426 -0.12999105 0.1178005 0.010700354
-0.07603079 0.07303859 0.0048957914 -0.12133761 0.06974943 0.011320784 -0.05672887 0.10670349
-0.07338266 0.014021465 0.026886914 -0.008709606 0.024895808 -0.0042005754 -0.020829016 -0.04141941
0.07424169 0.06660608 -0.024979992 -0.08663061 0.10938879 -0.050866388 0.07407482 -0.065823145
0.06171094 0.055502214 0.045158498 -0.11064426 -0.045328457 0.081286624 0.08708657 -0.020732395
-0.0952209 0.010311827 0.08907303 0.014239711 0.0027223595 0.016946819 0.10839584 -0.09983633
0.06124062 0.07900246 0.11510362 -0.04250787 -0.019263826 -0.087481834 -0.044263378 -0.071599655
0.006296338 0.08593669 -0.10154146 0.09034272 0.08985259 -0.07076251 0.1267706 0.01881879
0.014627985 -0.07139819 -0.103567846 0.0041335677 -0.044338077 0.033217028 -0.019809024 0.08838928
-0.050350353 -0.0071646455 -0.08463871 -0.10321154 0.031061871 0.072873734 -0.12075823 0.094201274
-0.02556847 -0.019956788 0.025204847 -0.050547626 0.027421903 0.04793498 0.067164555 -0.024810338
0.017288579 -0.10630344 -0.046464104 0.060169727 -0.018744485 0.08465384 0.034809887 -0.081963606
-0.02454856 -0.05159725 -0.0044446606 -0.016793294 0.016120931 -0.07573758 -0.097183 -0.015360474
-0.055420894 -0.058980707 0.10250003 0.0039313557 0.09942218 0.09299478 0.0394946 0.108564354
0.041561473 0.038615767 -0.038211863 -0.050594065 -0.010765753 -0.11968477 0.0451001 0.047112007
-0.02713191 -0.10978999 0.13288814 0.08650656 -0.031928394 0.07555114 0.017199252 -0.09925413
0.015950654 0.013665263 0.087736435 -0.024512624 0.10803902 -0.08765143 0.08042713 -0.064904734
-0.04327385 -0.0028451444 0.12185117 -0.0421384 0.088200174 0.0012892601 -0.089454755 0.10778579
-0.07820304 0.111227416 -0.045866486 0.056696374 -0.030090895 0.05010529 -0.07376216 -0.05902113
-0.07727747 0.042898975 0.058195878 -0.05824971 0.013467471 -0.001638715 0.1333855 0.01638703

fc3.bias f4 [4]
00000000: 4715 e5bc 62e5 233d 672c ac3d 942b 323d
-0.027964247 0.04001368 0.084069066 0.04349859
