mlruns/0/06df3e3747e1472c9338088a663a6136/artifacts/checkpoint.pth (torch_old, 28447 bytes, 6 tensors)

fc1.weight f4 [64, 37]
000000 73 62 19 3e 17 79 c1 bd cf 9f 73 bc 28 4b e7 3d
       0.14978962 -0.09446924 -0.014869644 0.11293632
000010 f3 af 18 be 9d 86 ff 3c df 47 5e 3d eb 62 26 be
       -0.1491087 0.031192118 0.05426776 -0.16248672
000020 11 81 59 3c bd 22 fa bc ae 5a 19 3e 73 3d ea 3b
       0.013275401 -0.030534143 0.14975998 0.0071484386
000030 6b d1 0e 3e ee 36 eb 3d c2 5a 99 3d ce 62 08 be
       0.13947074 0.114850864 0.07488014 -0.13318941
000040 c9 a4 f1 3d b4 5b aa bd 5d 21 96 3d 42 e8 9d 3d
       0.117990084 -0.08318272 0.07330582 0.07710315
000050 3a 47 43 bd 35 36 28 3e c7 4f 06 bd af fa 70 bd
       -0.04767535 0.16426928 -0.032790925 -0.05883282
000060 26 3e 6c 3d 45 a5 40 b9 dc 05 0f be 90 26 fd bd
       0.057676457 -0.00018372115 -0.13967079 -0.12360871
000070 30 99 0e be 53 b3 8b 3d 38 3a d9 bd a8 cb 54 3d
       -0.13925624 0.06821313 -0.106068075 0.051952034
000080 b3 97 32 3e 63 46 ad bd ff a5 c4 3d 17 e8 85 bb
       0.17440681 -0.08460691 0.09601974 -0.004086505
000090 fd f0 d2 3d 23 a1 7b bc f3 a0 bb bd 52 bc a7 3d
       0.10299871 -0.015358242 -0.09161558 0.08190216
0000a0 c6 37 eb bd e8 dd 01 bc 0f 61 6a 3d 66 6a cf bd
       -0.11485247 -0.007926442 0.05722147 -0.10127716
0000b0 7e 13 25 be 64 0e ad 3d ac 6b 18 be 6e 84 5f be
       -0.16120717 0.084500104 -0.14884824 -0.21827862
0000c0 7b ba 74 3d e5 eb 96 bb e4 91 02 3e 7b 4a 2b bd
       0.059748154 -0.0046057575 0.12750965 -0.041819077
0000d0 af 45 4c 3c 4a 18 3d bd bc 7c bf bd 2b a8 ce bd
       0.012467786 -0.046165742 -0.09349963 -0.10090669
0000e0 3a 85 9d bd 78 63 ae bd 11 da 8f 3c 19 90 93 bd
       -0.076914266 -0.08515066 0.017560037 -0.07205219
0000f0 97 89 12 3e 6f 38 02 3e f1 d3 c2 3d 8b 69 68 bd
       0.14310299 0.1271684 0.09513081 -0.05674128
000100 65 8a ef 3b 2c 22 dc bc a3 4f 58 3e 53 c4 6e 3d
       0.007310199 -0.026871763 0.21124129 0.058292698
000110 75 69 11 bd f2 91 cd bd 01 2c 2b be b3 e6 32 bd
       -0.035500962 -0.100376025 -0.16716005 -0.043677043
000120 1c b5 c0 3d 6c ca d4 bd 44 ca 52 3b 1b 92 a0 be
       0.09409544 -0.103901714 0.0032164017 -0.3136147
000130 e3 25 29 3e 87 77 bc 3d 10 bc 03 be 89 26 ba bd
       0.16518359 0.092024855 -0.12864709 -0.09089381
000140 e5 19 44 be b8 a9 ed 3d d8 10 79 be 9c 39 e0 be
       -0.19150503 0.11604637 -0.24322832 -0.43793952
000150 f4 05 03 be c5 a4 35 be bb 72 85 3d dd 45 86 3b
       -0.1279524 -0.17738636 0.06516024 0.004097684
000160 24 34 d8 be 6a e2 17 bd 0e 05 5e be ab b4 19 3e
       -0.4222728 -0.03708116 -0.21681616 0.15010326
000170 82 fd e5 3d b4 b0 0d be b9 d6 e6 bd 7b 35 67 bd
       0.112299934 -0.13836938 -0.11271424 -0.056447487
000180 77 b4 6c bd ce c0 91 be a5 f2 2c be aa fa bd bc
       -0.057789292 -0.2846741 -0.16889437 -0.023190815
000190 a2 97 f5 bd 0a a6 5d 3e e0 c0 9d be 43 01 23 3d
       -0.11991812 0.2164537 -0.30811214 0.039796125
0001a0 a6 e0 85 be 95 f8 ac bd 6f cb 0b 3e 5e 57 d1 bd
       -0.26147956 -0.08445851 0.13651823 -0.10221742
0001b0 03 a8 86 be 25 86 8c bd b2 95 69 3d 82 e0 13 3e
       -0.26300058 -0.068615235 0.057027526 0.14441112
0001c0 c7 98 ae bd d5 de 5c 3e 52 ec da bd 9d 6d 3c be
       -0.08525234 0.21569379 -0.10689606 -0.18401189
0001d0 be c6 84 bd 15 e2 23 3c c8 32 c0 3c f9 9c 46 bd
       -0.064832196 0.010002633 0.023461714 -0.048489545
0001e0 d7 0d 8a 3c 8c 9b 36 bd 31 8e d1 bd 1c 5c 1b 3c
       0.016852302 -0.044581935 -0.10232199 0.00948241
0001f0 b9 6a a0 3d 5f f1 0b be 57 fd 13 3e 0f 56 05 be
       0.07832856 -0.13666295 0.1445211 -0.1302111
000200 d8 7d 21 3e d1 08 32 3e 0d e1 98 3d bc 53 09 3d
       0.15770662 0.17386176 0.074648 0.03352712
000210 43 ac a1 bd 6d 99 ed bd 3a b3 ca 3d 1d 2a 27 3e
       -0.078941844 -0.11601529 0.09897466 0.16324659
000220 53 cc a9 3d 97 80 29 3c 5d ee 41 3e ea 27 9c bd
       0.08290925 0.0103456 0.18938585 -0.076248005
000230 ee 91 8c bd dc 35 80 bd de 4a b6 bd 67 57 a2 3c
       -0.068637714 -0.06260273 -0.089009985 0.019817067
000240 0c 45 3e be 3c 68 1d 3e e3 97 0b be 95 ec 38 bd
       -0.18581027 0.15371794 -0.13632159 -0.045147497
000250 73 b8 e3 3d d8 93 49 bd 30 24 fa bc 79 71 0e be
       0.11119165 -0.04921326 -0.030534834 -0.13910474
000260 38 f6 d8 3d 19 6e 5e 3e 55 e6 2b 3c cc f9 a0 bd
       0.105938375 0.21721686 0.010491927 -0.07860145
000270 56 00 90 bd cf d6 2a be fa 82 a3 3d 16 42 ec 3c
       -0.07031314 -0.16683505 0.07983966 0.028840106
000280 35 61 85 3b cf b5 2d 3c af a7 99 3c 46 c2 82 3c
       0.004070426 0.010602429 0.018756716 0.015961777
000290 42 02 70 3d f4 38 7f 3d d3 f3 fe 3d 47 92 cd bd
       0.058595903 0.062310174 0.124488495 -0.10037666
0002a0 eb 56 dc bd 39 4f dc 3c c2 04 14 be 48 46 25 be
       -0.10758766 0.026893245 -0.1445494 -0.16140091
0002b0 a8 fa c7 3d 76 ba b1 3d ef ea d3 3d 7e 02 c9 3d
       0.09764606 0.08678143 0.103475444 0.098149285
0002c0 05 30 56 3d 4c b4 57 bc 94 13 33 3e 11 b8 b5 bd
       0.05229189 -0.013165545 0.17487937 -0.088729985
0002d0 42 3a ac 3c 00 0b de bd 3e d1 41 bd 35 81 ee 3d
       0.021023873 -0.10841942 -0.04731869 0.11645738
0002e0 5d 10 3d bc 55 51 2e 3c b7 9e b4 bd 87 ab 1a be
       -0.011539546 0.010639508 -0.08819335 -0.15104495
0002f0 9f 7a d6 3c e2 3d cd bd 8e fe f6 3d 3b 19 e5 3d
       0.026181517 -0.10021569 0.12060271 0.11186453
000300 bd e0 e1 bd f1 45 92 bd b4 49 31 be 70 63 13 3e
       -0.110291936 -0.071422465 -0.17313272 0.14393401
000310 30 f6 cb bd 13 6c 08 3e 27 d1 2b 3e 9c 1e 90 bd
       -0.09959066 0.13322477 0.16779004 -0.07037088
000320 ca c8 ed bd 19 d1 df 3d ca 14 24 bb ff 4b aa bd
       -0.11610563 0.10928554 -0.0025036805 -0.08315276
000330 83 a1 9b 3b 4e 9c 3a be d6 d1 a5 bc 59 3a 02 3e
       0.0047494783 -0.18223688 -0.02024166 0.1271757
000340 33 6b b0 bd 36 75 6e bd fd 40 1b be 38 99 21 bd
       -0.08614197 -0.05821725 -0.1516151 -0.03945276
000350 5a 08 b0 3d 66 65 0a bd ae 11 21 be 6e 3c c2 3b
       0.08595343 -0.033788107 -0.157294 0.005927614
000360 d5 bd fe bd 27 23 0e 3e 13 08 76 3d 6a 74 8b bc
       -0.12438551 0.13880597 0.060066294 -0.017023284
000370 a4 8f e4 bd a7 39 14 3e b1 5b d5 bd 61 54 e4 bc
       -0.1116021 0.14475118 -0.104178794 -0.027872266
000380 00 a9 22 be d9 69 08 be 81 02 e0 3d a1 03 11 3e
       -0.15884781 -0.13321628 0.109379776 0.1416154
000390 c0 f7 64 3d a0 be f1 3d e9 f3 00 3d 51 e1 ec bd
       0.055900335 0.11803937 0.03148261 -0.11566413
0003a0 2b d4 47 3d 78 e1 a2 bc f1 af 0b 3d 3d 91 83 3c
       0.048786324 -0.019882903 0.034103338 0.016060466
0003b0 75 cb 3b be 8b 2e 0c bb b7 f6 03 3e c4 2f 0c 3e
       -0.18339331 -0.0021390046 0.12887083 0.13690096
0003c0 78 53 ed 3d 84 a7 93 3c 47 55 01 3e e2 25 55 3d
       0.11588186 0.018024214 0.12630187 0.05203808
0003d0 24 c2 1b 3d 9e 13 99 3c d4 5f a1 bd 34 5c 18 3e
       0.038026944 0.018686112 -0.07879606 0.14878923
0003e0 89 68 14 be 59 f8 7d bc 74 95 87 3d 64 51 c4 bc
       -0.14493002 -0.015501105 0.06620303 -0.023964591
0003f0 8a 5c cb bd ed 13 26 bd 88 3f d0 3d af 96 39 bd
       -0.0992976 -0.040546346 0.101683676 -0.04530972

fc1.bias f4 [64]
000000 13 0e 86 bd 10 ac 0e be 9a 28 9c bd b6 f5 12 be
       -0.06545653 -0.13932824 -0.07624932 -0.14351544
000010 f6 09 98 bd c1 78 eb 3d 83 ec dd 3d 27 f9 09 bd
       -0.07423775 0.11497641 0.10836127 -0.033684876
000020 d9 81 87 bd ca 1a 11 3e be 6f 32 bc b6 35 f5 3d
       -0.06616563 0.14170375 -0.010890899 0.11973135
000030 a2 ac 32 bb 0b 14 0c be fc 5d 14 be 14 0f f1 bd
       -0.0027263542 -0.13679521 -0.14488977 -0.11770454
000040 f9 3e 1f be cd ef 8b 3d ba 6c fa bc 8d b0 11 be
       -0.15551366 0.06832848 -0.030569423 -0.14227505
000050 3e 5e 2b bd ee 0a 0e 3c 9e 23 c3 3d 10 43 cc bd
       -0.041837923 0.008669598 0.09528278 -0.09973729
000060 ed cd 39 bd 8b 95 07 3e 4c 9a 03 be bc f2 90 bd
       -0.0453624 0.1324064 -0.12851828 -0.07077548
000070 90 5e 9d bd 87 e1 ad 3d c3 2b c9 bd 7b 9d b2 bd
       -0.07684052 0.084902816 -0.098228 -0.08721443
000080 9f 78 b8 3a 00 71 0a bd d7 77 f1 bd 26 83 d4 3d
       0.0014074034 -0.03379917 -0.11790436 0.10376577
000090 6c 70 62 3d 8c 48 56 3d c3 05 1c 3e ab 29 29 bd
       0.055282995 0.05231528 0.15236573 -0.041299503
0000a0 29 a4 ac bd 60 19 c2 bd 80 dd 9e bc f1 f6 90 3d
       -0.084297486 -0.09477496 -0.019392729 0.0707835
0000b0 53 bf 0e 3e 4e eb c0 bd 15 58 78 3d fb a8 2f bc
       0.13940172 -0.09419881 0.060630877 -0.01072144
0000c0 8d d2 03 3e c9 5b a0 3d d2 68 16 3e 64 e1 9e 3d
       0.12873287 0.07830007 0.14688423 0.077578336
0000d0 fb f9 fa bc 4a 7e 6f bd c0 b5 cd 3d 83 1c e2 3d
       -0.030636778 -0.058470048 0.10044432 0.110405944
0000e0 33 2f f3 bd ee db 84 bd 86 33 0c be 1c fe 59 bd
       -0.11874237 -0.06487261 -0.1369153 -0.053220853
0000f0 b6 03 f2 3c 67 33 b3 bc c5 fa 0c be 27 d2 e1 bd
       0.029542785 -0.021875096 -0.13767536 -0.110264115

fc2.weight f4 [64, 64]
000000 38 30 80 bd e1 9c 93 3b 55 c5 d7 bd 33 e6 85 bd
       -0.06259197 0.0045047854 -0.10535685 -0.06538048
000010 28 4b a1 bd 4d 4b 44 bd 08 f6 9e 3d 26 62 a9 bd
       -0.07875663 -0.047923375 0.077617705 -0.082706735
000020 87 0f 92 bc bc 1f 70 3c 68 9c c4 bd 48 b5 9d 3c
       -0.01782967 0.014656004 -0.096001446 0.01925148
000030 af a2 f5 bc 10 05 cd 3d 86 d9 28 3d 9f f3 e7 bd
       -0.0299848 0.10010731 0.04122307 -0.11325764
000040 84 f7 dc bd e5 0d 98 3d 72 b9 9f bc 6c 2b f1 3b
       -0.10789397 0.07424525 -0.019497607 0.0073599126
000050 20 dc b3 3d 8f ad b0 3c 7c 70 62 bd e4 e8 62 bd
       0.0878222 0.021567134 -0.055283055 -0.055397883
000060 34 1f 28 3d c3 a8 58 bb dc 2c d0 bd 10 e4 42 3b
       0.041045383 -0.0033059574 -0.10164806 0.0029737987
000070 b4 24 ac 3d 79 48 db 3c 52 1b bd bd a0 c5 90 3c
       0.08405438 0.026767956 -0.092337266 0.01767236
000080 9e 78 cb bd 9f 06 1c bd 34 60 87 bd 04 36 cd 3c
       -0.09935115 -0.038092252 -0.06610146 0.02505017
000090 c1 6d eb bd 98 6d c5 bd 0c 94 88 3c 38 45 4a 3d
       -0.11495543 -0.09640044 0.016672157 0.04938242
0000a0 2a ab 48 3d 08 00 ba bc 42 0d 42 3d 7a 55 eb 3c
       0.04899136 -0.022705093 0.047375925 0.028727282
0000b0 ea 92 ca bc 96 87 62 bd c7 2f bf bd 6c 86 d6 bd
       -0.024728257 -0.055305086 -0.09335285 -0.10474858
0000c0 c5 61 b0 bd a0 aa f2 bd e0 5d f3 bd 5b a7 81 3b
       -0.08612398 -0.118489504 -0.118831396 0.003956718
0000d0 92 e7 dd 3d 76 91 c9 bd a8 79 bb bd ef 30 cf 3d
       0.10835184 -0.098421976 -0.091540635 0.10116755
0000e0 bc e7 fa bd 82 a1 6a bc 7b 4f 12 bd c0 69 8e bc
       -0.12251231 -0.014320733 -0.03572033 -0.01738441
0000f0 2a 04 a8 3d bf 28 ec bd df 59 23 3d 94 81 90 3d
       0.08203919 -0.11531209 0.03988063 0.07055965
000100 22 33 df 3d e3 20 ae 3d 76 19 10 3d c3 a9 b7 bd
       0.10898425 0.085023664 0.03518053 -0.08967926
000110 20 18 ba 3d 20 cc 3b bd 71 f2 b8 3c d0 a6 66 b9
       0.09086633 -0.045848966 0.022576543 -0.00021996652
000120 8b 20 85 bd e2 08 a0 3d b0 96 b8 3d ad 3f 8a 3d
       -0.06500348 0.07814194 0.09013116 0.067504264
000130 b9 34 a5 3d f2 14 e7 3d f0 ed a1 bd b9 0f 4a be
       0.08066697 0.11283292 -0.07906711 -0.1973256
000140 7b 44 c2 bd 41 ed 3f bc 71 ed 95 bd eb 51 96 bd
       -0.09485718 -0.011714281 -0.07320679 -0.07339843
000150 d8 97 3d 3d ca 14 91 bd a5 29 0c be e2 d6 e5 3c
       0.046287388 -0.07084043 -0.13687761 0.028056566
000160 c6 5c 45 3d 69 ea b8 bd b5 c9 ad 3d 2b e1 4c bd
       0.04818418 -0.09029085 0.08485738 -0.050019424
000170 98 24 cd 3d ea ab 6e bd 91 02 bc bd 67 6a e6 3d
       0.10016745 -0.05826942 -0.09180177 0.112507634
000180 0f 04 34 3e 80 5d a7 3d dd 0e 0e be 68 84 a9 bd
       0.17579673 0.081721306 -0.13872857 -0.082772076
000190 c5 3f c0 bd 2f ea 31 3d 2a 06 c7 3c 47 1a be 3d
       -0.09387163 0.043436226 0.024294931 0.09282356
0001a0 08 a3 71 bd b4 fe 39 3d 84 a2 85 3d f7 08 71 bb
       -0.05899337 0.04540892 0.06525138 -0.0036779025
0001b0 b4 a5 9a 3a 87 3a 63 3c c5 1f 5e 3d 96 8a 56 be
       0.0011798651 0.0138689345 0.054229517 -0.20951304
0001c0 ff 04 93 bd 76 5a 81 bd 77 95 27 3d 43 64 d8 b9
       -0.07178687 -0.06316082 0.040914025 -0.0004127343
0001d0 62 12 1c be 9d 3d 98 bd 15 40 7a be bc 4a a5 bd
       -0.15241387 -0.07433627 -0.24438508 -0.08070895
0001e0 e7 4c e5 3c 7e 3a b7 3d 8b 33 15 be 54 5a c3 bd
       0.027990771 0.089467034 -0.14570443 -0.09538713
0001f0 54 2e fa bd 32 1f b5 bd 0d 0a 19 be d5 df 86 3c
       -0.12215868 -0.08843841 -0.1494524 0.016464153
000200 82 54 d8 3d 68 b6 81 bd 9f 5c d9 bd 5c 5f 7f bb
       0.105629936 -0.06333619 -0.10613369 -0.003896675
000210 40 04 e4 3d 89 01 88 3d 97 90 b6 3c 36 53 d5 bd
       0.11133623 0.06640918 0.022285743 -0.10416262
000220 54 17 57 3d b3 3b 08 bd f9 f1 83 bd aa 8d 01 3e
       0.05251248 -0.03326006 -0.06442637 0.12651697
000230 cb 45 d0 bd 8d f7 f5 bb 3b b1 03 be 3d 42 54 3d
       -0.10169562 -0.007506317 -0.12860577 0.051820982
000240 71 31 7d bd d1 da 03 3e 5b 8d 71 3d ba dc f5 3d
       -0.06181473 0.1287644 0.058972698 0.12004991
000250 7e 7c 67 bd 15 6e 5b bd 8b b3 2a 3d d3 97 2a 3e
       -0.05651521 -0.05357178 0.04167513 0.16659479
000260 08 9d 90 3d 8a 2b eb 3d ed f6 7b 3d 15 f8 89 3d
       0.07061201 0.11482914 0.061514784 0.06736771
000270 37 43 aa 3d 74 6f 92 3d 8d 74 77 3d 24 dd a5 3d
       0.083136015 0.07150164 0.060413886 0.0809882
000280 26 42 9a bd 24 f7 fa bd 4a 88 ca bd 7d 00 b3 3d
       -0.07532148 -0.122541696 -0.09889276 0.087403275
000290 4f f3 55 3d d4 78 b2 bd a6 5b 35 bd 2f 96 83 3d
       0.05223399 -0.087144524 -0.044276856 0.064251296
0002a0 9d 6f 51 bd e7 67 d3 bd c0 88 5e 3d 00 41 ba bd
       -0.051131833 -0.10322552 0.054329634 -0.09094429
0002b0 9f 00 d9 3c 32 87 6f bd 1b d7 39 3d d8 fb 69 3c
       0.026489554 -0.05847854 0.045371156 0.014281236
0002c0 22 b8 86 bd cd 62 29 3d 65 22 d8 3b 0d 22 e1 bd
       -0.06578089 0.04135399 0.006595897 -0.10992823
0002d0 d3 08 bb 3c 5a a6 1d 3d f7 ff 55 3d 61 37 3a 3c
       0.022831356 0.038488723 0.05224606 0.011365742
0002e0 92 86 9b bd ec c6 a1 3d 3e 0a 85 bd d3 e8 0d be
       -0.075940266 0.078992695 -0.06496094 -0.13858347
0002f0 12 b3 e2 3c 6c 4e 15 bd cd 9d b1 3d 7f 9a 0c 3e
       0.027673278 -0.036451742 0.08672676 0.1373081
000300 0f f2 91 bc 6f 35 19 3d 7e 57 f1 3b ac 57 92 bc
       -0.017815618 0.037404474 0.007365166 -0.01786407
000310 ad 29 dc 3c 5c 7d 0a be 1a 1f 07 be a7 e1 1b bd
       0.026875341 -0.13524383 -0.13195458 -0.038056996
000320 17 8e 7c 3c ab 27 83 3d bc 1b 75 bc 0b 39 9b 3d
       0.015414736 0.064040504 -0.014960226 0.075792395
000330 41 dd 51 bd 3f 92 bd bd 91 b3 fa bc 3b d6 b0 bc
       -0.051236395 -0.0925641 -0.030603202 -0.021586528
000340 3c 01 d6 bd d4 e8 2b 3c 78 f6 bc bd 60 cd ac 3d
       -0.10449454 0.010492522 -0.09226698 0.0843761
000350 6b ae 55 bd 89 e8 e1 bd a1 87 79 3d 5d a9 78 3d
       -0.05216829 -0.11030681 0.06092036 0.060708392
000360 d1 52 7d 3d 18 b5 11 3d 9a 29 13 be a5 89 c3 3c
       0.061846558 0.035573095 -0.14371338 0.023869345
000370 7d f6 fd 3d 3e e0 13 bc 68 31 c2 3d 0b f1 f2 3b
       0.124005295 -0.0090256315 0.0948208 0.0074139885
000380 dc 5c e5 3d f6 18 a9 3b 48 11 3c bd 92 f2 94 3d
       0.11199352 0.0051604463 -0.04591492 0.07272829
000390 3a 2d f9 3d 5c 4b 4d 3d 85 0f 2d 3b 94 76 de bc
       0.121668294 0.050120696 0.0026406955 -0.027156152
0003a0 b0 99 15 3d 01 95 05 be b3 c1 92 3d ef 16 0d bd
       0.03652352 -0.13045122 0.071658514 -0.0344457
0003b0 51 30 e4 3c 49 30 58 bd c8 7a 62 3d 8b ea d9 bd
       0.02785507 -0.052780423 0.055292875 -0.10640439
0003c0 64 f3 b9 3d 85 b1 01 be 0e 2b 24 3c 35 9d f4 bd
       0.09079626 -0.12665375 0.010020031 -0.11944047
0003d0 33 0f bd bd f2 f8 8c bc 8a ed ab 3c a0 b4 91 3c
       -0.09231415 -0.01720855 0.02098729 0.017786324
0003e0 bc a1 26 bd 64 58 9e 3d 3a 2f 1a 3c df c2 e6 3d
       -0.040681586 0.07731703 0.009410674 0.112676375
0003f0 cd c7 a6 3d de 96 cb 3d a1 c1 15 bd ee 3a ca bd
       0.08143578 0.09940885 -0.036561612 -0.09874521

fc2.bias f4 [64]
000000 1d aa dd bd 12 26 d0 3d cb e3 43 3c 0c f9 ab bc
       -0.10823462 0.10163511 0.011956166 -0.020992778
000010 34 21 a3 3c d9 e6 d3 bd 07 b6 86 3d b9 7d a4 3d
       0.019913293 -0.10346765 0.06577688 0.08031792
000020 27 06 29 bc 03 26 da 3d 04 35 74 bc 86 7a cf bd
       -0.010316408 0.106517814 -0.014905218 -0.10130791
000030 9e 6b 88 bd 7d 21 8a bd 7e cb 5a 3d 59 21 a3 bd
       -0.06661151 -0.06744669 0.05341672 -0.07965345
000040 aa 2f b7 3d 9d 75 1e bd 8c 6c 4c 3d 59 f0 09 bd
       0.08944638 -0.038686384 0.049908206 -0.03367648
000050 54 31 5c 3d 46 40 f1 bd e9 76 a4 3c 75 07 cc bd
       0.05375798 -0.11779837 0.020076232 -0.0996236
000060 7e 71 bb 3d 38 b9 cb bd 06 6d ec bc 6f c4 8f bd
       0.09152506 -0.09947437 -0.02886058 -0.070198886
000070 8f c0 c3 3d 70 fa 8f 3d 98 b3 32 bd 61 08 c2 bd
       0.09558212 0.07030189 -0.043628305 -0.094742544
000080 cd 91 07 3d fa fe 24 bd e8 4d ad bd 95 4b 2f bc
       0.03309803 -0.040282227 -0.08462125 -0.0106991725
000090 e1 93 a2 bd 7c 29 9f bd 5a f1 50 bd 18 d6 c6 bd
       -0.07938362 -0.077715844 -0.05101142 -0.09708804
0000a0 be 37 ad bd aa ed 6a bd 1f ee b3 3c 22 6d dd 3c
       -0.084578976 -0.05735556 0.02196413 0.027029578
0000b0 7b 0d 2b bd 6c 3b dc 3d 0d f1 de bd 2f 4f 5c 3d
       -0.041760903 0.10753521 -0.108858205 0.053786453
0000c0 bf d3 c1 bc 63 ba ce bd 99 f8 3b 3d 89 4b 14 3e
       -0.023660539 -0.10094144 0.045891378 0.1448194
0000d0 34 04 97 b6 65 0e 5a bd 40 65 5f 3d 06 23 36 bd
       -4.50064e-06 -0.053236384 0.05453992 -0.044466995
0000e0 b1 54 96 3d 80 6a 84 3d 29 26 8f 3c 00 bc ff bc
       0.07340372 0.06465626 0.01747425 -0.031217575
0000f0 d1 98 1b 3d 15 ff 9c 3b fc 71 3b 3d 8c 3b 67 bd
       0.037987534 0.0047911503 0.045763 -0.056453273

fc3.weight f4 [4, 64]
000000 da 1f de 3d c0 3d e8 bc 4b fc eb 3d 93 d0 02 be
       0.10845919 -0.028349757 0.115227304 -0.12774877
000010 5d 4b 3d bd fa 93 71 bd a2 62 38 3d bc 9b 6d bd
       -0.04621445 -0.058979012 0.04501594 -0.058009848
000020 c1 10 54 3d 66 96 48 3d 2e a2 48 bd 9b 4c 98 3d
       0.05177379 0.048971556 -0.04898279 0.07436486
000030 81 89 d7 bd 1e cc fe bc e2 a0 44 bd a9 d5 8d bd
       -0.10524274 -0.03110319 -0.048004992 -0.06925518
000040 d4 81 9b bd 35 70 7d bd a9 0e 0a 3e ae de 79 bd
       -0.07593122 -0.061874587 0.13482155 -0.06100338
000050 8b b0 91 3d 9f f1 91 3b 3e ef 0f 3d 18 64 70 3c
       0.07113751 0.0044538523 0.03514027 0.014672302
000060 c9 6d 92 bd 5b 8c 8c 3d 03 8e c1 bd 82 a3 6b 3d
       -0.07149846 0.06862708 -0.09450915 0.05752898
000070 34 85 cc 3d 7c 6b 64 bd 66 4e df 3d c7 06 cc bd
       0.09986344 -0.055766568 0.10903625 -0.0996223
000080 e1 fc 56 3d 82 c9 12 be a0 93 63 3d 3c 6a d4 3c
       0.052487258 -0.14334682 0.055560708 0.025929563
000090 8a 3f b4 3d e7 cb 27 3d 67 73 d6 3d 68 8b bd 3c
       0.088011816 0.04096594 0.1047123 0.023137763
0000a0 8c 45 61 3c 76 52 f7 3d cc 8d fc 3d b5 5d d1 bc
       0.013749491 0.12076275 0.12331733 -0.025557378
0000b0 d6 25 bd 3d da 98 39 bc 14 0d 17 bd a3 16 df bd
       0.09235732 -0.011327947 -0.036877707 -0.108929895
0000c0 74 ce cb 3d 79 7c 26 bd 53 00 a4 bd 7d a7 13 3e
       0.09951487 -0.04064605 -0.08007874 0.1441936
0000d0 6b 27 6e 3d d4 5a 99 bd 0e f0 87 3d 7d 19 f9 bd
       0.05814306 -0.07488027 0.06637584 -0.12163065
0000e0 1c b0 9a 3c 99 ef 2c 3e 8f bc 1e 3d 06 6e 0d be
       0.018882804 0.16888274 0.038754042 -0.13811502
0000f0 20 93 b7 3d 1a 7b 7a bc b1 73 da bd 59 c7 79 bd
       0.08963609 -0.015288139 -0.10666598 -0.06098113
000100 c4 e4 a4 bd 1a 9d db bd 8a 34 52 bd ce 7d 8b bd
       -0.08051446 -0.10723324 -0.051319636 -0.06811105
000110 e2 30 a2 bc 81 fe a9 3d ad f8 b6 3d 83 53 07 3d
       -0.0197987 0.08300496 0.0893415 0.033038627
000120 c2 7a c7 bc 87 99 0b 3e 6d 9e 50 bc 87 e9 b3 3d
       -0.024350528 0.13632785 -0.012733084 0.08784776
000130 2e 8c b8 bd 1b 01 06 be 73 d9 f2 3d 03 20 8c 3c
       -0.09011112 -0.13086359 0.118578814 0.017105108
000140 39 53 d5 3d c8 b6 92 bd d4 b5 a5 bd fe 21 1a bd
       0.10416264 -0.07163769 -0.080913216 -0.037630074
000150 ba 67 cd bc 01 b2 40 3d db 50 2a 3d bb 4c bd bc
       -0.025073875 0.047044758 0.041581016 -0.023107877
000160 81 7b 6a bd 35 61 b2 bc 47 5d 50 be 4e 19 01 be
       -0.05724669 -0.021774868 -0.20348082 -0.12607309
000170 49 eb 97 3d cc 2d b7 bd c6 e9 9b 3d 6b e5 04 bd
       0.07417924 -0.08944282 0.07612948 -0.032445353
000180 9f f4 4c 3d 41 3d 36 bd 77 6c e6 bd 4a e0 65 3d
       0.050037976 -0.04449201 -0.11251157 0.0561221
000190 94 6f 13 3d 8d 77 09 be 63 e8 b2 3d 8e c8 2f 3d
       0.03599508 -0.13424511 0.087357305 0.042915873
0001a0 18 0a a7 bd ba 1e 35 3d a2 58 62 3c 67 5e 09 be
       -0.08156222 0.044218756 0.013815077 -0.13414918
0001b0 53 b7 1e 3e 23 cf 90 3c 08 82 20 bd c2 b3 1a 3e
       0.1549962 0.017676895 -0.039186507 0.15107635
0001c0 9d d9 d9 bd 83 a4 d9 38 e5 86 e3 3c 91 eb e3 bb
       -0.106372096 0.00010378009 0.027774284 -0.006955572
0001d0 93 56 b1 3d 69 12 ba ba c9 4b 00 3d a2 21 f8 bc
       0.08659091 -0.001419616 0.031322274 -0.030289475
0001e0 1a 68 af 3d f3 b5 70 3d 4c 33 27 bd 20 6d 14 be
       0.08564778 0.05876727 -0.040820405 -0.14494753
0001f0 02 3f 1e 3e 0c cf bc bd 6e c6 36 3d ac 53 07 be
       0.15453723 -0.092191786 0.04462283 -0.13215512
000200 e3 32 62 3d c9 a9 7c 3c 4d 28 a5 3c ba 1a 12 bd
       0.05522431 0.015421339 0.020160818 -0.03567002
000210 d9 01 5a bd e0 53 62 3d f3 46 d9 3d fb 53 4c 3b
       -0.05322442 0.05525577 0.106092356 0.0031177986
000220 55 5f b8 bd ec a2 6b 3c d9 9a a4 3d 45 b3 5d bc
       -0.09002558 0.014382105 0.08037347 -0.013531511
000230 8d 69 c9 3a 74 ba fb 3c cf 00 00 3e 5a cc c5 bd
       0.001536654 0.030728556 0.12500308 -0.096581176
000240 27 57 76 3d 4b b3 a1 3d 22 65 08 3e b2 33 56 bd
       0.06014171 0.078955255 0.13319829 -0.052295394
000250 62 7c 8a bc f7 54 b9 bd cb 13 0b bd 81 be e1 bd
       -0.016905013 -0.09049409 -0.033954423 -0.11022664
000260 ce 5f 34 3d ce a6 f3 3d 40 88 ca 3c 3c b4 31 3e
       0.04403668 0.1189705 0.024723172 0.1735391
000270 c1 3c 6d 3d 37 51 9f bd 31 bb 22 3e 10 d5 01 bb
       0.057919268 -0.077791624 0.1589172 -0.0019810833
000280 40 df db 3c dc d9 0d bc ed 7b d0 bd 7e bc 18 3c
       0.026839852 -0.008657899 -0.10179887 0.009322284
000290 eb 21 a2 bc 98 2b 47 3d 93 91 fe bc 00 64 ac 3d
       -0.019791564 0.04862556 -0.031075275 0.08417511
0002a0 5c bd 3b bd c1 a4 43 3d 4a 54 9b bd 16 84 06 be
       -0.045834884 0.047764543 -0.07584436 -0.13136324
0002b0 27 51 1c 3d 14 c6 9d 3d 19 db 49 be b6 41 1c 3e
       0.03816333 0.07703796 -0.19712485 0.15259442
0002c0 4d 94 5f bd d9 83 db bc 2c 40 e0 3b 40 5b bb bc
       -0.05458479 -0.026796268 0.0068435874 -0.02287066
0002d0 be 3e ad 3d d3 4a 96 3d ab 38 0d 3d 8c ff ca bc
       0.08459233 0.0733849 0.03447787 -0.024780057
0002e0 8d ef d5 3c a1 9b cd bd 0a ab 29 bd ca 5b dc 3a
       0.026115203 -0.100394495 -0.04142288 0.0016812023
0002f0 66 3b 38 3c ba f6 5d 3d f7 eb b5 3d eb ce 08 be
       0.01124463 0.054190375 0.08882897 -0.13360183
000300 f6 ee 61 bc aa a6 5f bd c3 e5 42 3c 3a f9 f6 bc
       -0.013789883 -0.054602303 0.0118956 -0.030148137
000310 09 bd 31 3c a6 b2 bb bd 76 0c 97 bd ff c7 a9 3b
       0.010848292 -0.09164934 -0.073754236 0.005181312
000320 68 06 92 bd bf f2 ae bc db 3a db 3d 71 3d 28 bd
       -0.07130128 -0.021355985 0.10704585 -0.04107422
000330 e5 c9 a5 3d 9f 76 a5 3d 17 3d 56 3d 59 83 d6 3d
       0.08095149 0.08079266 0.052304354 0.10474271
000340 35 47 73 3d 68 73 a9 3c 19 e1 be 3b 58 62 03 be
       0.05939408 0.020684913 0.0058251736 -0.12830484
000350 ad f5 30 3c 72 9c 12 be f8 23 42 3d a9 98 b5 bc
       0.010800761 -0.14317492 0.047397584 -0.02216752
000360 27 67 cb 3c 84 cd 0f be 1d 16 48 3e 37 b3 18 3e
       0.02482946 -0.14043242 0.19539686 0.14912115
000370 f5 53 39 bd 3d 0d 2a 3d 6f 63 5d 3c 3f 31 21 be
       -0.045246083 0.04151653 0.013512476 -0.15741442
000380 1a 2f a0 3c 9a 87 8d 3d 85 41 0c 3d 5a be b1 bc
       0.01955371 0.069106296 0.03424217 -0.021697212
000390 bd 2d 04 3e 3b 75 05 be 21 b4 98 3d d9 7e b0 bd
       0.12908073 -0.13033001 0.07456232 -0.08617944
0003a0 33 6a 99 bc c0 7c 9d 3b be bf f3 3d 1f e9 33 bd
       -0.018727398 0.004806131 0.11901806 -0.043923493
0003b0 e1 5d ee 3d ca dc 40 3b f2 ae 0d be f1 48 24 3e
       0.11639 0.0029428476 -0.13836268 0.1604345
0003c0 44 f6 e8 bd f3 7e df 3d 95 42 22 bd f4 67 81 3d
       -0.113750964 0.109128855 -0.03961428 0.063186556
0003d0 98 be 3e bd 00 b0 67 3d 27 00 7a bc 3f 03 49 bd
       -0.046568483 0.05656433 -0.015258825 -0.04907536
0003e0 b6 35 74 bd 40 47 ab 3c 43 27 41 3d a4 c2 2b bd
       -0.059621535 0.020907998 0.047156584 -0.04193367
0003f0 7a 79 c6 3c 07 04 cb 3c c5 18 44 3e b9 b7 7b 3c
       0.024227846 0.024782194 0.19150074 0.015363627

fc3.bias f4 [4]
000000 c3 97 da bc f9 90 0e 3d 57 9b c3 3d 2f c3 7b 3d
       -0.026683694 0.034806225 0.09551113 0.06146544
