mlruns/0/4ef8c5bdce694800949ec35dd3c48dad/artifacts/checkpoint.pth (torch_old, 28447 bytes, 6 tensors)

fc1.weight f4 [64, 37]
00000000: b10a 0d3e 0723 87bd bffc c7ba b82a f23d
00000010: 7e8f e9bd 177b 293d 8a6a 863d cc70 4fbe
00000020: c2bc 0b3d 7ce6 26bd 805f 273e 809b ad3c
00000030: 182a 1e3e b0e9 ab3d 3087 a73d a428 08be
00000040: ef60 1a3e 8188 d3bd a140 a23d a76d b83d
00000050: 94ce 083c 2bb0 223e 79e7 01bd 3d69 c4bd
00000060: 07e3 8d3d 459b a1bc e21c 00be 2336 dfbd
00000070: 8f3e bfbd 56de 823d fb2a e5bd f916 bc3d
00000080: f386 243e c717 74bd 53a0 e13d 3c1f 5eb8
00000090: 2f9f e73d 0736 29bc 41be 04be 056b 0a3e
000000a0: 72e2 cabd 2320 433d fe93 ca3d 24e0 f2bd
000000b0: b4d6 18be be14 a03d 2e66 1fbe b4ba 0cbe
000000c0: 010d a33d e57b 5dbd 1e67 e03d bde0 22bd
000000d0: ea7d 993c f5c6 c4bd 07c8 603d 483a 0cbe
000000e0: 5685 0abe 14b9 d3bd 2a4d a23c f7b3 57bd
000000f0: 45de 183e fb94 5f3b 5747 f13d a5c3 b1bd
00000100: 8a39 873d 9578 89bc 58f0 1b3e dcc5 723d
00000110: 73f1 f73b a462 ecbd 337e 10be 624f 3dbd
00000120: 5971 9d3d 4dc6 d9bd 44cd b1bd da29 14be
00000130: 6d73 1c3e 0f76 213e 0760 e7bd d2cd dc3c
00000140: b9b2 8dbc fe6f 053d 1804 cfbd 4a28 ddbd
00000150: 80ae 2bbd 007e edbd a666 b0bb 7e37 7ebd
00000160: b921 09be 34db 513c ba4b b7bd ca5a 503d
00000170: d18b 0d3e cc11 dbbd c1da 41bd 294e 14bd
00000180: 4a5b 2abe b464 1dbe 2267 813d 8daf 82bb
00000190: b6da b7bd 5a00 223e f7df 21be 9aa9 0d3e
000001a0: b8b6 18be 206c bbbd 34e5 893d c9de 02bc
000001b0: f713 5abd 925e d5bd 4c47 3b3d 0ee5 e83d
000001c0: 7e37 133d 1b74 153e cd0c 0ebe aa6a 21be
000001d0: f24f f9bd 9559 12bd e665 553d 1337 1abc
000001e0: 1247 e83a 12a1 fcbd 9cfd 67bd 839f c7ba
000001f0: 0a99 f83c 613d 02be c898 bf3d 9631 eabc
00000200: ed4d 133d d4c8 0f3e 36df 853d fb49 453d
00000210: 216a a2bd 0582 05be 7436 2c3d 16cf ee3d
00000220: bc02 993d b894 96bb 0383 fd3d 57ba 8bbd
00000230: 8eda adbd 7327 aebd eaf4 d5bd dc82 24bd
00000240: 81ab 30be 41a7 cc3d bdb9 1abe f9fe 6abd
00000250: 102e 983d a219 303c be13 98bd 4a03 0cbe
00000260: 6ecd dc3d e091 373e e60f bf3c c9d8 bfbd
00000270: d152 98bc fd7a f0bd ce3a 8c3d 3f40 8f3d
00000280: f70c dfbb ea3e babd 3919 d23d b82d 82bb
00000290: 890a 853d 2955 5d3d 6fad c83d fa85 7ebd
000002a0: f969 1fbe dced b93c 6df0 fdbd e2f1 07be
000002b0: 71ac 103e ff18 a63c 1232 dc3d 6ad6 7b3d
000002c0: 786b 093e 04ca 313d 6750 083e 9032 6bbd
000002d0: 2b76 83bd 20f1 613c f2e0 efbc de93 dd3d
000002e0: 5258 35bc 5050 d03b 0fcb b6bd 90a8 2bbe
000002f0: d3ad 723d 390d bdbd 17e2 fc3d ca01 0e3e
00000300: 7250 ebbd bddd bbbd 64f0 eabd b16a 173e
00000310: d35e b3bd c447 073e ac08 f43d 7766 25bd
00000320: 95c6 4dbd 31aa e23d 6f1d 5fbd 2d32 44bd
00000330: 4396 983c 9cb2 2bbe 11b6 74bc 3e5a 993d
00000340: fe78 a0bd 8813 e6bc 5248 f7bd ef10 0bbd
00000350: 35b0 ad3d c794 f8bc 9969 07be 88b5 ea3c
00000360: 3f85 05be 0f28 e23d e0f6 5c3d 7167 033a
00000370: 61eb 01be a585 1c3e ef66 18be f542 743c
00000380: e94e d6bd bd80 fbbd 0e7f 7c3d e3e2 0e3e
00000390: 78b0 993d 3696 0d3e 49cb 5d3c 7ade c5bd
000003a0: db46 863d 47fa 64bc 54a2 173d 67bf b63b
000003b0: 9422 05be 20fe 15bd 869a 2b3e 6b54 0c3e
000003c0: 0c95 0a3e 9687 863d 89fd 293e c9c0 233d
000003d0: 43f0 8c3c 5472 eb3b b16a 43bd ae81 f03d
000003e0: f4aa c4bd 793c 08bd 77f2 b63d 3b25 393c
000003f0: 2dd3 dfbd ef2c 65bc 7d2a de3d 4237 3fbd
0.1377361 -0.06598478 -0.0015257819 0.11824554 -0.11404322 0.041377153 0.065632895 -0.20257872
0.03411556 -0.04074715 0.16345024 0.021192312 0.15445745 0.08394182 0.08180082 -0.13296753
0.1507604 -0.103287704 0.07922483 0.090052895 0.008350033 0.15887515 -0.03171489 -0.09590385
0.06928068 -0.019727359 -0.12511018 -0.10898998 -0.09338104 0.063900635 -0.111898385 0.09184069
0.16067104 -0.05959299 0.110169075 -5.2958014e-05 0.11309659 -0.0103278225 -0.12963201 0.13517387
-0.09906472 0.04763807 0.098915085 -0.11859158 -0.14925653 0.07816456 -0.15566322 -0.13743097
0.07961465 -0.054073233 0.10957168 -0.03976511 0.018736798 -0.096082605 0.05487826 -0.13694108
-0.13527426 -0.10338035 0.019812185 -0.052661862 0.14928539 0.00341159 0.11781185 -0.08679894
0.066027716 -0.01678113 0.15228403 0.059270725 0.007566625 -0.11542252 -0.14110641 -0.046218283
0.07687635 -0.10633526 -0.086817294 -0.1446909 0.15278406 0.15767692 -0.11297613 0.026953612
-0.017297136 0.032577507 -0.10108203 -0.107987 -0.041914463 -0.11596298 -0.0053833304 -0.06206464
-0.1339177 0.01280861 -0.089499906 0.050867833 0.13822867 -0.10696754 -0.04732776 -0.03620735
-0.16636387 -0.15370446 0.06318499 -0.0039882124 -0.08977263 0.15820447 -0.15808092 0.13834229
-0.14913452 -0.091514826 0.0673317 -0.007987686 -0.053241696 -0.104184285 0.04572229 0.11371814
0.035941593 0.14595072 -0.1387207 -0.15763345 -0.121734515 -0.035729963 0.05209913 -0.009412545
0.0017721376 -0.12335409 -0.056638345 -0.0015230033 0.030346412 -0.12718727 0.093553126 -0.028588098
0.035962988 0.14041454 0.06536715 0.048166256 -0.07930399 -0.1303788 0.042044118 0.11660592
0.07471225 -0.0045953654 0.12378504 -0.06822651 -0.084889516 -0.08503618 -0.10447104 -0.04016386
-0.17252924 0.09992839 -0.15109916 -0.057372067 0.07430661 0.010748299 -0.074256405 -0.1367313
0.1078137 0.1792674 0.02332301 -0.0936752 -0.018594177 -0.11742208 0.068471536 0.06994676
-0.0068069655 -0.09094031 0.10258717 -0.0039727353 0.0649615 0.054036293 0.09798705 -0.06213949
-0.15567769 0.022696428 -0.12399373 -0.13275865 0.14128281 0.020275591 0.10751738 0.061483778
0.13419902 0.043405548 0.13311921 -0.057421267 -0.06419023 0.013790399 -0.029282067 0.10819219
-0.0110684205 0.0063572302 -0.08925449 -0.1676352 0.059247803 -0.09231038 0.12347811 0.1386787
-0.11489953 -0.091731526 -0.11471632 0.14786793 -0.08758321 0.1321097 0.119157165 -0.04038092
-0.05023821 0.11067618 -0.05447143 -0.047899414 0.018626338 -0.16767353 -0.014935986 0.074879155
-0.078355774 -0.028085485 -0.12074341 -0.033951696 0.084808744 -0.03034438 -0.13223876 0.028651014
-0.1303911 0.11042797 0.053946376 0.00050126674 -0.12687446 0.15285356 -0.14883016 0.014908542
-0.1046427 -0.12280414 0.061644606 0.13953738 0.07504362 0.13826832 0.0135372365 -0.09661575
0.06556483 -0.013975686 0.037020043 0.005577016 -0.13001472 -0.036619306 0.16758165 0.13704078
0.1353342 0.0656883 0.16600622 0.039978776 0.01720441 0.00718526 -0.04770917 0.117434844
-0.09602919 -0.033260796 0.08932965 0.01130038 -0.109289505 -0.013987764 0.10847948 -0.046683557

fc1.bias f4 [64]
00000000: 49b5 56bd b8dd f6bd 2bb8 e7bd 0500 36be
00000010: d634 b9bd 3c47 eb3d 1a7b f33d e8d4 49bc
00000020: d0d4 79bd f469 183e 52db af3b e0be 093e
00000030: b026 933c 490b 05be 8f58 28be 9290 11be
00000040: bdda 20be 6422 7b3d e4ee 17bd 3838 0bbe
00000050: 19b6 86bd 10d3 0b3d f7fc 943d 72cc bbbd
00000060: 4763 f9bc b134 d43d 80ed e1bd 3e46 bcbd
00000070: 47f6 3ebd 8f15 723d fb41 c3bd cde1 21bd
00000080: d99d e33b 2f44 1abd c0a8 18be 7ae0 f13d
00000090: b4d2 1d3d 4eac 553d 34d4 1b3e a92f 24bd
000000a0: 32b2 b4bd b967 e1bd 64b1 e8bc 1178 a33d
000000b0: b2e8 253e eb35 a8bd 3613 8c3d 4a48 33bc
000000c0: 8dae 153e 1dbc b23d 0781 0d3e 6aeb c73d
000000d0: bbf8 85bd 4eb5 14bd 4870 c63d ce75 c93d
000000e0: 4563 c7bd 4282 2cbd 1502 19be 0956 60bd
000000f0: 2e80 303d 3749 93ba c015 0bbe 7308 e4bd
-0.05241898 -0.12054008 -0.11314424 -0.17773445 -0.09043281 0.11488196 0.11888714 -0.012318827
-0.06099397 0.14884168 0.005366721 0.1345172 0.017962784 -0.12992586 -0.16440032 -0.14215305
-0.15708442 0.061312094 -0.03709306 -0.13595665 -0.06577701 0.03413683 0.07274812 -0.09169854
-0.030442847 0.103616126 -0.11031628 -0.09193085 -0.046621587 0.05910259 -0.09534069 -0.03952198
0.006946307 -0.03766268 -0.14908123 0.11810394 0.03853102 0.052166276 0.15217668 -0.040084515
-0.088230506 -0.11006112 -0.028404899 0.07981885 0.16202047 -0.08213409 0.06839602 -0.010942528
0.14617367 0.08727286 0.13818751 0.097616985 -0.06541582 -0.036305718 0.09689385 0.098369226
-0.09735731 -0.04211641 -0.149422 -0.05476955 0.04309099 -0.001123703 -0.13582516 -0.11134424

fc2.weight f4 [64, 64]
00000000: ec2d 54bd 3070 823c 3645 c3bd 0428 30bd
00000010: e627 8ebd bcff 1bbd 629a b93d 2662 a9bd
00000020: 609b ebbb 4864 983c a634 9cbd 48b5 9d3c
00000030: 40ad dabc 1005 cd3d f885 5a3d c094 b3bd
00000040: 84f7 dcbd f4c0 c33d e0c9 27bc 308f 5a3c
00000050: f455 cd3d 1057 fc3c 389c 3cbd e4e8 62bd
00000060: a892 673d 8015 7c3c dc2c d0bd f014 6f3c
00000070: b424 ac3d cc3b 4a3d 521b bdbd 10aa da3c
00000080: 602e bdbd 4c46 13bd 1c46 31bd e4b5 173d
00000090: 2a26 dbbd 986d c5bd e867 c53c 3845 4a3d
000000a0: acb8 623d 1060 95bc 64e0 763d 1c51 2a3d
000000b0: 5070 13bc b09b f6bc 14f9 9abd b086 b1bd
000000c0: d285 9cbd 6e99 e4bd e05d f3bd 807c bb3c
000000d0: 92e7 dd3d 7691 c9bd a879 bbbd 72ae ff3d
000000e0: bce7 fabd 40bb f7bb 8855 e1bc c069 8ebc
000000f0: 2a04 a83d 1810 dfbd 6481 503d 482d ca3d
00000100: 907d ea3d ee05 af3d 6781 1ebb bc4e 893d
00000110: 59a9 293d c41e 67bd eb1f 453c 73fb 973c
00000120: b832 4dbd e98e be3d b2f7 993d 62f7 9b3d
00000130: e107 9c3d d250 d73d 249a 30bb dfc6 f2bd
00000140: 2fbf cdbd 78ce 63bd 5569 5e3b a503 a4bd
00000150: f2c0 d3bc 3c61 abbd b944 e2bd 1a0c a9bd
00000160: 4732 38bc aaaf e9bd 07f5 cd3d 49c6 c5bd
00000170: 3c2a d43d 883f 0f3d d9ce 47bd d9ae df3d
00000180: 2501 a83d d6c8 693d 933f 053c e475 abbd
00000190: 4e58 52bd c8d8 be3c 671f 9c3c f9b6 ac3d
000001a0: c6d6 5bbd 1ed6 9b3d 70e9 c33d 5a79 e4bd
000001b0: 694f fcbc 718f 7cbd 15b9 713d 35ef e0bd
000001c0: c182 afbd aee3 fabc 1940 243d 1e0c 96bc
000001d0: dc76 8ebd 2279 9fbd befe 03be ae22 10bd
000001e0: 892b db3c 5fdf 943d 2235 e0bd 7493 dfbd
000001f0: 3cb2 b8bd 9636 a1bd 7fb9 bfbd f5b6 4a3d
00000200: fb6b f63d a583 87bd 153e 0bbd ddcc 07bd
00000210: 4d1f e53d ea96 a43d 0131 1b3d 0202 cdbd
00000220: e9bd 2c3d 6076 b9bc 6569 34bd aa8b f53d
00000230: 2a20 b1bd 0d6e 293b 4aaa e8bd 5b27 b43d
00000240: e6c2 64bd d249 f33d 75e0 113d d239 033e
00000250: 7076 99bd c252 61bd 57f0 283d b27c bc3d
00000260: 2157 8c3d 138f df3d b7d0 a73d 3b23 a23d
00000270: 20c8 c13d ad8c b83d d30c a63d 59b7 a33d
00000280: cda8 cabd e28b d0bd 8592 cebd 1136 c03d
00000290: 9ccb b53d e002 cabd 0140 50bd 519a a73d
000002a0: b06f dbbc 13ce febd 5278 3c3d ad28 b3bd
000002b0: 52ab 923c 245b 7dbd 0663 8e3d aa84 823c
000002c0: be78 78bd 24f7 4a3d 315b f93b de4a c8bd
000002d0: fc5a c23b 13d4 4d3d b95c 293d 021a ce3c
000002e0: a56d 50bd 430f c13d 1ed7 9dbd d0a4 9ebd
000002f0: 395c 303d 012b dcbc d98f 8d3d d6f5 f43d
00000300: 263a 34bd b64a ab3d 4097 983d b2a1 ed3c
00000310: 1953 c0bd 1b3a 04be 33a8 03be e021 a5bd
00000320: 0736 ad3c bc76 9b3d c8dd 00bd 94df a23d
00000330: 6383 b2bd d418 dbbd 18cf cebc 6a0c 893c
00000340: cc81 bbbd 9130 e43b 5cd7 cebd 4bb9 a63d
00000350: b7e4 25bd 94fe d5bd 70ba 1a3d 06c8 f03b
00000360: 4cd6 463d e1a2 173d 8424 04be 6bc1 c73c
00000370: d09e b53d 45db d13c aa6b ab3d 9792 dc3c
00000380: e6f9 b93d de28 a43d 3c33 1ebd 1c26 713d
00000390: 0d9b 043d 871f fe3c 91ca e3bb c626 76bd
000003a0: 55a4 583d a36a a4bd fd23 3f3d bf6f 20bd
000003b0: f450 ce3c 208c 39bd 08e9 ba3d 3df9 cebd
000003c0: ac2c a53d f354 fdbd fed1 06ba 95d0 00be
000003d0: 72d0 3cbd af19 e6bc 214a 3c3c 0515 0c3c
000003e0: e729 26bd 8f52 0a3d 4766 983d fa0f a03d
000003f0: 9fed 853d 57d5 ce3d 1e5c bcbc 5a9b eebd
-0.051801607 0.015922636 -0.09534685 -0.043006912 -0.06941204 -0.038085684 0.09062649 -0.082706735
-0.007190153 0.018602505 -0.076272294 0.01925148 -0.02669394 0.10010731 0.05335042 -0.08768606
-0.10789397 0.09558287 -0.010241002 0.013339803 0.1002616 0.030803233 -0.04604742 -0.055397883
0.056536347 0.015385985 -0.10164806 0.014592394 0.08405438 0.049373433 -0.092337266 0.02669242
-0.09237361 -0.035955712 -0.043279752 0.0370387 -0.107006386 -0.09640044 0.024097398 0.04938242
0.055351898 -0.018234283 0.06027259 0.04158126 -0.008998945 -0.030103534 -0.07567039 -0.08668268
-0.07642712 -0.11162077 -0.118831396 0.022886515 0.10835184 -0.098421976 -0.091540635 0.12484445
-0.12251231 -0.0075601637 -0.027506605 -0.01738441 0.08203919 -0.108917415 0.050904647 0.09871918
0.114497304 0.08546053 -0.0024186017 0.067044705 0.041421268 -0.056425825 0.012031536 0.018552518
-0.050097197 0.09304602 0.07517947 0.07615544 0.0761869 0.10513462 -0.0026947344 -0.11854338
-0.10046231 -0.055616826 0.0033937295 -0.08008508 -0.02584884 -0.08368155 -0.11048264 -0.08254261
-0.011242456 -0.114104584 0.10056501 -0.096569605 0.10359618 0.034972697 -0.04878125 0.109220214
0.08203343 0.057076298 0.008132833 -0.08372095 -0.051353745 0.023296729 0.019057943 0.08433337
-0.05367162 0.07609199 0.09566009 -0.111559585 -0.030799584 -0.061660234 0.0590144 -0.10983125
-0.08569861 -0.030626144 0.04010019 -0.018316325 -0.069562644 -0.07786776 -0.12890145 -0.035189323
0.026754158 0.07269167 -0.10947634 -0.10916796 -0.090183705 -0.078717396 -0.093615524 0.049490888
0.120323144 -0.06616906 -0.033994753 -0.033154357 0.11187611 0.08036597 0.03788853 -0.100101486
0.0421733 -0.022639453 -0.044045825 0.119895294 -0.08648713 0.002585295 -0.11360605 0.08796569
-0.055849932 0.118793145 0.03561445 0.12815025 -0.07493293 -0.055010565 0.04124483 0.09203471
0.06852556 0.10915961 0.08194106 0.07916876 0.09461999 0.09011207 0.08107915 0.07993955
-0.098954774 -0.101829305 -0.1008654 0.09385312 0.08876726 -0.098638296 -0.05084229 0.081837304
-0.026786655 -0.12441649 0.046013184 -0.08747993 0.017903958 -0.061854497 0.06952481 0.0159324
-0.060662024 0.049552098 0.007609748 -0.09779905 0.0059312563 0.050251078 0.041348193 0.025158886
-0.050885815 0.09426739 -0.07707046 -0.07746279 0.0430567 -0.026875975 0.069122024 0.11960952
-0.044000767 0.08363859 0.07450724 0.029007766 -0.093908496 -0.1291279 -0.12857132 -0.08063102
0.021143926 0.07591006 -0.031461507 0.079528004 -0.08716466 -0.10698095 -0.025245234 0.016729552
-0.09155616 0.0069637974 -0.1009967 0.081408106 -0.040501323 -0.104489475 0.037775457 0.0073480634
0.048544213 0.037020568 -0.12904555 0.024384221 0.08868182 0.025617251 0.08370145 0.026925368
0.090808675 0.08015607 -0.03862308 0.058874235 0.03237443 0.031020893 -0.006951638 -0.06009557
0.052891094 -0.08028152 0.04666518 -0.03916907 0.025185086 -0.04529965 0.091264784 -0.10106132
0.08065161 -0.123697184 -0.00051429856 -0.12579568 -0.046097226 -0.028088419 0.011492283 0.008549933
-0.040567305 0.03377014 0.07441383 0.07815547 0.06539463 0.10099285 -0.022993144 -0.11650725

fc2.bias f4 [64]
00000000: 0a47 bfbd 55bf bd3d 419c 333c 77ec cdbc
00000010: d014 3e3d 76e5 b3bd 6c89 873d b76a aa3d
00000020: 3aae a93a 297e a53d 9b98 12bc f3a7 d7bd
00000030: 1512 a3bd 616e 47bd 37de 583d 742c 96bd
00000040: ab71 c63d bd7a 1cbd 899d 363d 748a babc
00000050: 0632 373d 0100 d1bd eaa8 db3c e483 adbd
00000060: acc7 b73d 4d7d cebd 57c5 b8bc 6f09 b7bd
00000070: 84aa c63d 4baa 9c3d ab98 4abd 1e10 b2bd
00000080: 7190 0b3d 227b 47bd 1bf1 afbd aa7d 5a3c
00000090: 69e7 b1bd 05c5 83bd 21a2 6dbd 9a06 a7bd
000000a0: 9c33 adbd 4054 82bd 180b 953c 69e1 123d
000000b0: 1f5c 4abd 2e86 e03d 50c0 eabd af0f 4d3d
000000c0: 6227 90bc 7cdc cdbd 13dd 323d a87b 123e
000000d0: cbc6 6d3c 916f 3bbd d55e 723d f193 10bd
000000e0: 1679 8e3d 8b5d 5f3d 63c2 8c3c 97e6 00bd
000000f0: 9611 013d f54a 0a3d c214 363d 623a 83bd
-0.093397215 0.09265009 0.010962547 -0.02513717 0.046406567 -0.087840006 0.06618008 0.083211355
0.00129456 0.08080704 -0.008947517 -0.10530081 -0.07962433 -0.04868925 0.052946296 -0.073326975
0.09689649 -0.03820299 0.04458383 -0.022771098 0.04472544 -0.10205079 0.026813943 -0.08472422
0.08973631 -0.10082493 -0.022555036 -0.08937346 0.09700492 0.07649668 -0.049462 -0.0869448
0.034073297 -0.048701413 -0.08590909 0.013335625 -0.08686716 -0.06434063 -0.058015946 -0.08155556
-0.08457109 -0.06363726 0.018193766 0.0358595 -0.04940426 0.10963093 -0.11462462 0.050063785
-0.017596904 -0.1005182 0.043667864 0.14304984 0.014512728 -0.045760695 0.05917247 -0.035297338
0.06956689 0.05453257 0.017182535 -0.031469908 0.031510912 0.03376289 0.04445339 -0.0640762

fc3.weight f4 [4, 64]
00000000: 44c6 f03d a0eb 39bc e00d ee3d 5b10 d1bd
00000010: ceeb 96bd 2026 8cbb 39d8 2f3d 4e8d 53bd
00000020: 1fa9 1b3d 32e2 29bb 5093 4dbd e444 9b3d
00000030: 3978 b8bd 40bb 56bd fb8a 32bd e430 80bd
00000040: 36e2 a4bd 7bab 67bd 735c fc3d 66eb 6abd
00000050: 9efc 783d 9141 7abb 812c de3c 045a 173d
00000060: d114 65bd 8d75 ab3d 661e cabd 2fd1 3e3d
00000070: 6713 f13d 5ad6 67bd 1430 9a3d a48d c7bd
00000080: d43f 613d 834c e7bd 6fd1 973d 9fb2 7f3c
00000090: fe87 c53d 12a8 9a3d de09 d33d c780 043b
000000a0: 877f 363c 13d6 043e f3df 023e 9d9e 12bb
000000b0: f5e7 cd3d f484 73bc def1 90bd d4fa c1bd
000000c0: 6e4c d33d a910 86ba 93a9 a8bd 627d 0c3e
000000d0: 1723 c83d cf9c 84bd 3db4 203d a437 d8bd
000000e0: 5027 b13c 586e c63d aa99 573d 4274 ddbd
000000f0: cc3f 983d dee6 02bc 9c71 dabd 8579 4bbd
00000100: c4e4 a4bd b0a2 85bd 4e79 7cbd f909 b1bd
00000110: 8bf1 76bc 9ae6 ff3d 4c47 9e3d b639 273d
00000120: ad32 18bb 38dd ee3d 2fc1 9bbc df78 d33d
00000130: f203 cfbd 88c8 efbd 2b0b 9e3d 5b8a 053d
00000140: 5760 c13d 854c 93bd 9721 c4bd d7df 923c
00000150: 5d6f d9bc 1a4f b03c ebf0 c13c c8db 7ebd
00000160: d22e 403c 815c c7bb e7fa f1bd 3c53 ebbd
00000170: 0859 d33d f0f4 c4bd c5d5 a43d c063 eabc
00000180: 1c74 403d 8c7b 6bbc fc51 a6bd a1a8 ed3c
00000190: 427f bb3c fd4e fabd 1592 ee3d 7e30 683c
000001a0: 7242 c9bd 8543 873d 9511 5d3c a239 dfbd
000001b0: c1e8 8b3d acaf 103c 885c 68bd ff3f cd3d
000001c0: a5da 9cbd 6160 123c d245 b13c 1d4b 4bbc
000001d0: 1e2c 043d c56d 223c 9688 bdbc 2a88 16bd
000001e0: ea7d 913d c1a9 b63d 813e dbbc 3a3d a6bd
000001f0: aaaa f23d e03a 67bd 3592 8d3d 7ac8 79bd
00000200: 9cc4 7c3d 4e4e 553d 33ca 403d 96bc bdbd
00000210: 255e 33bd 9a79 a63d e729 b53d 5d46 8fbc
00000220: bb72 d6bd 128e 763c 9b0f b23d 9533 2a3b
00000230: b747 243c 74d1 e93b 8beb d93d 4e74 cfbd
00000240: e43f 763d a245 ab3d b4f2 d73d 7a95 57bd
00000250: e395 e0bc 3e0e b9bd 8e5f 1fbd e0fb 94bd
00000260: 5ca7 dcbb 13a2 a93d 335d ccbd 9536 bc3d
00000270: 0976 c93d ba03 9abd aca5 f83d 48f5 8b3c
00000280: d703 853c 34b0 83bd 4f61 ddbd 7f3a b7ba
00000290: e7e1 3bbd 6213 2a3d ef96 c6bc c605 bd3d
000002a0: b65d 05bd bbb1 02bc 0104 acbd 967a c9bd
000002b0: 62d1 de3c 6b13 9a3d ae92 febd 6bb8 ca3d
000002c0: bb2f 23bd 73f9 c1bc 75fa c03c 6ed0 40bd
000002d0: 71d9 0b3d 374d 743d c227 5c3d d910 f9bc
000002e0: cf5a 063d be6a bbbd 13af 47bd 6d48 6c3d
000002f0: 7060 8ebc 8954 953d b18b 223d 9725 afbd
00000300: 101a c9bc a04d 28bd 8705 d3bb b4b1 80bc
00000310: 0613 b73c 86fb 9fbd bace c0bd e7f9 84bc
00000320: 3be9 90bd b6b2 7fbd a510 e63d 5ed4 cbbb
00000330: e6ab c43d 66f1 b13d 667e 053d f905 f43d
00000340: 57c9 1c3d b931 103d f972 83bd 7f43 92bd
00000350: 663a 74bc e6e7 f5bd a641 2a3d d77b 903d
00000360: c515 2dbd a613 d8bd ffe0 013e f989 ba3d
00000370: 3d0e 37bd c696 863d a7c7 e83b 3d93 ccbd
00000380: 4536 773c 68a0 85bb 869e a33d 9ce2 f5bc
00000390: 72bf ce3d ebb2 a6bd af97 aa3d aa5d a9bd
000003a0: 0466 57bd 2817 6cbb 7c1c fd3d 7348 50bd
000003b0: 6bac a93d 4e04 20bb 0e34 b7bd 5ce1 de3d
000003c0: 5fe0 bbbd e3f8 e33d a574 56bd 0590 523d
000003d0: 43ad 24bd 804a 303d 199f 7dbd e063 97bd
000003e0: b9b8 70bd 299d e53c 58dc 713d 1253 9dbd
000003f0: 1d9a 853c 8580 f2bb 3d32 063e faaf 593c
0.11756566 -0.011347681 0.1162374 -0.10208198 -0.07369195 -0.004277006 0.042930815 -0.05164843
0.038003083 -0.0025922176 -0.050189316 0.07581499 -0.09007306 -0.05242467 -0.043589573 -0.06259325
-0.08050959 -0.05656002 0.12322321 -0.0573534 0.06078779 -0.0038186053 0.02712083 0.03695108
-0.055928055 0.083720304 -0.09869079 0.04658621 0.11771279 -0.056600906 0.075287014 -0.09743813
0.054992512 -0.1129389 0.07412993 0.015606551 0.09645079 0.07551588 0.103046164 0.002021836
0.011138803 0.12972288 0.12780742 -0.0022372373 0.10054008 -0.014863241 -0.070773825 -0.0947167
0.10317312 -0.0010228354 -0.08235469 0.13719705 0.09772318 -0.06475221 0.03923439 -0.105574876
0.021625191 0.09689015 0.05263678 -0.1081319 0.07434043 -0.007989613 -0.106662005 -0.049676437
-0.08051446 -0.06525171 -0.061639123 -0.0864448 -0.015072237 0.12495156 0.077284425 0.04082652
-0.0023223564 0.11663288 -0.019013016 0.10325789 -0.101081744 -0.1170817 0.07716974 0.03260265
0.094422035 -0.07192329 -0.09576719 0.017929 -0.02654236 0.021522094 0.023674449 -0.06222132
0.011729913 -0.0060840254 -0.11815434 -0.11490485 0.10319716 -0.096170306 0.08048586 -0.028612018
0.04698573 -0.014372718 -0.08121106 0.029011073 0.02288783 -0.12222097 0.11648957 0.014171718
-0.098271266 0.06604675 0.013492961 -0.108996645 0.06831504 0.008830946 -0.05672887 0.10021972
-0.07658891 0.008934111 0.021639738 -0.012408045 0.032268636 0.009913866 -0.023136418 -0.03675095
0.07104094 0.08919097 -0.026763203 -0.08117147 0.11848958 -0.056452632 0.069126524 -0.060982205
0.06171094 0.05207663 0.047067832 -0.092644855 -0.043790955 0.081286624 0.08845883 -0.017489607
-0.10471102 0.015048521 0.08694383 0.0025970687 0.010026864 0.0071355645 0.106406294 -0.10129605
0.060119525 0.08362891 0.10544339 -0.052632786 -0.027415222 -0.090359196 -0.038909487 -0.07274604
-0.006733818 0.08282866 -0.09978714 0.09190098 0.098369665 -0.07520242 0.121409744 0.017084733
0.016237183 -0.064300925 -0.10809576 -0.0013979225 -0.045869734 0.04152239 -0.024241893 0.09229617
-0.032560073 -0.007976945 -0.08399201 -0.098378345 0.02719945 0.07523235 -0.12430321 0.09898456
-0.03984044 -0.023678517 0.023556927 -0.047073774 0.034142915 0.05964395 0.053748854 -0.030403541
0.032801446 -0.09151219 -0.04875095 0.057686258 -0.01737997 0.072915144 0.039684 -0.085520916
-0.02454856 -0.041089654 -0.006439868 -0.015709735 0.022347938 -0.07811646 -0.0941443 -0.016232444
-0.07075735 -0.06242629 0.112336434 -0.0062203845 0.096030995 0.08688621 0.032591246 0.11915202
0.03827795 0.03520367 -0.06418414 -0.0714178 -0.014906501 -0.12007122 0.041566513 0.070548706
-0.04225709 -0.10550623 0.12683485 0.091083474 -0.044691313 0.065717265 0.0071038785 -0.09989021
0.015088622 -0.00407796 0.0798922 -0.030015282 0.10095109 -0.08139595 0.083297126 -0.08269818
-0.052587524 -0.0036024544 0.123589486 -0.050850343 0.08284839 -0.0024416628 -0.089454755 0.10882828
-0.09173655 0.11131456 -0.052357335 0.05140688 -0.040204298 0.0430398 -0.061919305 -0.073920965
-0.058769915 0.028029041 0.059048027 -0.0768186 0.016308839 -0.0074005746 0.13105102 0.013286585

fc3.bias f4 [4]
00000000: ca5a e7bc 1eaf 103d 3f07 af3d 1f6a 383d
-0.028241534 0.035323255 0.08546304 0.04502308
