mlruns/0/fd9b4323c6fd4fb49b804de5b039e7ff/artifacts/checkpoint.pth (torch_old, 28447 bytes, 6 tensors)

fc1.weight f4 [64, 37]
00000000: e8e1 0a3e 41da 8abd 8ff7 06bc 1f36 c03d
00000010: d5f0 f2bd 1509 6b3c d669 813d 1bb4 13be
00000020: a142 8e3c c329 29bd 8650 1f3e e5d3 983c
00000030: dd67 093e a2c6 a33d 52ff 9a3d 82a8 0cbe
00000040: b8aa 183e 7092 03be 25ca b73d 1d56 a73d
00000050: c753 bf3a 5caf 1c3e e5b3 30bd 7d29 a6bd
00000060: 1044 7f3d 0a7b 96bc 6bdc 02be 5a99 e8bd
00000070: de6f b6bd 1e8e 5e3d 3cac f3bd fee5 ac3d
00000080: 8e7f 2b3e 2a56 5ebd 9ce0 c63d a07a 8dbc
00000090: 9d92 de3d 13d3 bbbb 3630 c5bd 08cc d23d
000000a0: 6cf0 c4bd 5f60 2e3d 0697 ca3d cd54 e8bd
000000b0: 3f87 09be 1f17 9b3d 1c87 14be 899a 0ebe
000000c0: bf98 b73d afa9 38bd 60cd e13d 89df 04bd
000000d0: 2505 233d 7d10 97bd 8393 36bb d778 29be
000000e0: d1dc eebd fac3 0cbe 53d1 113d 0673 9ebc
000000f0: 7e2a 1f3e 2d1e af3c de7e f83d ff54 acbd
00000100: 5b7a 6d3d 1d7d cabc 1088 2c3e 8e0d 8b3d
00000110: 28e4 043c f30c f1bd bf6b 00be c306 22bd
00000120: 13d7 b73d c552 ddbd 712e 98bd 8c74 1dbe
00000130: 7e26 143e fd0f 073e 54d2 d1bd 2171 173b
00000140: 030c cfbc 0dd0 a03c 9613 fcbd 1d10 f6bd
00000150: 5ca1 4abd f28c 0bbe 03fc d93c 8842 a6bd
00000160: 78ad 16be 56b8 c6bc 2abe a5bd 596c 7b3d
00000170: d2a4 f13d c608 f2bd 4384 89bd aa8e 21bd
00000180: 88df 2abe 9e8d 27be b6eb 4f3d 739a 31bc
00000190: 5d5b cebd 6c9d 173e 81c4 27be ef72 003e
000001a0: 0272 1cbe 26c5 d0bd f23c 863d 90b3 1ebd
000001b0: f79d 7cbd 308b cdbd f439 213d fbf4 df3d
000001c0: bf34 273d 25cf 2f3e ff5e 0ebe 17de 1cbe
000001d0: 3f65 dabd 16f7 cbbc 2de9 033d 083d f4bc
000001e0: e6af e53c e5cd d6bd 33ea 30bd 5388 ba3b
000001f0: 3156 4b3d f3a2 fabd 0d24 d93d 1e17 d8bc
00000200: 2f68 7d3d 9112 1e3e dc58 823d 27af 363d
00000210: 6271 81bd 243b f7bd 7503 863d 4428 003e
00000220: 0384 8d3d 791f bd3c 1481 013e 2d0b 5abd
00000230: 5d50 80bd f61c babd 2e08 bdbd dbe7 1a3b
00000240: 4e39 3abe 84ed e53d 44df 37be b993 6fbd
00000250: a593 473d 3d4a debb 5258 61bd c099 24be
00000260: 8a16 c83d 4e1b 1b3e 595d a33c 67f2 acbd
00000270: 6ee8 48bd d266 f4bd 77b0 573d ed88 673d
00000280: 7fec 0cbd 22a4 99bd 4b47 b23d 85b5 1dbd
00000290: 9acd 7f3d 4b7f 423d 24fb f23d 7990 b5bd
000002a0: 3d5e 15be c66c eb3b e35d 17be 8003 12be
000002b0: 9370 fc3d d8ae 023c ffa3 e63d 20b8 4d3d
000002c0: 9f5b 133e 9cc1 c43c 13af 183e 1fb2 73bd
000002d0: bc72 cdbd 417f 22bd e613 09bd 2383 d33d
000002e0: 34a3 08bc 55c4 8e3b 395d acbd e7a5 16be
000002f0: 7ac6 7f3d f819 b4bd 29e4 143e 493b 103e
00000300: a14c 27be 7bef 48bd a66b e4bd ce88 233e
00000310: 7b00 c9bd 8bf9 153e 0155 073e be74 0abd
00000320: 7c2a 87bd fd44 eb3d 4ea6 05bd 2832 39bd
00000330: fa5f bc3c 7bd4 1dbe d2a2 a3bc 3eca 9f3d
00000340: 7630 a5bd e7bb d1bc 0085 fabd cf0e fdbc
00000350: d3ee 9d3d f9b1 04bc 404e 01be 4068 093d
00000360: fecb 06be ad4b e83d 4a55 6e3d 2ded 1f3c
00000370: 06bf e9bd 7302 1e3e 1f7f 07be d497 00bc
00000380: 5494 f7bd 9ed3 03be 0f0e 5a3d b8f8 f53d
00000390: 7e6c 8a3d 67d3 1f3e 9973 46bc cc99 d5bd
000003a0: 9286 1f3d a591 a2bb a79e f63c 6fee 34ba
000003b0: c3a1 12be a78b cabc f379 203e 7230 d03d
000003c0: e15a 1d3e b9cb 613d b4fb 0b3e 5662 103d
000003d0: d6f7 4f3d 7888 8eb9 8797 85bd e9a6 f13d
000003e0: b500 e3bd abaa e3bc 034f 9d3d 2b7f 10bc
000003f0: a767 e1bd 08d4 b2bc c317 c93d f12e 31bd
0.13562739 -0.0677991 -0.0082377335 0.09385323 -0.11862341 0.014345427 0.06319015 -0.14424174
0.017365756 -0.041299593 0.15558061 0.018655727 0.13418527 0.079968706 0.0756823 -0.13736156
0.14908874 -0.1284883 0.08974103 0.08170722 0.0014597111 0.1530127 -0.04314031 -0.08113382
0.06232077 -0.018369216 -0.12779395 -0.113573745 -0.08908056 0.054334752 -0.118980855 0.08442305
0.16747877 -0.05428139 0.097108096 -0.017270386 0.10867808 -0.005731949 -0.09628336 0.10292822
-0.09616169 0.042572375 0.09892087 -0.113442995 -0.13430499 0.075727694 -0.14504665 -0.13926138
0.08964681 -0.045083698 0.110255 -0.032439742 0.039799828 -0.07376192 -0.002785892 -0.16550003
-0.11663211 -0.13746634 0.035600018 -0.019341957 0.15543553 0.021376694 0.12133573 -0.08414649
0.057978015 -0.024717862 0.16848779 0.06789695 0.008111037 -0.11770048 -0.12541102 -0.03955723
0.08976569 -0.10806803 -0.07430733 -0.1537649 0.14467809 0.13189693 -0.10245195 0.0023108202
-0.025274282 0.019630456 -0.12308423 -0.12014792 -0.04947029 -0.13627985 0.026609426 -0.081181586
-0.1471461 -0.02425782 -0.080929115 0.061382625 0.11799015 -0.1181808 -0.0671468 -0.039442696
-0.16686833 -0.16362616 0.0507619 -0.010840046 -0.1007602 0.14806145 -0.16383554 0.12543844
-0.15277866 -0.10193853 0.06554593 -0.038745463 -0.061674085 -0.100363135 0.03936191 0.10935398
0.040821787 0.17168863 -0.13903426 -0.15319096 -0.106638424 -0.024898093 0.032204796 -0.029814258
0.028037976 -0.1048849 -0.0431921 0.0056925206 0.049642745 -0.12238111 0.10602579 -0.02637821
0.061866935 0.1543677 0.06364605 0.044600632 -0.06320454 -0.12071827 0.06543628 0.1251536
0.06909945 0.023086296 0.12646896 -0.053233314 -0.06265328 -0.09087555 -0.09230076 0.0023636732
-0.18185923 0.11226943 -0.17956263 -0.05849049 0.04872479 -0.0067837522 -0.05501587 -0.16074276
0.09769924 0.15147135 0.019941973 -0.08444672 -0.049049787 -0.11933674 0.052658524 0.056527067
-0.034405228 -0.07502009 0.08705004 -0.03850319 0.062451936 0.047484677 0.118643075 -0.088654466
-0.1458673 0.0071845977 -0.14781909 -0.14259148 0.12326159 0.007976256 0.112617485 0.050224423
0.1439042 0.024018101 0.14910536 -0.05949604 -0.100316495 -0.03967214 -0.033466242 0.10327747
-0.008339692 0.0043569007 -0.08416218 -0.14711724 0.06244514 -0.08794016 0.14540161 0.14085115
-0.16337825 -0.04905651 -0.11153345 0.15970156 -0.09814545 0.14645974 0.1321602 -0.03380274
-0.065999 0.11487768 -0.032629304 -0.04521385 0.022994984 -0.15413086 -0.0199751 0.078022465
-0.08065884 -0.025602294 -0.12232399 -0.03089085 0.07711568 -0.008099073 -0.12627506 0.033546686
-0.13163754 0.11342559 0.058186807 0.009761137 -0.11413388 0.15430622 -0.13232087 -0.007848699
-0.12088838 -0.12873694 0.053236064 0.1201033 0.067589745 0.15607987 -0.012112522 -0.10429725
0.038946696 -0.00496121 0.030104948 -0.00069019845 -0.1431952 -0.024724795 0.1567152 0.1016549
0.15366699 0.055125926 0.13670236 0.03525003 0.050773464 -0.00027186028 -0.06523042 0.11799414
-0.11084119 -0.027791342 0.07681086 -0.008819382 -0.11006098 -0.02182962 0.09818985 -0.043257657

fc1.bias f4 [64]
00000000: b756 6cbd 6922 e3bd b376 f9bd 58e4 2cbe
00000010: c632 dcbd f1f0 f13d dfd3 de3d 8f45 a3bb
00000020: 5578 75bd 377b 143e 04d6 77bc c407 023e
00000030: 33b3 f1ba a058 05be 84d3 19be 1ba7 f9bd
00000040: 27f2 27be 77db 6b3d 54fe 40bd 37f0 0bbe
00000050: b9bd 48bd 5dfb 113d af45 4b3d 754e c3bd
00000060: 1bd0 39bd 7acd c13d 4b79 eebd c735 c5bd
00000070: 1604 83bd f3e7 863d a6d5 c6bd 665f cbbc
00000080: 51e9 b63b ad9b 0ebd 6afc 1abe b96b c63d
00000090: ff56 3f3c 05ae 453d 12fa 203e 10c7 40bd
000000a0: a6a6 b1bd 55b4 dfbd ed60 b5bc f167 9a3d
000000b0: b1cd 083e 66d7 b8bd b0c8 633d 47c8 90bc
000000c0: 29e2 0f3e fcb8 a03d fcdb 063e a125 ab3d
000000d0: 974c bbbd b58b 4dbd e1cc b63d bedb bb3d
000000e0: 9fc5 edbd ec0d 5cbd ae02 11be bd55 45bd
000000f0: b9ee 183d 4692 22bb a62d 12be 4dbc e0bd
-0.057699885 -0.110905476 -0.12180843 -0.16883981 -0.10751872 0.11813534 0.10880255 -0.0049826573
-0.05992921 0.14500128 -0.015126709 0.12698275 -0.0018440246 -0.13022089 -0.15022093 -0.12190076
-0.16400968 0.057582345 -0.047117546 -0.13665853 -0.04900906 0.03564011 0.049627002 -0.09536449
-0.04536448 0.0946302 -0.116442285 -0.09629398 -0.06397264 0.065872096 -0.09708719 -0.024825763
0.0055820127 -0.034816433 -0.15135351 0.09688515 0.011678456 0.04826166 0.15720394 -0.04706484
-0.08674364 -0.109230675 -0.022140944 0.075393565 0.13359715 -0.09025459 0.055611312 -0.017673625
0.14051117 0.07847783 0.13169855 0.083567865 -0.09145468 -0.050182063 0.08925796 0.09172772
-0.11609959 -0.053724214 -0.14161178 -0.04817747 0.03733704 -0.0024806424 -0.14275226 -0.109734155

fc2.weight f4 [64, 64]
00000000: 92b6 2fbd e75d 833c d01e a3bd d04f 41bd
00000010: fd18 8dbd 53dd 15bd 265d dc3d d8fa 84bd
00000020: ea03 b9bb 0967 ae3c c913 7abd ddba 823c
00000030: 61d6 d6bc bd15 df3d ac27 623d 7356 c2bd
00000040: 9966 e8bd daf7 e93d 9df6 92bc f532 1c3d
00000050: 5205 e63d 64e6 143d 4628 6abd e4e8 62bd
00000060: cd8d 623d eb22 3e3c 26f9 e3bd 43c2 ecb9
00000070: 6450 a83d f189 1f3d d6d9 d5bd 43a9 8c3c
00000080: 6514 a3bd a7d8 9ebc d127 3fbd 83a9 533d
00000090: 299f d4bd 0bfe dbbd b8d1 243d d362 673d
000000a0: a9e9 8e3d a8b9 6cbb f3d8 523d 5688 423d
000000b0: 1513 453c 24fe d5bc 6afc 8ebd 7530 b0bd
000000c0: c573 5bbd 0a32 e4bd 0482 fabd dac5 d43c
000000d0: f4fe d53d 090a c6bd 29e5 a1bd ac45 073e
000000e0: 5be9 08be fa55 a23b b8b7 99bc 757e 83bc
000000f0: 6c48 a13d 4935 debd 26c2 953d 7a80 e93d
00000100: 44b4 da3d d076 9c3d 823b 85bc c65a 6c3d
00000110: b9dd 423d 0f4c 7cbd dfe9 7d3c c8a8 023c
00000120: d92f dcbc b425 b13d 178c 963d 6bae 8f3d
00000130: 66b4 953d 795c be3d 6885 ef3b d2f1 01be
00000140: da10 c2bd 5e60 e6bc c8f9 cc3a 8448 a6bd
00000150: 3beb c53a a0b6 87bd a163 cdbd f3cf 8cbd
00000160: b6b6 283b 5a92 e0bd 93b2 dc3d c83b 8fbd
00000170: 4342 e53d e3e1 3d3d 9927 46bd 61bf 013e
00000180: 009b db3d 59c9 473d 9247 a3bb 16c0 aabd
00000190: 5e98 19bd 4196 be3c 2696 7d3c dec3 ac3d
000001a0: 25a0 75bd 681d bd3d f38f cd3d baec ccbd
000001b0: 25a2 15bd c8b0 2cbd 7005 8e3d 4a99 c7bd
000001c0: 2e46 a7bd 8814 f7bc 92bc 113d 4c12 98bc
000001d0: 5031 8abd 0fce bbbd edfe f9bd 4747 02bd
000001e0: b2e5 343d 63f9 973d 780c a3bd b4f5 a5bd
000001f0: f4ab c2bd 6b96 acbd e5d2 d4bd 9c08 9d3c
00000200: 4625 e03d 3115 81bd cd3b 65bd 4ba9 ecbc
00000210: 1dcf e43d 7b5e 963d 40df f43c 5216 d5bd
00000220: 8f34 1c3d a78f c9bc 7065 55bd 70e9 f03d
00000230: 25cc bfbd a6f7 21ba f043 e3bd d8e7 9c3d
00000240: 3cfb 64bd 1567 e33d 0ed3 b93c 63a7 f73d
00000250: 9bee 5abd e59f 7bbd 8177 993c 966e d93d
00000260: b007 873d f512 cb3d 6dd0 9d3d 242d ab3d
00000270: 1a1d af3d 3f5c bb3d 30b6 a03d 865e 8a3d
00000280: a6a1 cbbd 2106 d9bd f8b4 efbd 5be4 ae3d
00000290: 8283 a03d 1f3b c5bd 07d1 74bd 0973 a03d
000002a0: f3d4 f6bc 524f d1bd 9820 153d e362 c0bd
000002b0: 33ee 583c ff06 6cbd b269 573d 8e47 ee3b
000002c0: 9cf3 89bd 788b 383d b764 613a 7320 d8bd
000002d0: 0602 333d f725 333d 8735 0f3d 4bb3 aa3c
000002e0: e578 78bd 4a29 b13d 9f9a cebd 7f3a b1bd
000002f0: 5433 1b3d eda0 0bbd a455 833d a250 e13d
00000300: 785b 2cbd 3bf7 853d 0c28 1d3d cde7 973c
00000310: 97f2 b9bd 7789 07be bd2d 03be 9648 9abd
00000320: ea3f a73c ae87 983d 00c6 dcbc 12d3 a13d
00000330: b751 89bd a1ff cbbd a93d ddbc 65fd 863b
00000340: c5cc c4bd 6264 353c 2c21 d9bd c66c a33d
00000350: 991e eebc d77a d6bd 24ff 483d e145 d93c
00000360: e239 613d 67fc 183d 0189 00be 1945 003d
00000370: 3979 b33d c66b 853c 89fe a53d 9149 be3c
00000380: 3ae2 d03d 3aba a43d 4020 2dbd b6c1 693d
00000390: bf55 563d faae e53c 6fd6 1cbc e9af 0abd
000003a0: ed65 823d 304b b6bd 9342 473d 7d4e 42bd
000003b0: f730 e43c a20f 26bd 809e e23d 8b16 d0bd
000003c0: f2b6 a13d ad42 03be 2017 89bb c10d 01be
000003d0: a9dd bbbd 900f e1bc 8b92 923c 0795 1a3c
000003e0: b0a4 1abd 0b24 413d 24a1 9b3d 5a11 bd3d
000003f0: 91d2 983d 271f ce3d 8472 cfbc 5c7b e2bd
-0.042898722 0.016035987 -0.079648614 -0.047195256 -0.06889532 -0.036588024 0.10759954 -0.06493157
-0.0056462185 0.021289365 -0.061054025 0.015958244 -0.02622527 0.10892818 0.055213615 -0.09489145
-0.11347694 0.11424227 -0.01793986 0.038134534 0.112314835 0.03635253 -0.057167314 -0.055397883
0.055311013 0.011605005 -0.11131506 -0.00045158164 0.08218458 0.03894991 -0.104419395 0.017170554
-0.07962874 -0.019390417 -0.04666883 0.05167533 -0.1038192 -0.10741814 0.040239066 0.05649073
0.06978161 -0.0036121402 0.05147643 0.0474933 0.012028475 -0.02612216 -0.06981738 -0.086029924
-0.053577203 -0.11142357 -0.1223183 0.02597325 0.10449019 -0.09669883 -0.07905037 0.13210171
-0.13370268 0.004954097 -0.018764362 -0.01605151 0.078751415 -0.10850007 0.073124215 0.11401458
0.10678914 0.07639849 -0.016263727 0.057703756 0.047574732 -0.061595973 0.015497654 0.007974811
-0.026878284 0.086497694 0.07350939 0.070156895 0.07309799 0.092949815 0.0073096044 -0.12689903
-0.094758704 -0.028122123 0.0015638405 -0.081193 0.0015100011 -0.0662663 -0.10028768 -0.06875601
0.002574367 -0.10965414 0.10776248 -0.06993824 0.11194279 0.046358 -0.048377607 0.12670662
0.10722923 0.048776004 -0.004982897 -0.08337419 -0.037498824 0.023265006 0.015477693 0.08435796
-0.05996718 0.092341244 0.10037222 -0.100060895 -0.036531586 -0.04216078 0.06934631 -0.097460344
-0.081676826 -0.030161157 0.035580225 -0.018563412 -0.06747687 -0.09170162 -0.12206826 -0.031806257
0.044164367 0.074206136 -0.079613626 -0.08103505 -0.09505454 -0.084271275 -0.103917874 0.019169144
0.10944609 -0.0630287 -0.055965234 -0.028889319 0.11172316 0.073422395 0.02989161 -0.10404648
0.03813606 -0.024604632 -0.05209869 0.11763275 -0.09365109 -0.0006178565 -0.110969424 0.07661408
-0.05590366 0.11103646 0.022683647 0.12092473 -0.05345021 -0.061431784 0.018733742 0.10616796
0.06593263 0.09915725 0.0770577 0.08358219 0.085504726 0.09148454 0.078472495 0.0675631
-0.09942941 -0.10596872 -0.11704439 0.08539649 0.07837583 -0.09630417 -0.059769657 0.07834441
-0.030130839 -0.10220207 0.036408037 -0.09393861 0.013240385 -0.05762386 0.052591033 0.0072717136
-0.06735918 0.045054883 0.00085980765 -0.10553064 0.0437031 0.043737378 0.034963157 0.020837447
-0.06066217 0.086504534 -0.100880854 -0.08653735 0.037890747 -0.034089018 0.06412819 0.110017076
-0.04207942 0.06541296 0.03836827 0.018543148 -0.090794735 -0.13236032 -0.12810417 -0.07533376
0.020416219 0.07447754 -0.026949883 0.079015866 -0.06705039 -0.09960867 -0.02700694 0.0041195625
-0.09609369 0.011071296 -0.1060203 0.07979731 -0.029067324 -0.104726486 0.049071446 0.026522579
0.054986842 0.037350085 -0.12552263 0.031315897 0.08763356 0.016286742 0.08105189 0.023228439
0.10199399 0.080433324 -0.042267084 0.057069503 0.052327868 0.028037537 -0.009572609 -0.033859167
0.06367097 -0.0890106 0.048647474 -0.047438134 0.02785538 -0.040542252 0.11065388 -0.1016055
0.07896222 -0.12818404 -0.004183665 -0.12602903 -0.09173138 -0.027473241 0.017892143 0.009434945
-0.037754714 0.047153514 0.075990945 0.09231825 0.07462037 0.100645356 -0.02532316 -0.11058685

fc2.bias f4 [64]
00000000: be5a 9cbd 3308 c13d fb85 1a3b c61c cbbc
00000010: d815 273d cb0b bdbd da39 533d d328 b13d
00000020: 2e1f eabb 66dc 963d a678 60bc 736a e0bd
00000030: dfad 9bbd ea66 1bbd 1869 4d3d 29ea 97bd
00000040: 4f6f c63d 6ca6 2bbd a1ea 0e3d ee97 94bc
00000050: 89c9 293d 73ac c9bd 7230 bd3c 80ce bdbd
00000060: 27d8 b33d 0a02 babd 60bc cdbc 5fa6 c6bd
00000070: 001c a73d e192 9f3d cdf1 61bd c1ce afbd
00000080: bde5 db3c 9d8f 4fbd 0900 a0bd a1eb 04bb
00000090: 1c4e c2bd ec11 93bd 1571 7fbd 9ecc d7bd
000000a0: 0503 99bd 3a94 99bd fdcd 353c e17c 4b3d
000000b0: e0ce 58bd 16fb cd3d 3800 e2bd 20d9 533d
000000c0: da67 b4bc 9fbf cbbd 9c64 423d cf76 0b3e
000000d0: b208 983b e342 46bd 1e06 333d a2f8 15bd
000000e0: d91d 553d d4e8 453d 3ec6 433c 3da1 0fbd
000000f0: 743e a53c a018 4d3c fc60 3b3d 374e 94bd
-0.07634495 0.09425392 0.0023578394 -0.024793994 0.040792316 -0.09230765 0.051568843 0.08650365
-0.00714483 0.073662564 -0.01370064 -0.109578036 -0.07601523 -0.037939943 0.050149053 -0.074177094
0.09689199 -0.04190676 0.03489173 -0.018138852 0.041451965 -0.09847345 0.02309439 -0.092679024
0.08781462 -0.0908242 -0.025114238 -0.096997015 0.081596375 0.07791687 -0.05516224 -0.08584357
0.026842946 -0.05067407 -0.07812507 -0.0020282047 -0.094875544 -0.07181153 -0.062363703 -0.105370745
-0.07471279 -0.07498975 0.011096475 0.04967964 -0.052931666 0.100576565 -0.11035198 0.05172074
-0.022022177 -0.09948658 0.04745923 0.1361954 0.0046397084 -0.048403632 0.043707006 -0.036614068
0.052030418 0.048317745 0.01194912 -0.03506588 0.020171382 0.012518078 0.04574679 -0.07241481

fc3.weight f4 [4, 64]
00000000: 14a6 123e 59a8 7dbc 8e66 d63d 616b d8bd
00000010: 1d57 81bd 2026 8cbb 88ea 0e3d ad73 53bd
00000020: c8ea 053d e347 35bc 241e 49bd e464 963d
00000030: ad89 b6bd badd 3fbd 5510 47bd 83c2 7dbd
00000040: d43d aabd 3c26 73bd b290 f23d 8271 71bd
00000050: 8c35 553d 3b1f 083c a3ec ae3c b5fa 043d
00000060: 0ce9 6bbd babd af3d a830 cabd f6ce 283d
00000070: ac9c e43d 9ca2 52bd 2f3f 923d ea0a c4bd
00000080: cc77 4a3d fbca b7bd 50c9 783d a956 bc3b
00000090: 3893 b83d 49e1 983d 3159 bc3d c266 54ba
000000a0: 3686 c73b 6843 f83d 84d1 f73d ee3c 5bbb
000000b0: 26c0 f23d 9138 a8bc ea65 87bd e864 c6bd
000000c0: cd90 c03d 9e4a f5ba 0e0b b0bd 1b35 023e
000000d0: 814e c73d a593 7dbd dadd ff3c ebe4 cfbd
000000e0: c470 803c 0ca2 eb3d a867 443d e68b b7bd
000000f0: fb05 833d acb9 76bc 0496 d5bd 8a2e 31bd
00000100: ab33 8bbd a18e 98bd 9421 92bd 7e88 d9bd
00000110: cd36 7cbc 9ae6 ff3d b209 953d 2fe3 093d
00000120: 1a8f dabc 35d6 f83d 4fe3 2cbc b767 d03d
00000130: 8365 c0bd 6747 f9bd a101 a03d 5646 753d
00000140: e9b6 cc3d 6570 89bd 22cc bdbd fb4d bc3a
00000150: 7376 c2bc d48c b73c e25a b43c 9627 66bd
00000160: dab7 2c3c cc87 73bc b96d eebd cb3c e3bd
00000170: 8724 983d 55e7 c6bd 811a a63d 669c c0bc
00000180: 9c01 283d bcb7 d9bc 7064 a2bd fbda a83c
00000190: 6561 ed3c a4ee 03be 324f ce3d a0e9 5c3c
000001a0: 5136 b9bd 590d 7d3d a112 dc3b 911b eabd
000001b0: f9a4 763d 0452 233c 885c 68bd b4a0 d73d
000001c0: c38c 95bd 10dd 6dba 08fc f83c c2ef 5cbc
000001d0: f9d8 e13c 5bc2 41bc 817b b1bc 62c7 2cbd
000001e0: b76b 683d b58b c03d fde4 e1bc 74a2 acbd
000001f0: 7426 f73d 4098 44bd 0603 923d a03f 84bd
00000200: 3cb6 a93d 733e 243d 71f4 013d 2629 b2bd
00000210: 2a66 28bd 0480 9d3d bd34 9e3d 12c8 abbc
00000220: 6683 bdbd b46f 9bbb 22ce 9c3d 8af9 433c
00000230: be0b 163b cbdc 063d 230a c43d 6afb dfbd
00000240: c872 593d 72b5 983d 8ad4 d63d ef05 41bd
00000250: ca2e 0dbd 003b aabd e9f8 53bd bceb 94bd
00000260: 4236 683b 21eb a03d 02df aebd 0b2a b43d
00000270: c465 c43d 0050 89bd 960a e83d cb40 813c
00000280: aa2d 42ba 980d 91bd 6465 ecbd 37f8 7dbc
00000290: 5257 80bd ebed 213d 37da fdbc 55a4 9d3d
000002a0: 6592 5cbd 6058 88bc f2bf c7bd f9c4 ecbd
000002b0: 581d 1e3d eb2b 823d ba6c 0abe b7d2 b33d
000002c0: 10f4 62bd cc02 b3bc 5ebe ab3c 3f98 7dbd
000002d0: 47f1 d83c f019 7c3d 6b55 933c 74e6 0ebd
000002e0: 70fb ee3b 6700 c5bd 4502 83bd 7ccb 743d
000002f0: daa0 03bd 09e2 8a3d 0912 253d 2470 9bbd
00000300: 86c5 00bd 88e8 45bd c408 88bc c5be acbc
00000310: 3838 c5bb 86fb 9fbd 0e8a d0bd 796d 3bbc
00000320: 8582 8bbd 0d6f 80bd bd2d 0a3e 5d3c 54bc
00000330: 6d98 c43d 5f3f ad3d 194c 653c d60a fd3d
00000340: 32a9 1e3d 2c0d ed3c 4e2a 40bd 6b2d 8cbd
00000350: f7e0 07bd 41d5 f5bd 4010 043d f607 6f3d
00000360: 6c76 f9bc 759a d2bd e8bc 0a3e 9e3a 8c3d
00000370: 4fc2 7dbd 0b1a 953d 1a62 aabc 5087 dfbd
00000380: 8a66 0d3a cfdb 613d efb5 863d 3b2e 32bd
00000390: dcff c13d 4f23 d4bd c2f8 ad3d 7882 a9bd
000003a0: af10 31bd 6b21 cfbc a425 de3d 3a8f 45bd
000003b0: 0754 e23d df2c 64bc 3e4b d6bd c4c8 e73d
000003c0: 49fd f9bd 62d8 0c3e af1e 72bd 5c43 243d
000003d0: ee4c 80bd 489f 743d 75b3 7cbd 87d8 93bd
000003e0: 99a3 80bd 0b62 763d d982 2d3d 94f0 8bbd
000003f0: 52a6 e73c b8c7 79bc 6baf f23d 946f 813b
0.14321166 -0.015482032 0.104687795 -0.10567356 -0.06315444 -0.004277006 0.034891635 -0.05162399
0.032694608 -0.011064502 -0.04910101 0.07343462 -0.08912978 -0.046842314 -0.04859956 -0.06195308
-0.08312574 -0.059362635 0.11844005 -0.05894614 0.05205302 0.008308227 0.021353072 0.032465655
-0.057595298 0.08581109 -0.09872562 0.041213 0.11162695 -0.051424608 0.071409576 -0.09572394
0.049430653 -0.08974262 0.06073886 0.0057476354 0.09012455 0.07464845 0.091966994 -0.00081024703
0.0060889972 0.12122232 0.12100509 -0.0033453065 0.11853056 -0.020534785 -0.066112354 -0.09687215
0.094026186 -0.0018714254 -0.085958585 0.1271557 0.0973177 -0.061908383 0.031233717 -0.101510845
0.01567877 0.11505517 0.047950417 -0.089622304 0.06397625 -0.015058916 -0.10429004 -0.043257274
-0.06796964 -0.07449079 -0.07135311 -0.10621737 -0.015393925 0.12495156 0.0727724 0.033663925
-0.026679564 0.12150232 -0.0105522415 0.10176032 -0.09394362 -0.12171822 0.07812811 0.05988153
0.09995825 -0.06710891 -0.09267451 0.0014366502 -0.023738122 0.02240602 0.022015993 -0.056190096
0.0105418805 -0.0148639195 -0.11642022 -0.1109558 0.07428842 -0.09712092 0.08110524 -0.023512077
0.04101716 -0.02657687 -0.07929313 0.02061223 0.028977105 -0.12884003 0.10073699 0.013483435
-0.09043563 0.061780307 0.006716088 -0.11431039 0.060215924 0.0099682845 -0.05672887 0.105286986
-0.07302239 -0.00090737734 0.030393615 -0.013484897 0.027569281 -0.011826123 -0.021665337 -0.042182334
0.05674335 0.09401647 -0.02757501 -0.08429423 0.12067881 -0.04799676 0.07129483 -0.06457448
0.082867116 0.04009862 0.031727258 -0.08699255 -0.041113056 0.07690433 0.07724903 -0.020969424
-0.09253578 -0.0047435407 0.07656504 0.01196135 0.0022895182 0.03292541 0.09572246 -0.10936625
0.05308798 0.07456483 0.10489757 -0.0471248 -0.03446845 -0.083120346 -0.05175105 -0.07271525
0.003543273 0.07857347 -0.08538629 0.087970816 0.09589723 -0.06704712 0.11330144 0.015777966
-0.0007407317 -0.07082671 -0.11542776 -0.015501074 -0.06266655 0.039533537 -0.030987842 0.076973595
-0.05385055 -0.016643703 -0.097534075 -0.11561007 0.038602203 0.06356033 -0.13518038 0.08780425
-0.055408537 -0.02185192 0.020964798 -0.06191277 0.026482238 0.061548173 0.017985066 -0.034887746
0.0072931573 -0.09619217 -0.06396917 0.05976437 -0.032135822 0.06781394 0.040300403 -0.075897485
-0.031438373 -0.048317462 -0.016605742 -0.02108706 -0.0060186647 -0.07811646 -0.10182582 -0.0114396745
-0.06812004 -0.06271181 0.1349401 -0.012953845 0.095993854 0.08459353 0.013995194 0.123555824
0.038735576 0.028936945 -0.046915345 -0.068446 -0.033173528 -0.120035656 0.03224206 0.0583572
-0.030451976 -0.102833666 0.13548625 0.06847118 -0.061952885 0.07280358 -0.020798732 -0.10914481
0.00053940027 0.055141266 0.0657767 -0.04350112 0.094726294 -0.10358297 0.084947124 -0.08276838
-0.0432288 -0.02528449 0.10847023 -0.048232295 0.11051183 -0.013926714 -0.1046357 0.1131759
-0.122065134 0.13754418 -0.059111293 0.0401033 -0.06264673 0.059722215 -0.06169458 -0.07219034
-0.06281204 0.060152095 0.042361114 -0.06832996 0.02827755 -0.015245371 0.118498646 0.0039500687

fc3.bias f4 [4]
00000000: 732e 06bd 411b f53c 5155 8a3d 1d99 093d
-0.03275914 0.029920222 0.06754554 0.033593286
