mlruns/0/0e900a697bbf46a68b8c107b936994a4/artifacts/checkpoint.pth (torch_old, 28447 bytes, 6 tensors)

fc1.weight f4 [64, 37]
-0.06802384 0.104115255 -0.17904614 0.18329462 -0.024826236 0.08315467 -0.21156067 -0.018770311
-0.75781643 -2.154066 -0.01752627 -0.017108336 0.20978734 0.110062085 -0.0032064798 -0.14220287
-0.019825129 -0.100531496 0.09300634 0.24505638 -0.049058564 0.14747176 -0.0989054 0.019126402
-0.0076606795 -0.13287684 -0.2729447 -0.097491756 0.023529984 0.13205016 -0.14171262 -0.076624334
0.08450388 0.22611548 0.27837768 -0.027146323 0.04205422 -0.3322397 -0.30563715 0.32970038
-0.9575931 -0.6413061 -0.041812174 -0.6970954 -0.1693043 0.11402959 -0.32188457 -0.6479246
-0.030487861 0.09341528 -0.2957516 -0.1981309 -0.5165845 -0.8381706 0.21447821 -0.6080814
-0.083160535 -0.37819928 0.07537285 -0.39296356 -0.03345265 0.045763247 -0.8168254 -0.31125748
0.30675906 -0.100539625 0.41150597 0.067107715 -0.22285357 -0.16787525 -0.43240622 -0.21421129
0.13911325 -0.16364504 -0.13983408 -0.04136528 0.062091246 -0.16742867 -0.10367196 -1.2080442
-0.14459641 0.3975738 -0.11542486 -3.1581542 -0.027602138 -0.15625794 -0.078963794 -0.10277732
-0.60715973 -0.035402 0.09337655 -0.026265536 -0.3198098 -0.12727974 -0.28001747 -0.14489196
-0.008022444 -0.42231977 -0.062055115 -0.37738 0.06641822 0.16436592 -0.25977224 -0.3277511
-0.24830884 0.25101203 0.124244116 -0.33605337 -1.8239913 -0.16550574 0.12716758 0.52607113
-0.5110637 -0.46730906 -0.6196111 -2.3454134 -0.009434365 -0.01806032 0.05099415 0.1312552
-0.05941012 0.072553776 0.06071974 0.052243963 0.0323131 -0.073441 0.15482844 0.18381076
0.099521704 0.3972524 0.23420452 0.120358914 0.0023657202 0.026737723 -0.031287245 0.038622
0.10493323 0.16516134 0.11662617 0.14462782 0.07986204 -0.026451832 -0.0023815257 -0.038586088
-0.13340707 0.0039304863 -0.004885907 0.0026980331 0.13159794 0.07065336 0.093486 0.06920151
-0.074631594 0.4654556 -0.3987606 -0.1679163 -0.77182066 -2.1503725 0.070090584 0.117256194
0.11479859 0.032809444 0.007515246 0.06608087 0.071786016 0.22438543 0.21637017 0.040287074
-0.10182212 -0.043021444 0.049182344 0.07486904 0.17867066 0.13048948 0.19443388 0.20496686
0.19494879 0.049054842 0.070632406 0.044963144 0.16675879 0.16367847 0.14432186 -0.0036666424
-0.013290596 -0.023428695 -0.4732443 -0.22877607 0.08668372 -0.026582852 -0.3649792 0.056828044
-0.1360614 -0.25307578 -0.46063286 0.17936285 -0.21193722 0.050819013 -0.09800944 -0.2868591
-0.0015297802 -0.022391766 -0.52507764 -0.18102336 -0.35344845 -0.77840704 0.071244545 -0.028834732
-0.17711471 -0.483285 -0.09326896 -0.20046446 0.07740092 -0.7540894 -0.00956863 -0.70272326
0.058803253 0.11627229 -0.5795801 -0.5155318 -0.019741682 0.1226097 -0.10449581 -0.07413368
-0.11190925 0.031330526 -0.15908214 0.08749169 0.21506816 0.13033007 0.2373758 0.06795401
-0.052005794 0.04905947 0.05513418 0.0791774 0.028843062 0.07201227 0.0549566 0.1583884
0.26101106 0.32534355 0.083143875 0.13629758 -0.025854232 0.095724456 0.020001948 0.3312115
-0.39459965 -0.1701788 -0.7130447 -2.5254462 -0.06345302 -0.11420362 0.07781797 0.11674253
00000000: 1550 8bbd 613a d53d df57 37be 96b1 3b3e
00000010: 6460 cbbc ff4c aa3d 5ca3 58be 32c4 99bc
00000020: 4200 42bf 38dc 09c0 4193 8fbc c826 8cbc
00000030: 7ed2 563e 3b68 e13d ce23 52bb a19d 11be
00000040: 4f68 a2bc 75e3 cdbd 1c7a be3d 0ff0 7a3e
00000050: a2f1 48bd d602 173e ea8e cabd f9ae 9c3c
00000060: 7006 fbbb de10 08be 68bf 8bbe c2a9 c7bd
00000070: f4c1 c03c 2838 073e 1d1d 11be 38ed 9cbd
00000080: 5f10 ad3d d18a 673e 8587 8e3e f761 debc
00000090: 0c41 2c3d 521b aabe 797c 9cbe 7dce a83e
000000a0: d224 75bf a32c 24bf 3e43 2bbd d874 32bf
000000b0: 1b5e 2dbe 5888 e93d 0ece a4be 63de 25bf
000000c0: aec1 f9bc 8350 bf3d c16c 97be d4e2 4abe
000000d0: e23e 04bf 5992 56bf 2da0 5b3e 39ab 1bbf
000000e0: 1250 aabd 56a3 c1be 155d 9a3d 8532 c9be
000000f0: a505 09bd 3e72 3b3d 781b 51bf 245d 9fbe
00000100: 860f 9d3e b8e7 cdbd e9b0 d23e c56f 893d
00000110: ba33 64be 7de7 2bbe 5964 ddbe 345a 5bbe
00000120: b473 0e3e 9192 27be aa30 0fbe a46e 29bd
00000130: 6453 7e3d 6c72 2bbe f751 d4bd 31a1 9abf
00000140: 1511 14be cb8e cb3e de63 ecbd 331f 4ac0
00000150: e11d e2bc 1502 20be c5b7 a1bd ea7c d2bd
00000160: d26e 1bbf b001 11bd 343c bf3d d22a d7bc
00000170: 1cbe a3be 9f55 02be 735e 8fbe 8f5e 14be
00000180: 9270 03bc 4c3a d8be 812d 7ebd f437 c1be
00000190: 4706 883d 8a4f 283e de00 85be fece a7be
000001a0: ac44 7ebe a684 803e b373 fe3d 300f acbe
000001b0: 8c78 e9bf 567a 29be 3838 023e 99ac 063f
000001c0: 12d5 02bf 2243 efbe d59e 1ebf 411b 16c0
000001d0: 9892 1abc 3cf3 93bc 3edf 503d c367 063e
000001e0: 0758 73bd 1397 943d 43b5 783d c4fd 553d
000001f0: be5a 043d 3c68 96bd 598b 1e3e e338 3c3e
00000200: 09d2 cb3d ab64 cb3e 4fd3 6f3e bc7e f63d
00000210: 330a 1b3b 1209 db3c 0e27 00bd 1a32 1e3d
00000220: 3ce7 d63d 0e20 293e b4d9 ee3d 5119 143e
00000230: b68e a33d 83b1 d8bc 5f13 1cbb 720c 1ebd
00000240: dd9b 08be 4fcb 803b f519 a0bb 7cd1 303b
00000250: 9cc1 063e b5b2 903d 9775 bf3d 85b9 8d3d
00000260: 73d8 98bd 3250 ee3e 592a ccbe 40f2 2bbe
00000270: 0a96 45bf b49f 09c0 a78b 8f3d 0424 f03d
00000280: 861b eb3d 3263 063d 7442 f63b 6855 873d
00000290: 8c04 933d 4bc5 653e 2490 5d3e 0f04 253d
000002a0: 1e88 d0bd 4137 30bd 6d73 493d f054 993d
000002b0: 71f5 363e 099f 053e ad19 473e d5e2 513e
000002c0: a8a0 473e bbed 483d b9a7 903d 462b 383d
000002d0: d1c2 2a3e 549b 273e 1cc9 133e 0d4c 70bb
000002e0: cdc0 59bc 89ed bfbc 144d f2be 4644 6abe
000002f0: 3c87 b13d 48c4 d9bc 8ede babe 86c4 683d
00000300: ae53 0bbe 2693 81be 12d8 ebbe e5aa 373e
00000310: 1206 59be 9927 503d 2cb9 c8bd 32df 92be
00000320: e882 c8ba f06e b7bc 7d6b 06bf 305e 39be
00000330: 32f7 b4be af45 47bf a9e8 913d d136 ecbc
00000340: 8f5d 35be 2271 f7be cc03 bfbd 8e46 4dbe
00000350: 6084 9e3d 010c 41bf bec5 1cbc ace5 33bf
00000360: aedb 703d 2b20 ee3d 5d5f 14bf e4f9 03bf
00000370: 4fb9 a1bc cb1a fb3d e601 d6bd 66d3 97bd
00000380: ad30 e5bd 7054 003d 6ee6 22be d82e b33d
00000390: d43a 5c3e 3f75 053e a412 733e 792b 8b3d
000003a0: 0704 55bd 95f2 483d 61d4 613d c327 a23d
000003b0: 4948 ec3c 2b7b 933d 2c1a 613d 9230 223e
000003c0: 3ea3 853e 6e93 a63e 5647 aa3d 9891 0b3e
000003d0: 41cc d3bc 2f0b c43d 20db a33c 8e94 a93e
000003e0: f708 cabe 5a43 2ebe 198a 36bf e9a0 21c0
000003f0: a8f3 81bd 96e3 e9bd 075f 9f3d b516 ef3d

fc1.bias f4 [64]
-0.13809283 -0.11605352 -0.011760358 -0.115524784 0.037521522 -0.036379486 0.07242987 0.07350171
0.006313797 0.2561236 -0.23764418 0.23987058 0.121407785 -0.19445002 -0.1792188 -0.14060745
-0.13176823 0.011394825 -0.15370367 -0.15260684 0.053102523 -0.09036044 0.06726889 -0.07055871
-0.11619906 0.42191353 -0.1293057 -0.120683335 -0.031144464 0.12149637 -0.060633086 -0.08421408
-0.09610292 0.27986047 -0.25954288 0.19652516 0.108738385 0.08820534 0.26470786 -0.01869642
-0.16756326 -0.1424558 -0.17407984 0.27051055 0.13545927 -0.054409392 0.029610932 -0.20695285
0.115006655 0.11772078 0.13182525 -0.047294084 0.18198052 -0.035052154 0.16595519 -0.020062514
-0.091432005 0.015020293 -0.25332338 0.0330605 -0.020469032 -0.017355328 -0.020733707 0.022167098
00000000: 3568 0dbe 78ad edbd 84ae 40bc 4298 ecbd
00000010: 2bb0 193d a802 15bd 1d56 943d 1188 963d
00000020: f8e3 ce3b a222 833e ff58 73be a2a0 753e
00000030: a5a4 f83d e81d 47be 2285 37be 66fb 0fbe
00000040: 40ee 06be 5cb1 3a3c 7f64 1dbe f844 1cbe
00000050: 0882 593d e50e b9bd 46c4 893d 1681 90bd
00000060: c6f9 edbd 0d05 d83e b768 04be d328 f7bd
00000070: ad22 ffbc 17d3 f83d 665a 78bd 6e78 acbd
00000080: 9cd1 c4bd df49 8f3e cee2 84be e43d 493e
00000090: 3bb2 de3d 00a5 b43d ca87 873e 3c29 99bc
000000a0: b495 2bbe efdf 11be fc41 32be 5c80 8a3e
000000b0: d6b5 0a3e 62dc 5ebd a092 f23c 73eb 53be
000000c0: 9c88 eb3d 9817 f13d 33fd 063e 71b7 41bd
000000d0: 1a59 3a3e d992 0fbd 28f0 293e 245a a4bc
000000e0: b440 bbbd ad17 763c 9ab3 81be 726a 073d
000000f0: acae a7bc c32c 8ebc bcd9 a9bc c697 b53c

fc2.weight f4 [64, 64]
-0.19927084 0.18638311 0.32697296 0.10382983 -0.26936734 -0.10585358 -0.3184272 -0.17718485
-0.07933561 0.1776807 0.12771825 -0.25483558 0.18861198 -0.21214192 0.084727325 0.14432943
-0.09481742 -0.024790572 -0.3296769 -0.1998507 0.03207966 -0.13816747 -0.101843834 0.09407331
-0.2946138 0.024667097 0.081114225 0.10980818 -0.20950635 -0.20041505 -0.011856234 0.30944407
-0.07039513 -0.12366664 -0.28274128 -0.10883524 -0.7274682 0.06824592 -0.017815592 0.42706588
0.15152042 0.01442201 0.046494413 -0.0015660606 0.17984718 -0.2344451 -0.08344036 0.08639025
-0.14770652 -0.0656598 -0.12641908 0.10096213 0.09818006 -0.094314724 -0.36181983 -0.004327089
-0.18025833 0.036604635 -0.08068323 0.25253707 -0.11038736 -0.10553459 0.4378063 0.18846966
-0.10547379 0.2643099 -0.066755 0.360622 -0.036806714 -0.08426726 0.20296656 -0.014066949
-0.28323117 -0.081865795 -0.10481019 0.39304975 0.3422663 0.57255566 0.09463994 -0.15112443
-0.67282176 0.26661325 0.012296829 -0.1813661 0.5703285 -0.17134 -0.004680468 0.40341064
-0.28354377 -0.043131076 0.018401287 -0.06397691 0.27131465 -0.6963987 -0.18408458 0.34390765
-0.31515527 -0.18344797 0.1744651 0.10450134 -0.9591099 -0.21339966 -0.091732144 0.10945749
-0.47176784 -0.076529056 0.08315095 -0.18527596 -0.29753855 -0.16551696 0.26909488 0.17013144
0.02922221 -0.116976 0.42817777 -0.3436982 -0.052587513 0.004246369 -0.45561886 0.04188669
-0.010098614 -0.08690108 0.114792004 0.3066071 -0.12737495 -0.2554767 -0.37744248 0.18969277
0.1478668 -0.271821 -0.2954203 -0.29976565 0.28886187 -0.014984228 -0.100317635 -0.025831396
-0.0592601 -0.3688903 -0.17325754 -0.014637322 -0.0132586565 -0.28522718 -0.07038564 -0.025471862
0.24400236 -0.03916756 -0.025744963 0.22104454 0.31120223 0.048799105 -0.10483195 -0.16464168
0.07688636 0.07603541 0.096880406 -0.048150714 0.030972652 0.2823034 -0.1366721 -0.05458302
0.02017343 -0.1933889 0.03133091 0.24365263 0.2494994 -0.30215985 -0.15045863 0.141795
0.021513524 0.094296515 0.016404806 -0.091409616 -0.31739607 -0.043744884 0.14039834 0.07669404
0.09447647 -0.021992752 -0.292999 -0.10550279 0.41450337 -0.052855838 0.20735331 0.20918481
-0.3072305 0.12107771 0.03436023 -0.09826289 0.15295105 -0.0011657025 0.22043191 0.10449135
-0.040563684 0.35767853 -0.5529752 -0.42808387 0.28403726 0.31665716 -0.19289401 0.437138
0.23003648 -0.34236652 0.15585628 -0.2990403 0.09459021 -0.44715077 -0.09205693 0.22043844
0.06665979 0.23219468 -0.14455794 -0.10031137 0.26588255 -0.5118651 -0.056767426 -0.16453955
-0.20799087 -0.13580127 -0.24444997 -0.27337146 -0.042522136 -0.06178374 -0.1666861 -0.35494432
0.08920124 -0.017071042 0.11057747 -0.12364541 -0.828562 0.12076757 -0.038870957 0.040596887
-0.1389967 0.29628226 -0.3124559 0.17756863 -0.59544617 -0.7957469 0.13778204 0.19684547
-0.9585012 -0.22409514 0.16876356 0.21006447 -0.44249585 -0.8567396 0.35854536 -0.23731424
0.38175246 0.15084985 0.20130937 0.18915552 -0.16078764 -0.4664964 -0.17267118 -0.15819508
00000000: a80d 4cbe 37db 3e3e 0069 a73e bca4 d43d
00000010: 84ea 89be c3c9 d8bd e408 a3be f26f 35be
00000020: b57a a2bd eef1 353e 93c8 023e cf79 82be
00000030: 8023 413e bb3b 59be 8585 ad3d 18cb 133e
00000040: a32f c2bd 9915 cbbc 69cb a8be a9a5 4cbe
00000050: f665 033d c67b 0dbe 8093 d0bd 82a9 c03d
00000060: 9fd7 96be a712 ca3c 371f a63d 1ce3 e03d
00000070: d588 56be 9a39 4dbe a640 42bc 746f 9e3e
00000080: 522b 90bd ef44 fdbd 77c3 90be 03e5 debd
00000090: 5b3b 3abf 84c4 8b3d 01f2 91bc 61a8 da3e
000000a0: 2b28 1b3e 4b4a 6c3c ed70 3e3d 4644 cdba
000000b0: dc29 383e 6012 70be c8e2 aabd 5fed b03d
000000c0: 6140 17be a578 86bd 0174 01be 3cc5 ce3d
000000d0: a112 c93d 1428 c1bd 7340 b9be 41ca 8dbb
000000e0: a495 38be beee 153d 403d a5bd 8a4c 813e
000000f0: c512 e2bd 8522 d8bd 2628 e03e 31fe 403e
00000100: a402 d8bd a153 873e d8b6 88bd 72a3 b83e
00000110: a3c2 16bd 5094 acbd 77d6 4f3e 0f79 66bc
00000120: ad03 91be 41a9 a7bd baa6 d6bd d13d c93e
00000130: 873d af3e 0293 123f 96d2 c13d 5dc0 1abe
00000140: 0c3e 2cbf 8881 883e a478 493c 09b8 39be
00000150: 0c01 123f c173 2fbe 9c5e 99bb d78b ce3e
00000160: a62c 91be 36aa 30bd 4cbe 963c 5406 83bd
00000170: c1e9 8a3e 2f47 32bf ab80 3cbe aa14 b03e
00000180: 085c a1be c9d9 3bbe fba6 323e cc04 d63d
00000190: 3a88 75bf 7185 5abe 10de bbbd 402b e03d
000001a0: 8e8b f1be 44bb 9cbd 0c4b aa3d fbb8 3dbe
000001b0: f956 98be 477d 29be cec6 893e f036 2e3e
000001c0: 6b63 ef3c 1d91 efbd 1e3a db3e 36f9 afbe
000001d0: 0166 57bd 2025 8b3b e046 e9be 6191 2b3d
000001e0: a874 25bc 32f9 b1bd 1218 eb3d 9bfb 9c3e
000001f0: 946e 02be d8cd 82be 2440 c1be d23e 423e
00000200: 656a 173e 1f2c 8bbe 5441 97be e27a 99be
00000210: b4e5 933e 6880 75bc 5573 cdbd 5d9c d3bc
00000220: b8ba 72bd 30df bcbe 6d6a 31be 61d1 6fbc
00000230: d63a 59bc 4c09 92be 5926 90bd 5eaa d0bc
00000240: c1db 793e 2a6e 20bd 1ae7 d2bc 8059 623e
00000250: e655 9f3e 92e1 473d 22b2 d6bd d497 28be
00000260: 9976 9d3d 74b8 9b3d 3c69 c63d af39 45bd
00000270: 5cba fd3c 128a 903e c5f3 0bbe 7292 5fbd
00000280: c042 a53c bd07 46be d754 003d 1380 793e
00000290: c57c 7f3e b2b4 9abe d411 1abe b532 113e
000002a0: 213d b03c 881e c13d 5f63 863c f734 bbbd
000002b0: bd81 a2be d62d 33bd 95c4 0f3e c411 9d3d
000002c0: e17c c13d 252a b4bc f703 96be d911 d8bd
000002d0: c939 d43e 5d7f 58bd 6d54 543e 8b34 563e
000002e0: 514d 9dbe 97f7 f73d 50bd 0c3d 0e3e c9bd
000002f0: 339f 1c3e 7cca 98ba e7b8 613e 90ff d53d
00000300: 1b26 26bd a421 b73e c88f 0dbf cf2d dbbe
00000310: 556d 913e e320 a23e 0286 45be 8dd0 df3e
00000320: af8e 6b3e aa4a afbe ca98 1f3e cf1b 99be
00000330: 83b8 c13d f2f0 e4be 5888 bcbd 9dba 613e
00000340: ee84 883d 71c4 6d3e ff06 14be 0c70 cdbd
00000350: c221 883e 9709 03bf f684 68bd 0e7d 28be
00000360: 8ffb 54be 7d0f 0bbe 1851 7abe 58f7 8bbe
00000370: b12b 2ebd f210 7dbd c3af 2abe 43bb b5be
00000380: 24af b63d 92d8 8bbc 7176 e23d ce39 fdbd
00000390: a41c 54bf fd54 f73d 2737 1fbd ec48 263d
000003a0: 2755 0ebe 4fb2 973e 38fa 9fbe 8dd4 353e
000003b0: 296f 18bf 12b6 4bbf bc16 0d3e dc91 493e
000003c0: 5660 75bf 3279 65be 5bd0 2c3e 241b 573e
000003d0: d18e e2be 4953 5bbf 4293 b73e 8102 73be
000003e0: 0f75 c33e 6278 1a3e 0b24 4e3e fcb1 413e
000003f0: 84a5 24be 9ed8 eebe b7d0 30be e4fd 21be

fc2.bias f4 [64]
0.07781967 -0.08984159 0.2868513 -0.12771633 -0.019976612 -0.11097534 0.39586833 0.3078038
0.19854611 -0.18794195 0.08014222 -0.12053189 -0.31420228 -0.10859015 0.06793892 -0.19308296
-0.20639627 0.14247368 0.025936123 0.022291109 0.73435277 -0.25143152 0.10107944 0.092284806
0.10220486 0.052378256 -0.12450402 0.17005746 0.21988626 0.16667515 0.43791184 -0.07039529
0.9406925 -0.28704733 -0.29442155 0.15764065 0.21740045 -0.13245371 -0.19026098 -0.20913835
-0.04953755 -0.1516419 0.23433767 -0.09010629 -0.06614851 0.6622068 -0.29256076 -0.13168857
0.13957594 -0.17027192 -0.21953322 0.8786116 0.20593794 -0.023029288 0.04510044 -0.051290262
0.0744361 0.17723835 0.18490055 -0.22712402 -0.03434008 0.109142944 -0.0024257216 0.19058731
00000000: eb5f 9f3d defe b7bd 2cde 923e 12c8 02be
00000010: fea5 a3bc 0a47 e3bd 41af ca3e 7698 9d3e
00000020: ac4f 4b3e db73 40be 9b21 a43d 6cd9 f6bd
00000030: 1fdf a0be 8364 debd 8f23 8b3d 8ab7 45be
00000040: 8b59 53be 9fe4 113e fe77 d43c d89b b63c
00000050: 8bfe 3b3f a2bb 80be bd02 cf3d d1ff bc3d
00000060: c850 d13d 958a 563d f7fb febd 8b23 2e3e
00000070: dd29 613e e4ac 2a3e fb35 e03e 682b 90bd
00000080: 39d1 703f def7 92be 6cbe 96be 8d6c 213e
00000090: 399e 5e3e f2a1 07be c6d3 42be 5d28 56be
000000a0: e3e7 4abd 0448 1bbe 37f6 6f3e a689 b8bd
000000b0: df78 87bd 6386 293f 86ca 95be 5ed9 06be
000000c0: ffec 0e3e c35b 2ebe 51cd 60be b1ec 603f
000000d0: 65e1 523e eba7 bcbc 3dbb 383d bd15 52bd
000000e0: f471 983d f87d 353e 9256 3d3e 3393 68be
000000f0: 2fa8 0cbd 5686 df3d dbf8 1ebb 5229 433e

fc3.weight f4 [4, 64]
0.12866354 -0.22992066 0.21117269 -0.43303296 -0.028303823 0.23715204 0.09828294 0.25007862
0.08676448 -0.40344653 0.14984915 0.13095438 -0.24168622 -0.23025048 0.05360359 -0.5089919
-0.050603263 0.113538995 0.47190198 0.44549197 0.2616866 0.12813301 -0.020198926 0.16512501
0.16636452 0.15073991 -0.113641694 0.20496123 0.25871453 0.092533335 0.24498954 0.18425228
0.26472917 -0.18293749 -0.33856475 0.022066062 0.024228137 -0.042346712 -0.062270157 0.10684994
0.09927455 -0.23262088 0.14274135 -0.21522555 -0.13744465 0.18138985 -0.19450746 -0.06345555
0.177972 -0.08112109 -0.08790245 0.33350164 0.059568357 0.10135283 0.012139112 -0.6994726
-0.061422914 0.119412445 0.015961243 -0.045818694 -0.018450318 0.07992299 0.055411093 0.33147842
0.023642445 -0.07225139 0.2462324 -0.4198087 -0.031889394 0.3277576 0.05232211 0.29968652
0.18437745 -0.0944292 0.22826433 -0.071721315 -0.15930757 0.36700192 0.0369013 0.017249579
-0.20718701 0.14174339 0.29377627 0.33325016 0.26897013 -0.19986424 0.030456407 0.071650654
0.25390455 0.14772522 -0.11987602 0.18750659 0.13287854 -0.23262298 0.2649108 0.20646638
0.29592922 0.021465844 -0.19537048 -0.121607 0.030307911 -0.056190446 0.04040582 0.04000778
0.25704038 -0.15582596 0.16596317 -0.097681485 0.08358698 0.17312102 -0.21598156 0.027001347
-0.054903973 -0.043480523 -0.27637368 0.2838412 0.03364174 0.0951141 0.034362573 -0.07086951
0.1478754 0.269005 0.08644626 -0.37073165 0.1430329 0.17178181 0.17840077 0.19252586
0.12210075 -0.28178683 0.06737589 -0.30044135 -0.09658653 0.15703969 0.23036104 0.21236506
-0.028988764 -0.17330782 0.06541068 0.67289925 -0.20744379 0.3252851 0.22908059 -0.37011945
-0.11928545 0.17366378 0.15258984 0.092256755 0.1713251 -0.2521181 0.11776382 0.07898846
0.4001631 0.2838749 -0.78305465 0.113641664 -0.110101745 0.21176244 0.27298537 0.036006708
0.3134067 -0.27021632 -0.23105967 -0.18291599 0.11643333 0.6095164 -0.3478924 0.20983669
0.22324285 -0.27995834 -0.0546725 -0.39598328 0.1598892 0.2958487 -0.22571202 0.19781065
-0.2939613 -0.042052947 -0.07775691 0.27387103 0.105916224 0.08573573 -0.20571406 -0.51376337
0.1855282 0.46153936 -0.41220972 -0.26346534 -0.24654433 0.27746028 0.23530127 0.15101495
0.19728534 -0.20027979 -0.008924881 -0.026840983 0.17581517 0.3570581 0.03355547 0.20194726
0.085952766 -0.3102824 0.40090722 0.020970352 0.0020969207 0.44527733 0.025003333 0.23936874
-0.17761432 -0.02686606 0.03924755 0.43300816 0.22987291 -0.4989746 0.21335544 0.12044933
0.30881807 0.120069146 0.1448883 0.16307352 0.114272945 0.16925497 0.20342359 0.16849288
0.29205778 0.06825064 -0.029954748 -0.17669833 0.13543908 -0.022583436 -0.15645409 -0.26099595
-0.3706618 0.12248647 0.35393137 -0.059774403 -0.10262051 0.2148827 -0.12122205 0.08270589
-0.38102904 0.2854251 0.047949377 0.30925283 -0.10866134 0.19406202 0.47382563 -0.2552171
-0.048788704 0.59545743 -0.055605434 -0.41036132 0.4804443 -0.035111412 -0.003599816 0.2617499
00000000: 60c0 033e 5270 6bbe a73d 583e 7fb6 ddbe
00000010: 6bdd e7bc fcd7 723e 9148 c93d 4e0a 803e
00000020: 93b1 b13d 8b90 cebe 0e72 193e e818 063e
00000030: 987c 77be c8c6 6bbe 708f 5b3d 4b4d 02bf
00000040: 5e45 4fbd 2287 e83d 239d f13e 8617 e43e
00000050: c9fb 853e 4d35 033e 3878 a5bc 8816 293e
00000060: 765b 2a3e 905b 1a3e fabc e8bd 5be1 513e
00000070: 3b76 843e 1e82 bd3d 8ade 7a3e a1ac 3c3e
00000080: 958a 873e f753 3bbe 5c58 adbe e3c3 b43c
00000090: 167a c63c bf73 2dbd fe0e 7fbd 24d4 da3d
000000a0: 7550 cb3d 2b34 6ebe ca2a 123e 1664 5cbe
000000b0: 4abe 0cbe 43be 393e f72c 47be fcf4 81bd
000000c0: 4b3e 363e d022 a6bd 3306 b4bd bac0 aa3e
000000d0: f3fd 733d 1392 cf3d 20e3 463c a310 33bf
000000e0: 9896 7bbd 838e f43d 27c1 823c 62ac 3bbd
000000f0: 1f25 97bc aaae a33d bef6 623d 8ab7 a93e
00000100: cdad c13c 89f8 93bd 5924 7c3e 2af1 d6be
00000110: 749e 02bd d8cf a73e b54f 563d 8370 993e
00000120: 71cd 3c3e 1964 c1bd 20be 693e a0e2 92bd
00000130: 8621 23be ade7 bb3e d125 173d fd4e 8d3c
00000140: d528 54be 2e25 113e d869 963e c49f aa3e
00000150: 74b6 893e 36a9 4cbe b77f f93c 94bd 923d
00000160: c7ff 813e 4845 173e 8f81 f5bd ba01 403e
00000170: 5011 083e b834 6ebe 63a2 873e ec6b 533e
00000180: 0984 973e 23d9 af3c 330f 48be 170d f9bd
00000190: 4c48 f83c f427 66bd 9380 253d 33df 233d
000001a0: cc9a 833e d790 1fbe 40f2 293e 3b0d c8bd
000001b0: a72f ab3d a346 313e 452a 5dbe ee31 dd3c
000001c0: fde2 60bd a218 32bd da80 8dbe a253 913e
000001d0: eccb 093d 2ecb c23d c5bf 0c3d 0924 91bd
000001e0: a66c 173e 06bb 893e bd0a b13d 8ad0 bdbe
000001f0: 3777 123e 92e7 2f3e b1ae 363e 8025 453e
00000200: f50f fa3d 5d46 90be 5ffc 893d 73d3 99be
00000210: 29cf c5bd 03cf 203e c4e3 6b3e 3a76 593e
00000220: d879 edbc 9b77 31be 09f6 853d 2043 2c3f
00000230: 256c 54be c58b a63e 1a94 6a3e 4c80 bdbe
00000240: ee4b f4bd ebd4 313e 8340 1c3e 1cf1 bc3d
00000250: d96f 2f3e a015 81be 282e f13d b4c4 a13d
00000260: 2ee2 cc3e 0d58 913e 4576 48bf f6bc e83d
00000270: 067d e1bd 41d8 583e bdc4 8b3e c57b 133d
00000280: d876 a03e cb59 8abe e89a 6cbe 544e 3bbe
00000290: 9974 ee3d 4409 1c3f f41e b2be 6edf 563e
000002a0: c699 643e b356 8fbe 45f0 5fbd 52be cabe
000002b0: ffb9 233e 7b79 973e 0d21 67be e08e 4a3e
000002c0: 1882 96be b63f 2cbd 043f 9fbd d338 8c3e
000002d0: 9bea d83d 3796 af3d b5a6 52be ff85 03bf
000002e0: 1bfb 3d3e e34e ec3e 270d d3be eee4 86be
000002f0: 1e76 7cbe 460f 8e3e d1f2 703e aaa3 1a3e
00000300: 2b05 4a3e 2516 4dbe aa39 12bc 9fe1 dbbc
00000310: e408 343e 52d0 b63e 7671 093d 43cb 4e3e
00000320: 0108 b03d 56dd 9ebe b643 cd3e 04ca ab3c
00000330: 7e6c 093b 64fb e33e cad3 cc3c 141d 753e
00000340: 87e0 35be 3616 dcbc 0ac2 203d 3fb3 dd3e
00000350: ce63 6b3e 9979 ffbe d979 5a3e 23ae f63d
00000360: 671d 9e3e d0e6 f53d 995d 143e bffc 263e
00000370: ef07 ea3d 2d51 2d3e 464e 503e 6689 2c3e
00000380: 9988 953e fec6 8b3d a963 f5bc 68f0 34be
00000390: 8bb0 0a3e e600 b9bc 8035 20be 43a1 85be
000003a0: 62c7 bdbe 30da fa3d 7e36 b53e 01d6 74bd
000003b0: b42a d2bd 360a 5c3e 4443 f8bd b561 a93d
000003c0: 3d16 c3be 3d23 923e 9166 443d 6356 9e3e
000003d0: d689 debd 32b8 463e 4699 f23e d1ab 82be
000003e0: aad6 47bd e66f 183f 86c2 63bd e11a d2be
000003f0: ccfc f53e fcd0 0fbd e4ea 6bbb 1504 863e

fc3.bias f4 [4]
0.65544486 0.55316377 0.61687565 0.5921525
00000000: 3ccb 273f 249c 0d3f 90eb 1d3f 4e97 173f
