mlruns/0/827383be6933477195adb150f1b217b7/artifacts/checkpoint.pth (torch_old, 28447 bytes, 6 tensors)

fc1.weight f4 [64, 37]
0	0x3e0d0b0b	0.13773744
1	0xbdc0cd0e	-0.09414111
2	0xbc2dc8f7	-0.010606996
3	0x3de5098e	0.11183463
4	0xbde41291	-0.11136354
5	0x3d2a3c76	0.041561566
6	0x3d928a08	0.071552336
7	0xbe1c02e3	-0.15235476
8	0x3d178717	0.036994066
9	0xbd397050	-0.045273125
10	0x3e311cf1	0.17296197
11	0x3b18cf6b	0.002331699
12	0x3e0b1288	0.13581288
13	0x3d945b57	0.07243984
14	0x3d93bedf	0.0721414
15	0xbe02fbf4	-0.12791425
16	0x3e10aca9	0.14128365
17	0xbe05b15a	-0.13055936
18	0x3da8b83f	0.08238267
19	0x3db043d3	0.086066864
20	0x3c5cdb6b	0.013480048
21	0x3e18160e	0.14852163
22	0xbd35398b	-0.04424433
23	0xbd99c6e4	-0.075086385
24	0x3d783b37	0.060603347
25	0xbc9472f6	-0.018121224
26	0xbe176b4d	-0.14787026
27	0xbe049636	-0.12947926
28	0xbdc15ff5	-0.094421305
29	0x3d59eec3	0.053206217
30	0xbdc04a57	-0.09389179
31	0x3db2ebf2	0.08736409
32	0x3e12fb59	0.14353694
33	0xbd8dd4f9	-0.06925387
34	0x3dd8012b	0.10547098
35	0x3c7b1677	0.01532518
36	0x3de5e758	0.11225766
37	0xbb98988c	-0.004656857
38	0xbdcc6e99	-0.09982032
39	0x3df50595	0.11963955
40	0xbe09650a	-0.1341745
41	0x3d7cd7f4	0.061729386
42	0x3d947ae5	0.07250003
43	0xbdfb48b9	-0.1226973
44	0xbdea7908	-0.11448866
45	0x3de2a5ee	0.11066805
46	0xbe1a5d55	-0.15074666
47	0xbdeea130	-0.11651838
48	0x3d8cbb56	0.06871669
49	0xbd55b2d2	-0.05217249
50	0x3ddffaba	0.10936494
51	0xbccaa167	-0.024735166
52	0x3c7b788a	0.015348563
53	0xbd3b22c9	-0.04568747
54	0x3cae4832	0.02127466
55	0xbe1b138b	-0.15144174
56	0xbde6159e	-0.11234592
57	0xbdf1ba17	-0.11803072
58	0x3cd37d7c	0.025816672
59	0xbc85d843	-0.016338473
60	0x3e121103	0.14264302
61	0x3c7678a8	0.015043415
62	0x3e08b07e	0.13348576
63	0xbd942110	-0.07232869
64	0x3d7793b2	0.060443588
65	0xbd2c190b	-0.04201607
66	0x3e3c9dba	0.18419543
67	0x3d364a4a	0.04450444
68	0xbba13c66	-0.00492053
69	0xbdf6e604	-0.12055591
70	0xbdca9031	-0.098907836
71	0xbd9c81f3	-0.07641973
72	0x3d9d62ec	0.076848835
73	0xbded2d17	-0.11580866
74	0xbd97b955	-0.07408396
75	0xbe0f1498	-0.139727
76	0x3e1ddbdb	0.154159
77	0x3e29c74c	0.16579932
78	0xbdce36e9	-0.10069067
79	0x3a867bfc	0.0010260339
80	0xbd177b75	-0.036982972
81	0x3cf69ec1	0.030104997
82	0xbdecdc66	-0.11565475
83	0xbde18532	-0.11011733
84	0xbd0c0c7e	-0.0341916
85	0xbdefd7f0	-0.11711109
86	0x3c5048a9	0.012712636
87	0xbd65014d	-0.055909444
88	0xbe0b79ef	-0.13620733
89	0xbca91400	-0.02063942
90	0xbdb778b7	-0.089585714
91	0x3d84de0f	0.06487667
92	0x3e0864e5	0.13319738
93	0xbdd5afe0	-0.10433936
94	0xbd67ba4c	-0.05657415
95	0xbd085e2b	-0.03329293
96	0xbe185063	-0.14874415
97	0xbe0a0b9c	-0.13480991
98	0x3d73c984	0.059518352
99	0xbc886ea1	-0.016654314
100	0xbdca157c	-0.09867379
101	0x3e2c491a	0.16824761
102	0xbe3111de	-0.17291972
103	0x3e10bea3	0.14135222
104	0xbe26b0d2	-0.16278389
105	0xbdcc38dc	-0.099717826
106	0x3db0750b	0.08616074
107	0xbd3a4dd2	-0.04548437
108	0xbd58e5e8	-0.05295363
109	0xbdbc4754	-0.09193292
110	0x3d4155c2	0.047200926
111	0x3e245f32	0.16051939
112	0x3d1f6d64	0.038922682
113	0x3e2279f1	0.1586683
114	0xbdced72a	-0.10099633
115	0xbe02cd5b	-0.1277365
116	0xbdcbb1ba	-0.09946008
117	0x3ca28a04	0.019841202
118	0x3cec419f	0.028839884
119	0xbc2fa1b0	-0.010719702
120	0x3d1c95c4	0.038228765
121	0xbdb19991	-0.086718686
122	0xbc98da96	-0.018658917
123	0x3cbfea83	0.023427254
124	0x3d6f0786	0.058356784
125	0xbdc8ffb8	-0.098143995
126	0x3e118a59	0.14212932
127	0x3b040137	0.0020142326
128	0x3d9fcefb	0.0780315
129	0x3dfc368f	0.12315094
130	0x3de87a7f	0.11351489
131	0x3d894b66	0.06703834
132	0xbcdd19c7	-0.02698983
133	0xbde0398f	-0.109484784
134	0x3d788458	0.060673088
135	0x3e33c5e0	0.17555952
136	0x3daa858a	0.08326252
137	0x3c53a4fd	0.012917754
138	0x3e36f9d4	0.1786874
139	0xbd4739e3	-0.04863919
140	0xbd553ea2	-0.052061684
141	0xbdb334d1	-0.08750308
142	0xbd416bf9	-0.04722211
143	0x3cc31a2a	0.023816187
144	0xbe3b55b9	-0.1829442
145	0x3e1364a5	0.14393862
146	0xbe4c37b2	-0.19943121
147	0xbd522cea	-0.051312365
148	0x3da21a89	0.079152174
149	0xba1818b3	-0.00058020203
150	0xbd2f0860	-0.042732596
151	0xbe0fae2b	-0.14031284
152	0x3df28c3e	0.11843155
153	0x3e3622a2	0.17786649
154	0x3d5f6a46	0.05454471
155	0xbdacca41	-0.08437014
156	0xbd4c7dbe	-0.049924605
157	0xbdf9882a	-0.12184174
158	0x3da904eb	0.08252891
159	0x3d6643ce	0.056217007
160	0xbd2f0706	-0.042731307
161	0xbdc36b02	-0.095418945
162	0x3d9d540f	0.076820485
163	0x3c567736	0.013089946
164	0x3d767c4d	0.060177136
165	0x3cc43a37	0.02395354
166	0x3dd90478	0.105965555
167	0xbd8330ca	-0.0640579
168	0xbe068f88	-0.1314069
169	0x3c933bfe	0.017972942
170	0xbe1c7be4	-0.15281636
171	0xbdf0154b	-0.11722811
172	0x3de80517	0.11329096
173	0x3c5c6629	0.013452091
174	0x3dd2c5f2	0.10291661
175	0x3d8cbc01	0.068717964
176	0x3e0ab948	0.13547242
177	0x3cb1cbb0	0.021703571
178	0x3e376111	0.17908122
179	0xbd98ba45	-0.07457403
180	0xbdc618a2	-0.09672667
181	0xbd108ebc	-0.035292372
182	0xbcf74504	-0.030184276
183	0x3de2ab9c	0.11067888
184	0xbbf8d386	-0.007593575
185	0x3c084b26	0.008318698
186	0xbda4f604	-0.08054736
187	0xbe15d98d	-0.1463377
188	0x3d2becbf	0.041973826
189	0xbdc9a4f2	-0.09845914
190	0x3e0a6a91	0.13517214
191	0x3e2122f0	0.15735984
192	0xbe197db7	-0.14989363
193	0xbd8b5f7e	-0.06805323
194	0xbdda8c78	-0.106713235
195	0x3e12c747	0.14333831
196	0xbd9ee0ec	-0.07757744
197	0x3e122a5c	0.14273971
198	0x3e04ba45	0.12961681
199	0xbcf80c04	-0.030279167
200	0xbd9c58f7	-0.07634156
201	0x3e0b85a8	0.13625205
202	0xbd0370e5	-0.032090086
203	0xbd14d87a	-0.03633926
204	0x3ca1c47e	0.019747015
205	0xbe2bd9ed	-0.16782351
206	0xbbb235fa	-0.0054385634
207	0x3da20f7f	0.07913112
208	0xbdc1b8a1	-0.09459043
209	0xbcb51ec7	-0.022109402
210	0xbdf44a10	-0.11928189
211	0xbb2f88ca	-0.0026784413
212	0x3dd66cf5	0.10470001
213	0xbc91d419	-0.017801331
214	0xbdfc1b90	-0.12309945
215	0x3c8429cc	0.016133212
216	0xbe03dc88	-0.12877095
217	0x3e0bd0b0	0.13653827
218	0x3d692706	0.05692198
219	0x3bc55c31	0.006022953
220	0xbe0f763d	-0.14009948
221	0x3e1a4516	0.15065417
222	0xbe10a6f0	-0.14126182
223	0x3c4b3144	0.012401883
224	0xbde6e254	-0.112736374
225	0xbdba13e0	-0.09085822
226	0x3d8666d0	0.06562579
227	0x3e087b35	0.1332825
228	0x3dd230a5	0.102631845
229	0x3e238a33	0.15970688
230	0xbc8207b6	-0.015872817
231	0xbdbc6cf4	-0.09200469
232	0x3d92b723	0.07163837
233	0xbd03b534	-0.03215523
234	0x3d26d19d	0.040727247
235	0xbc95a51b	-0.018267205
236	0xbe07f001	-0.13275148
237	0xbccdd390	-0.025125295
238	0x3e1c3920	0.15256166
239	0x3de02751	0.10944999
240	0x3e130101	0.14355852
241	0x3d693e45	0.05694415
242	0x3e22c994	0.15897208
243	0x3d2431c2	0.040086515
244	0x3c9c911a	0.019112159
245	0x3c5b9f97	0.013404748
246	0xbd58a48d	-0.052891303
247	0x3dffa173	0.12481966
248	0xbdb04cf5	-0.086084284
249	0xbc945b6d	-0.018110001
250	0x3db0b884	0.086289436
251	0x3c3771f7	0.011196605
252	0xbd95925c	-0.073033065
253	0xbc22f57b	-0.009946222
254	0x3dbbe4af	0.09174477
255	0xbd6fe998	-0.05857238

fc1.bias f4 [64]
0	0xbd57ebf7	-0.052715268
1	0xbdf9b069	-0.12191851
2	0xbde670e4	-0.11252001
3	0xbe0bfbc5	-0.13670261
4	0xbdaffcec	-0.08593163
5	0x3de8e16f	0.11371123
6	0x3dfee2d0	0.12445605
7	0xbb9fcec5	-0.004876944
8	0xbd6b6d5a	-0.057477333
9	0x3e15fcc5	0.14647205
10	0xbb563f89	-0.0032691678
11	0x3e0aec06	0.13566598
12	0xba89dda2	-0.0010518322
13	0xbe06b30a	-0.13154235
14	0xbe3c9802	-0.18417361
15	0xbdfb9d2f	-0.1228584
16	0xbe1db4c3	-0.15400986
17	0x3d61f416	0.05516442
18	0xbd13b1d7	-0.036058273
19	0xbe0c4ca4	-0.13701111
20	0xbd31cbc7	-0.043407228
21	0x3d106c08	0.035259277
22	0x3d9dab61	0.076987036
23	0xbd8970ad	-0.06710944
24	0xbd2202ca	-0.03955344
25	0x3e00ca2e	0.12577125
26	0xbdfca01a	-0.123352244
27	0xbdc0fb57	-0.09422939
28	0xbd3872de	-0.04503142
29	0x3d879e8b	0.066220365
30	0xbdc4b553	-0.09604897
31	0xbc8e85b6	-0.017397743
32	0x3b3c4621	0.0028728324
33	0xbd20c77f	-0.039252754
34	0xbe219443	-0.15779214
35	0x3e00d710	0.1258204
36	0x3cecf9c3	0.02892769
37	0x3d468b8d	0.04847293
38	0x3e18bf51	0.14916731
39	0xbd21f493	-0.039539885
40	0xbdbf7c34	-0.09349862
41	0xbdd716be	-0.105023846
42	0xbcd8042b	-0.026369175
43	0x3da9d695	0.082928814
44	0x3e14dfa4	0.14538437
45	0xbd9cffc5	-0.07665972
46	0x3d840164	0.06445578
47	0xbc056626	-0.00814203
48	0x3e14af5c	0.1452002
49	0x3d9a3862	0.075302854
50	0x3e0fc1a8	0.14038718
51	0x3dd89c59	0.10576696
52	0xbd8ac6ea	-0.06776221
53	0xbd20792d	-0.039178062
54	0x3dd41b58	0.10356778
55	0x3ddcc8fd	0.10780523
56	0xbdd5ed77	-0.104456834
57	0xbd2b3ca3	-0.041805875
58	0xbdf230be	-0.11825703
59	0xbd197716	-0.037467085
60	0x3d6725d3	0.056432556
61	0xba3831ab	-0.0007026444
62	0xbe03bad6	-0.12864241
63	0xbdb4fe95	-0.0883762

fc2.weight f4 [64, 64]
0	0xbd542dec	-0.051801607
1	0x3c827030	0.015922636
2	0xbdc34536	-0.09534685
3	0xbd302804	-0.043006912
4	0xbd8e27e6	-0.06941204
5	0xbd1bffbc	-0.038085684
6	0x3daf67d8	0.085647285
7	0xbda96226	-0.082706735
8	0xbbeb9b60	-0.007190153
9	0x3c986448	0.018602505
10	0xbda2095c	-0.079119414
11	0x3c69cc25	0.014269863
12	0xbcdaad40	-0.02669394
13	0x3dcd0510	0.10010731
14	0x3d5a85f8	0.05335042
15	0xbdb394c0	-0.08768606
16	0xbddcf784	-0.10789397
17	0x3db97c33	0.09056892
18	0xbc27c9e0	-0.010241002
19	0x3c08c818	0.008348487
20	0x3dcd55f4	0.1002616
21	0x3cd6fce5	0.026243636
22	0xbd5122a6	-0.051058434
23	0xbd62e8e4	-0.055397883
24	0x3d6792a8	0.056536347
25	0x3c7c1580	0.015385985
26	0xbdd02cdc	-0.10164806
27	0x3c1e8a52	0.009676533
28	0x3da1f4aa	0.07907994
29	0x3d368880	0.04456377
30	0xbdbd1b52	-0.092337266
31	0x3cb2a5d7	0.021807594
32	0xbdc68cd8	-0.096948326
33	0xbd26d9fc	-0.04073523
34	0xbd31461c	-0.043279752
35	0x3d17b5e4	0.0370387
36	0xbddb262a	-0.107006386
37	0xbdcd4ab6	-0.100240156
38	0x3c9d1a51	0.019177588
39	0x3d4a4538	0.04938242
40	0x3d62b8ac	0.055351898
41	0xbc956010	-0.018234283
42	0x3d76e064	0.06027259
43	0x3d15bf49	0.036559377
44	0xbc137050	-0.008998945
45	0xbd0edb77	-0.034877267
46	0xbd9ccf98	-0.07656783
47	0xbdb186b0	-0.08668268
48	0xbda6ad3b	-0.0813851
49	0xbde4996e	-0.11162077
50	0xbdf35de0	-0.118831396
51	0x3cbb7c80	0.022886515
52	0x3ddde792	0.10835184
53	0xbdd3606c	-0.103211254
54	0xbdbb79a8	-0.091540635
55	0x3df58aac	0.1198934
56	0xbdfae7bc	-0.12251231
57	0xbc40d810	-0.011770263
58	0xbce15588	-0.027506605
59	0xbc8e69c0	-0.01738441
60	0x3da8042a	0.08203919
61	0xbde74528	-0.112924874
62	0x3d508164	0.050904647
63	0x3dca2d48	0.09871918
64	0x3ddd48ac	0.10804877
65	0x3dd45d06	0.10369305
66	0xbd3a4441	-0.04547525
67	0x3d593aaa	0.053034462
68	0x3d4a5ae9	0.049403105
69	0xbd80cc20	-0.06288934
70	0x3bff8e58	0.007798951
71	0x3c160518	0.009156488
72	0xbd67d1e0	-0.056596637
73	0x3dc05b76	0.09392445
74	0x3d9037a5	0.07041863
75	0x3d811749	0.063032694
76	0x3d969b86	0.073538825
77	0x3dcfb935	0.10142747
78	0xbc0ee9db	-0.008722748
79	0xbde3b69d	-0.11118815
80	0xbdd323e2	-0.103095785
81	0xbd48a388	-0.04898408
82	0xbb85c4d7	-0.004082303
83	0xbdb3e9dd	-0.0878484
84	0xbcdc4bf1	-0.02689168
85	0xbd61864e	-0.055059724
86	0xbde43a08	-0.11143881
87	0xbdc87d7e	-0.09789561
88	0xbb882b7c	-0.0041555744
89	0xbdf4f746	-0.11961226
90	0x3dcc37a7	0.09971552
91	0xbdb6ea65	-0.08931426
92	0x3dc0f8e5	0.09422473
93	0x3cd1f806	0.025630962
94	0xbd7dff35	-0.062010963
95	0x3de864e6	0.1134737
96	0x3db54754	0.088514954
97	0x3d5eafcb	0.054366868
98	0x3bbf7453	0.0058427243
99	0xbdba40df	-0.090944044
100	0xbca61598	-0.020273969
101	0x3bf0847b	0.0073400117
102	0x3c16aa2d	0.0091958465
103	0x3da7be93	0.08190646
104	0xbd88cf78	-0.066801965
105	0x3d9b8dc5	0.075954
106	0x3dd5d5b6	0.10441153
107	0xbdd4bedb	-0.10387965
108	0xbd179080	-0.03700304
109	0xbd46e272	-0.0485558
110	0x3d818f1b	0.06326123
111	0xbdd25a19	-0.10271091
112	0xbdbcd28e	-0.092198476
113	0xbcb55b33	-0.022138214
114	0x3d04ace1	0.032391433
115	0xbcb5d852	-0.022197876
116	0xbdc9a3de	-0.09845708
117	0xbdc2a17b	-0.09503456
118	0xbdf8984f	-0.121384256
119	0xbd054d8f	-0.03254467
120	0x3d35a1f6	0.04434391
121	0x3d915f31	0.070982344
122	0xbdbebb34	-0.0931305
123	0xbdeacea5	-0.114651956
124	0xbd47f66a	-0.048818983
125	0xbdb83a7d	-0.08995531
126	0xbdd61e2c	-0.104549736
127	0x3ce565cd	0.028002644
128	0x3dec9906	0.115526244
129	0xbd83ef1a	-0.064420894
130	0xbd928bbc	-0.071555585
131	0xbb620338	-0.0034486782
132	0x3e06b91f	0.13156556
133	0x3da1d040	0.07901049
134	0x3d183921	0.037163857
135	0xbdc0f780	-0.09422207
136	0x3d315cf1	0.043301526
137	0xbcdfe838	-0.02733241
138	0xbd397a1e	-0.045282476
139	0x3df7b639	0.12095303
140	0xbdb333be	-0.087501034
141	0x3b091e0b	0.0020922448
142	0xbdd8feec	-0.105954975
143	0x3db20454	0.08692232
144	0xbd57a254	-0.052645043
145	0x3dfa78ae	0.12230049
146	0x3d10d715	0.03536137
147	0x3e02a35e	0.12757632
148	0xbd61a42c	-0.055088207
149	0xbd433420	-0.047657132
150	0x3d14e2fe	0.03634929
151	0x3df6c08d	0.12048445
152	0x3d9446a9	0.0724004
153	0x3df60a2e	0.1201366
154	0x3dc9cdd7	0.09853714
155	0x3db006a9	0.0859502
156	0x3dcce351	0.10004295
157	0x3dd21884	0.10258582
158	0x3da8e121	0.08246065
159	0x3dbb022c	0.091312736
160	0xbdcd8a8d	-0.10036192
161	0xbde73446	-0.11289267
162	0xbdc990a4	-0.09842041
163	0x3dbbfb31	0.0917877
164	0x3dac24c4	0.0840545
165	0xbdc92447	-0.098213725
166	0xbd55004e	-0.052002244
167	0x3dadbbeb	0.08483108
168	0xbcc9d645	-0.024638304
169	0xbdb019ab	-0.08598646
170	0x3d473f8c	0.048644587
171	0xbd9e744a	-0.07737024
172	0x3becf72e	0.0072316146
173	0xbd1eeaf3	-0.038798284
174	0x3d745d67	0.059659388
175	0x3cc3229f	0.02382022
176	0xbd80531f	-0.06265854
177	0x3d706187	0.05868676
178	0x3c11c825	0.008897816
179	0xbdd16c6e	-0.102257594
180	0x3d96c3e3	0.07361581
181	0x3d453871	0.04814953
182	0x3d4feed4	0.050764874
183	0x3d17b8dd	0.037041534
184	0xbd49a2bf	-0.049227472
185	0x3dc52579	0.09626288
186	0xbdc209a9	-0.09474499
187	0xbd864b5e	-0.06557344
188	0x3d12b9db	0.035821777
189	0xbd0cf24e	-0.034410767
190	0x3d9a92eb	0.07547554
191	0x3e0082d5	0.12549908
192	0xbd2eab7d	-0.042644013
193	0x3da2332a	0.07919915
194	0x3d15cc69	0.036571894
195	0x3ca02c88	0.019552484
196	0xbdc492a4	-0.09598282
197	0xbe03f3ed	-0.12886019
198	0xbe022dab	-0.12712733
199	0xbda9f58e	-0.08298789
200	0x3cb242b3	0.02176032
201	0x3d90cbd8	0.0707013
202	0xbce34f53	-0.027747786
203	0x3da809b7	0.08204978
204	0xbda7c9d5	-0.08192793
205	0xbde35ce3	-0.11101701
206	0xbcf6079e	-0.030032929
207	0xbb57b876	-0.0032916344
208	0xbdcf5a35	-0.101246275
209	0x3c8ac02c	0.016937338
210	0xbdcf86da	-0.10133143
211	0x3daa983f	0.0832982
212	0xbd331160	-0.043717742
213	0xbdcd024f	-0.10010206
214	0x3d40db8e	0.047084384
215	0x3c614e07	0.013751513
216	0x3d5ccd11	0.053906504
217	0x3cfa3cf5	0.030546645
218	0xbe01bf5b	-0.12670653
219	0x3cd39ae8	0.025830701
220	0x3db532ff	0.08847617
221	0x3c3792d1	0.011204437
222	0x3da6d008	0.081451476
223	0x3cbc07a4	0.022952862
224	0x3dcc7b96	0.0998451
225	0x3db5b133	0.08871689
226	0xbd100645	-0.03516223
227	0x3d669db6	0.05630275
228	0x3d394c34	0.04523869
229	0x3d03215b	0.032014232
230	0xbbd3d07c	-0.0064640623
231	0xbd63a855	-0.055580456
232	0x3d6a7db4	0.057248786
233	0xbda32e12	-0.079677716
234	0x3d406d6a	0.046979345
235	0xbd30e97e	-0.043191426
236	0x3cebe425	0.028795311
237	0xbd3c10fe	-0.045914643
238	0x3dce5e18	0.10076541
239	0xbdd9e097	-0.1063854
240	0x3da7ba7f	0.08189868
241	0xbe003700	-0.12520981
242	0x3acc2379	0.0015574537
243	0xbe007baa	-0.12547174
244	0xbdb0b5da	-0.086284354
245	0xbce13a18	-0.027493522
246	0x3c124d6f	0.008929594
247	0x3b416e5b	0.002951524
248	0xbd24dc52	-0.040249176
249	0x3d105794	0.03523977
250	0x3dbabf74	0.09118548
251	0x3d95a221	0.07306314
252	0x3d77a88a	0.060463466
253	0x3dd229e2	0.10261895
254	0xbcb5208d	-0.022110248
255	0xbdec2ad1	-0.11531604

fc2.bias f4 [64]
0	0xbdc99ff7	-0.09844964
1	0x3db3de3b	0.087826215
2	0x3c3c89e1	0.011507482
3	0xbcbcc66c	-0.023043834
4	0x3d1cb8f5	0.038262326
5	0xbd9e17cb	-0.07719382
6	0x3d8dbd6a	0.069208935
7	0x3da9d3ab	0.082923256
8	0xbb85ae1f	-0.0040795947
9	0x3d829d3e	0.06377648
10	0xbc2fb17e	-0.01072347
11	0xbdd84684	-0.10560325
12	0xbda2d379	-0.079504915
13	0xbd5a5cbf	-0.053311106
14	0x3d5f7944	0.054559007
15	0xbd9294d6	-0.071572945
16	0x3dc6f7d1	0.09715236
17	0xbd2d26e4	-0.042273417
18	0x3d495bbe	0.049159758
19	0xbcd7ecc6	-0.02635802
20	0x3d3e24e6	0.046421908
21	0xbde3cce8	-0.11123067
22	0x3cfda486	0.03096224
23	0xbdc0d965	-0.09416465
24	0x3dbb9874	0.091599375
25	0xbda6c344	-0.08142713
26	0xbc9fd463	-0.019510454
27	0xbdbf304a	-0.09335382
28	0x3dcbffaf	0.09960877
29	0x3d99c035	0.07507364
30	0xbd21834e	-0.039431863
31	0xbdb390b3	-0.087678336
32	0x3d108bf7	0.03528973
33	0xbd43d0fb	-0.04780672
34	0xbd81e03e	-0.06341599
35	0x3ca2637b	0.019822827
36	0xbdb2d396	-0.08731763
37	0xbd793f97	-0.06085166
38	0xbd6e5d8f	-0.058194693
39	0xbdacef8e	-0.08444129
40	0xbdc1ba9a	-0.094594195
41	0xbd894045	-0.067017116
42	0x3c8d56bb	0.01725327
43	0x3cfc51c7	0.030800713
44	0xbd31caee	-0.04340642
45	0x3ddbcd24	0.10732487
46	0xbdfc2b58	-0.12312955
47	0x3d65bf62	0.05609072
48	0xbc99b513	-0.0187631
49	0xbdc2d56d	-0.09513364
50	0x3d3231dc	0.04350458
51	0x3e10951e	0.14119384
52	0x3cce2b06	0.025167
53	0xbd398811	-0.04529578
54	0x3d73b845	0.059501905
55	0xbd231679	-0.039816353
56	0x3dad9952	0.08476509
57	0x3d520d01	0.051281933
58	0x3c840a8f	0.016118316
59	0xbd148a14	-0.036264494
60	0x3ceb0704	0.028689869
61	0x3c9e7efa	0.019347657
62	0x3d387f8d	0.045043517
63	0xbd7e31fa	-0.06205938

fc3.weight f4 [4, 64]
0	0x3df0c644	0.11756566
1	0xbc3ff94f	-0.011717155
2	0x3df74851	0.1207434
3	0xbddc4cc3	-0.10756829
4	0xbd95db46	-0.07317214
5	0x3adf461b	0.0017034443
6	0x3d33c5fd	0.04388999
7	0xbd537a67	-0.051630404
8	0x3d0e6147	0.03476074
9	0xbb65ace8	-0.0035045687
10	0xbd463ef9	-0.0483999
11	0x3da4a995	0.08040158
12	0xbdaf658f	-0.08564293
13	0xbd42e915	-0.047585566
14	0xbd3655ce	-0.044515423
15	0xbd7f40cf	-0.062317666
16	0xbda1989c	-0.07890436
17	0xbd6cb169	-0.05778638
18	0x3e06a892	0.13150242
19	0xbd6a62a0	-0.057222962
20	0x3d80f7a5	0.062972344
21	0x3c8a9785	0.016917953
22	0x3d02eb6c	0.031962797
23	0x3bd8b010	0.006612785
24	0xbd74cbec	-0.059764788
25	0x3dcd284a	0.1001745
26	0xbdcfcee8	-0.10146886
27	0x3d36f91c	0.044671163
28	0x3dfd72a5	0.12375382
29	0xbd63052a	-0.055424847
30	0x3d820d79	0.06350226
31	0xbdc54cb9	-0.09633774
32	0x3d69e0dc	0.05709921
33	0xbdbc6f2f	-0.09200894
34	0x3da57f08	0.0808087
35	0x3caf321e	0.021386202
36	0x3dc5cf35	0.09658662
37	0x3da5964d	0.08085308
38	0x3dcbca5b	0.099507056
39	0x3b834cdf	0.0040069665
40	0x3a046200	0.00050500035
41	0x3df01ae5	0.1172388
42	0x3e045121	0.12921573
43	0x39f58e56	0.0004683609
44	0x3debb28d	0.11508665
45	0xbc6aa258	-0.014320932
46	0xbd90f1de	-0.070773825
47	0xbdc78ff4	-0.09744254
48	0x3dd9d2cd	0.1063591
49	0xbbc1b783	-0.005911769
50	0xbdabe07a	-0.08392425
51	0x3e0eef5d	0.13958497
52	0x3de4125e	0.11136316
53	0xbd850042	-0.0649419
54	0x3d43c6cc	0.04779701
55	0xbdc2f76c	-0.09519848
56	0x3d0736c4	0.033011213
57	0x3df9377a	0.121687844
58	0x3d3ad6c4	0.045614973
59	0xbdb8e123	-0.090273164
60	0x3d92bf30	0.07165372
61	0xbc0976aa	-0.008390108
62	0xbdd9440e	-0.106086835
63	0xbd515564	-0.051106825
64	0xbda4e4c4	-0.08051446
65	0xbd9a1701	-0.07523919
66	0xbd5c6b3e	-0.05381321
67	0xbdb4c954	-0.08827463
68	0xbc769416	-0.015049955
69	0x3e192119	0.14954032
70	0x3da2358b	0.07920369
71	0x3d050265	0.032472987
72	0xbc3072e7	-0.010769582
73	0x3de3e475	0.11127559
74	0xbcb620e3	-0.022232478
75	0x3dd7fd26	0.10546331
76	0xbdcf4f4f	-0.10122549
77	0xbdf436d0	-0.11924517
78	0x3d9d4afc	0.07680318
79	0x3d4483c2	0.047977217
80	0x3dbf4c6d	0.09340749
81	0xbd935205	-0.07193378
82	0xbdbde5fd	-0.092723824
83	0x3d1195c6	0.035543226
84	0xbce6f69d	-0.028193766
85	0x3abdf527	0.0014492617
86	0x3c91d35e	0.017800983
87	0xbd8f92b4	-0.07010403
88	0xbaa13246	-0.0012298308
89	0xbc6dca59	-0.0145135755
90	0xbde8cb88	-0.113669455
91	0xbdda96ab	-0.10673269
92	0x3d9efbe4	0.07762888
93	0xbdc22634	-0.09479943
94	0x3db74c13	0.08950057
95	0xbcde84e7	-0.027162982
96	0x3d31a2b7	0.043368068
97	0xbcae5d71	-0.02128479
98	0xbda58e5e	-0.08083795
99	0x3d04bfdd	0.032409538
100	0x3d03a190	0.0321365
101	0xbdf4a7e8	-0.11946088
102	0x3ddccc18	0.10781115
103	0x3c26feb6	0.010192564
104	0xbd9bb608	-0.07603079
105	0x3d8e73c4	0.06955674
106	0x3c49af52	0.012309866
107	0xbdd17712	-0.10227789
108	0x3d4e5d57	0.050381985
109	0x3c1e3a80	0.009657502
110	0xbd685c88	-0.05672887
111	0x3ddfd5b0	0.109294295
112	0xbd93eafd	-0.07222555
113	0xbb47f16e	-0.0030508894
114	0x3d035721	0.032065514
115	0xbc1f618a	-0.009727845
116	0x3d42b260	0.047533393
117	0x3ae1a487	0.0017215171
118	0xbc5b70a5	-0.013393556
119	0xbd2d831b	-0.04236136
120	0x3d99705e	0.074921355
121	0x3d87aa92	0.066243306
122	0xbcde0cb2	-0.027105663
123	0xbdb12417	-0.08649462
124	0x3dde11bb	0.108432256
125	0xbd48d4d9	-0.049031112
126	0x3d89d598	0.06730193
127	0xbd8cd89a	-0.06877251
128	0x3d7cc49c	0.06171094
129	0x3d444084	0.04791309
130	0x3d6eb443	0.05827738
131	0xbdc4a111	-0.096010335
132	0xbd5c4b79	-0.053782914
133	0x3d8b635b	0.0680606
134	0x3daf8437	0.0857014
135	0xbc9c18c6	-0.019054782
136	0xbdce2819	-0.10066242
137	0x3c3b6d78	0.011439674
138	0x3d8adb39	0.06780095
139	0xbc07d6f8	-0.008290999
140	0x3a354503	0.00069148856
141	0x3c5d9433	0.013524103
142	0x3de523f8	0.11188501
143	0xbe0e5c63	-0.1390243
144	0x3d6980a5	0.05700745
145	0x3da4b8de	0.08043073
146	0x3e053e64	0.13012081
147	0xbcc2760d	-0.023737932
148	0xbd2b4129	-0.04181019
149	0xbda64237	-0.08118098
150	0xbd3e045d	-0.04639088
151	0xbd8ee9eb	-0.0697821
152	0xbc322805	-0.010873799
153	0x3db3afa2	0.08773734
154	0xbdc5355a	-0.09629317
155	0x3db36e3f	0.08761262
156	0x3db60bec	0.08888993
157	0xbd86fc49	-0.06591088
158	0x3e0286a2	0.12746671
159	0x3ca6bf2d	0.020354832
160	0x3ca7c5b0	0.020480007
161	0xbdb86151	-0.09002937
162	0xbdc6ed5f	-0.09713244
163	0x3c0fc7e0	0.008775681
164	0xbd6489f7	-0.055795636
165	0x3d4b5706	0.04964354
166	0xbca7ee8d	-0.020499492
167	0x3dd74d71	0.10512818
168	0xbd4e3c2c	-0.050350353
169	0xbc0b1650	-0.008489206
170	0xbda6a7ac	-0.081374496
171	0xbdff5a60	-0.124684095
172	0x3d77dfea	0.060516275
173	0x3d8b801a	0.06811543
174	0xbdfe92ae	-0.12430321
175	0x3db7003d	0.08935592
176	0xbd094982	-0.03351737
177	0xbc9d51ec	-0.019204102
178	0x3cba7ee0	0.022765577
179	0xbd571040	-0.05250573
180	0x3d3b4d6a	0.045728125
181	0x3d74133e	0.059588663
182	0x3d539d6b	0.051663797
183	0xbd21265e	-0.03934323
184	0x3cdaddbf	0.026717065
185	0xbded5197	-0.11587828
186	0xbd42e1fc	-0.047578797
187	0x3d668586	0.05627968
188	0xbcae9b78	-0.021314368
189	0x3d99d122	0.07510592
190	0x3d15d4fa	0.036580063
191	0xbda9acda	-0.08284922
192	0xbca3658f	-0.019945888
193	0xbd2b5ca1	-0.041836385
194	0xbc9e3e91	-0.019316943
195	0xbc8e39e4	-0.017361589
196	0x3d03a21a	0.032137014
197	0xbdaac5f1	-0.083385356
198	0xbdc21a77	-0.09477704
199	0xbc9334b9	-0.017969476
200	0xbd9e56de	-0.07731412
201	0xbd607778	-0.054801434
202	0x3de0e2d9	0.10980768
203	0xbb322cd3	-0.0027187362
204	0x3ddc9198	0.10769957
205	0x3dce652c	0.10077891
206	0x3cdb57e4	0.026775308
207	0x3deec505	0.11658672
208	0x3d2ba59e	0.04190599
209	0x3d042e3f	0.032270666
210	0xbd2d2608	-0.042272598
211	0xbd87091b	-0.065935336
212	0xbc8fefbf	-0.017570375
213	0xbe07ec39	-0.13273706
214	0x3d3c230c	0.04593186
215	0x3d678adf	0.056528922
216	0xbcd47f0b	-0.025939485
217	0xbde37c34	-0.11107674
218	0x3e0b5f7c	0.13610643
219	0x3dc711a2	0.0972016
220	0xbd28f346	-0.04124763
221	0x3d9b51f5	0.075839914
222	0x3c6393bc	0.013890203
223	0xbde41790	-0.11137307
224	0x3c7f24b2	0.015572714
225	0x3d1755c6	0.036947034
226	0x3d60257c	0.054723248
227	0xbc8ab158	-0.016930267
228	0x3dd14c6f	0.10219657
229	0xbdb55dd8	-0.0885579
230	0x3d7578ef	0.059929784
231	0xbd8b0358	-0.06787747
232	0xbd222441	-0.039585356
233	0xbc2c8399	-0.010529422
234	0x3df95eae	0.12176262
235	0xbd13bd2f	-0.03606909
236	0x3dac2614	0.084057
237	0xbb6f68d3	-0.0036530986
238	0xbda94ec1	-0.08266974
239	0x3de9cc72	0.11415948
240	0xbdbda683	-0.09260275
241	0x3ddc4a83	0.107563995
242	0xbd52696f	-0.05137008
243	0x3d55b67e	0.05217599
244	0xbd788a69	-0.060678873
245	0x3d010b10	0.03150469
246	0xbd8591a7	-0.065219216
247	0xbd6986ef	-0.05701345
248	0xbd85f9ff	-0.065418236
249	0x3d8b70e6	0.06808643
250	0x3d62f179	0.055406068
251	0xbd765513	-0.060139727
252	0x3c88fe2e	0.016722765
253	0xbc35965c	-0.011083212
254	0x3e078732	0.13235167
255	0x3c5f2b76	0.013621202

fc3.bias f4 [4]
0	0xbce5d9ab	-0.028057894
1	0x3d2315c8	0.039815694
2	0x3dad4de3	0.08462121
3	0x3d472cc4	0.048626676
