mlruns/0/2bdfd0b951d44d20ab1864e96f24d137/artifacts/checkpoint.pth (torch_old, 28447 bytes, 6 tensors)

fc1.weight f4 [64, 37]
0	0x3e0aff2a	0.135739
1	0xbd992c04	-0.074790984
2	0xbc356789	-0.011072048
3	0x3df165fc	0.1178703
4	0xbdf9e2a3	-0.12201431
5	0x3cdfa831	0.02730188
6	0x3d5eab68	0.054362684
7	0xbe0bfe03	-0.13671117
8	0x3d0b555e	0.03401696
9	0xbd398266	-0.045290373
10	0x3e135a63	0.14389949
11	0x3cc93a17	0.024563832
12	0x3e05414f	0.13013195
13	0x3dadb335	0.08481447
14	0x3d9beb3e	0.07613228
15	0xbdfcfa16	-0.123523876
16	0x3e0f3148	0.13983643
17	0xbe07a310	-0.13245797
18	0x3db93e4d	0.09045086
19	0x3db5f2ea	0.08884223
20	0x3b635d99	0.003469324
21	0x3e1832db	0.1486315
22	0xbcf31f30	-0.029677957
23	0xbda2f763	-0.079573415
24	0x3d62da16	0.055383764
25	0xbccc2daf	-0.024924127
26	0xbe0b877b	-0.136259
27	0xbddb79f8	-0.10716623
28	0xbe0307fe	-0.12796018
29	0x3d7513a2	0.059833176
30	0xbde214f0	-0.1103915
31	0x3da0b3b5	0.078467764
32	0x3e2412f9	0.16022862
33	0xbd3ec362	-0.04657305
34	0x3dc52b02	0.09627344
35	0xbca5e38c	-0.020250104
36	0x3de6d7a9	0.11271603
37	0xbc5a6109	-0.013328799
38	0xbdde60f6	-0.108583376
39	0x3df93b02	0.12169458
40	0xbdb968de	-0.09053205
41	0x3d313fa8	0.043273598
42	0x3d9d85d8	0.07691544
43	0xbdcecb1d	-0.100973345
44	0xbe0cbbb5	-0.1374348
45	0x3dba6477	0.091011934
46	0xbe13c47c	-0.14430422
47	0xbe0514d0	-0.1299622
48	0x3db9ca88	0.09071833
49	0xbd588899	-0.052864645
50	0x3de4f413	0.11179366
51	0xbced16b5	-0.028941492
52	0x3ced4413	0.028963124
53	0xbd9a81df	-0.07544302
54	0x3c1aa35f	0.009438365
55	0xbe056715	-0.13027604
56	0xbde3e4d1	-0.11127628
57	0xbe06289e	-0.13101432
58	0x3d29ccdf	0.041455146
59	0xbd03de2a	-0.032194294
60	0x3e23022a	0.15918794
61	0x3c4e60a1	0.01259628
62	0x3dfeba7d	0.124379136
63	0xbdb248d3	-0.08705296
64	0x3d4d3b85	0.05010559
65	0x3b68e8c8	0.003553914
66	0x3e1ce81a	0.15322915
67	0x3d423329	0.04741207
68	0x3cb92933	0.022602653
69	0xbdd384ef	-0.103280894
70	0xbe10ad1a	-0.14128533
71	0xbd478f3d	-0.048720587
72	0x3d7f7392	0.062366076
73	0xbdda431a	-0.1065733
74	0xbd920d4b	-0.07131442
75	0xbe13513c	-0.14386457
76	0x3e18cccc	0.14921874
77	0x3e0d5339	0.13801278
78	0xbdc63f7a	-0.09680076
79	0x3b2d3320	0.0026428178
80	0xbd19ec80	-0.03757906
81	0x3cce5ea3	0.02519161
82	0xbdc788cf	-0.09742891
83	0xbdfbd6ee	-0.12296854
84	0x3bd446eb	0.0064781806
85	0xbe092d76	-0.13396248
86	0x3c588d9f	0.013217359
87	0xbd9fe0c9	-0.07806546
88	0xbe0e1269	-0.1387421
89	0xbcf9cffd	-0.030494684
90	0xbd5440b5	-0.051819522
91	0x3d8688ce	0.06569062
92	0x3e022da9	0.1271273
93	0xbdda9665	-0.10673217
94	0xbd50069c	-0.050787553
95	0xbd158e96	-0.036512934
96	0xbe156e92	-0.1459296
97	0xbe224dfe	-0.15850064
98	0x3d7162d3	0.058932137
99	0xbc97fe95	-0.018554011
100	0xbdd3313a	-0.103121236
101	0x3e209c05	0.15684517
102	0xbe1a9557	-0.15096031
103	0x3e0457eb	0.12924163
104	0xbe15a1a5	-0.14612444
105	0xbdcb5a14	-0.099292904
106	0x3d9fb300	0.077978134
107	0xbd16b2b0	-0.036791503
108	0xbd570b7e	-0.052501194
109	0xbdd845a8	-0.10560161
110	0x3d3e2da4	0.046430245
111	0x3dffebb5	0.124961294
112	0x3d7de745	0.061988134
113	0x3e4005c3	0.18752198
114	0xbdda94f8	-0.10672945
115	0xbe054b6d	-0.13017054
116	0xbdbdb1ed	-0.09262452
117	0xbc4cdd61	-0.012503953
118	0x3d55c6ca	0.052191533
119	0xbc7f4d98	-0.015582465
120	0x3d512813	0.05106361
121	0xbddda2d7	-0.10822075
122	0xbcd35f1d	-0.02580219
123	0x3ca4962a	0.020091135
124	0x3d511aea	0.051051058
125	0xbdbb421a	-0.09143467
126	0x3e163433	0.1466835
127	0xbca603c1	-0.020265462
128	0x3d7e1df3	0.06204028
129	0x3e38ddf1	0.18053414
130	0x3db7d176	0.089754984
131	0x3d841872	0.06449975
132	0xbd2879b7	-0.0411317
133	0xbe0289e7	-0.12747918
134	0x3da12a60	0.078694105
135	0x3e1e33e6	0.15449485
136	0x3dcaabbf	0.09896039
137	0x3d5a4995	0.05329283
138	0x3e03455a	0.12819424
139	0xbd90ba00	-0.07066727
140	0xbcf2e956	-0.029652279
141	0xbd90e464	-0.07074812
142	0xbdb3bad0	-0.08775866
143	0x3cc374e0	0.023859441
144	0xbe22f1c6	-0.15912542
145	0x3df7f12d	0.121065475
146	0xbe4b16c9	-0.1983291
147	0xbd53e759	-0.051734302
148	0x3d532429	0.051548157
149	0xbaf403e6	-0.0018616884
150	0xbd92cdd1	-0.071681626
151	0xbe17d297	-0.14826427
152	0x3dc654c1	0.09684134
153	0x3e1f7bba	0.15574542
154	0x3c946504	0.018114574
155	0xbdaa62a1	-0.08319593
156	0xbd2892af	-0.041155513
157	0xbdf9a976	-0.12190525
158	0x3d6940a5	0.056946415
159	0x3d3d4adf	0.04621398
160	0xbd0761c4	-0.03305222
161	0xbd9fe2f2	-0.07806958
162	0x3db134f4	0.08652678
163	0xbd11a1cc	-0.035554692
164	0x3d892fe4	0.066985875
165	0x3d072308	0.032992393
166	0x3dc35dd6	0.09539382
167	0xbda54ed8	-0.08071679
168	0xbe15210b	-0.14563386
169	0x3c88fd47	0.016722335
170	0xbe0dfd5b	-0.13866179
171	0xbe317d58	-0.17332971
172	0x3e0aa4d7	0.13539444
173	0xbb6b4ccc	-0.0035903929
174	0x3dedb8af	0.11607491
175	0x3d5fa959	0.054604862
176	0x3e0e9b3e	0.13926408
177	0x3cdb789b	0.026790908
178	0x3e18c556	0.14919028
179	0xbd672bfb	-0.056438427
180	0xbdc7ba60	-0.09752345
181	0x3b3a5351	0.0028431008
182	0xbd09e9da	-0.033670284
183	0x3dcc576a	0.099776104
184	0xbc901f47	-0.01759304
185	0x3bfcc023	0.007713334
186	0xbdb4c173	-0.0882596
187	0xbe157b5e	-0.14597842
188	0x3cbe0adb	0.023198536
189	0xbdbfaf09	-0.09359557
190	0x3e1a07b8	0.15042007
191	0x3e0c81cd	0.1372139
192	0xbe29b702	-0.16573718
193	0xbd8e7411	-0.06955732
194	0xbdea5e64	-0.11443785
195	0x3e1b3237	0.15155874
196	0xbdd733c5	-0.10507921
197	0x3e1ff462	0.15620568
198	0x3df791ee	0.12088381
199	0xbd0be404	-0.034153
200	0xbd9118b5	-0.070847906
201	0x3de678bb	0.11253496
202	0xbd07bd9c	-0.03313981
203	0xbd625ce8	-0.055264384
204	0x3c5b8d50	0.013400391
205	0xbe1fa010	-0.15588403
206	0xbd0f94c4	-0.035053983
207	0x3d93bb75	0.07213489
208	0xbd8a2a1d	-0.06746314
209	0xbd0aa9c9	-0.033853326
210	0xbddf3853	-0.10899415
211	0xbd0b3655	-0.033987362
212	0x3d9033dd	0.07041142
213	0xbd153a0d	-0.036432315
214	0xbe066a0f	-0.13126396
215	0x3d014f68	0.03156987
216	0xbe107955	-0.14108784
217	0x3df58aa0	0.11989331
218	0x3d15dbb8	0.036586493
219	0x3bb60e67	0.005555916
220	0xbdfea133	-0.1243309
221	0x3e1d69f8	0.15372455
222	0xbe0daa39	-0.13834466
223	0xbc772b90	-0.01508607
224	0xbe1a02aa	-0.15040079
225	0xbe093dc4	-0.13402468
226	0x3d448c65	0.047985453
227	0x3de6374c	0.11241016
228	0x3d692a63	0.05692519
229	0x3e1dc0ab	0.15405528
230	0xbb698792	-0.0035633785
231	0xbe0124a2	-0.1261163
232	0x3c886771	0.016650887
233	0xbb5e8167	-0.0033951642
234	0x3d0fdab9	0.0351207
235	0xbc1419bf	-0.0090393415
236	0xbe108783	-0.14114194
237	0xbcd47581	-0.025934936
238	0x3e153e53	0.14574556
239	0x3dcc3ed1	0.09972919
240	0x3e131fb5	0.14367564
241	0x3d526c0a	0.051372565
242	0x3e0b3b2e	0.13596794
243	0x3c94e737	0.018176658
244	0x3cf1cdff	0.029517172
245	0xbb0bdaa8	-0.0021340046
246	0xbdb449fe	-0.088031754
247	0x3de84839	0.113419004
248	0xbe04fab8	-0.12986267
249	0xbd1cd600	-0.038290024
250	0x3d767cd2	0.06017763
251	0xbccf0cff	-0.025274752
252	0xbdd5d82a	-0.10441621
253	0xbd05f6eb	-0.032706182
254	0x3dbd2efb	0.092374764
255	0xbd3d47ae	-0.046210937

fc1.bias f4 [64]
0	0xbd776a4a	-0.0604041
1	0xbdee2761	-0.11628605
2	0xbdea0e70	-0.11428535
3	0xbe15cf5c	-0.14629883
4	0xbdd94cc6	-0.106103465
5	0x3debb0e6	0.1150835
6	0x3dcc44b1	0.09974039
7	0xbc4783e8	-0.012177445
8	0xbd7b1ed7	-0.061308708
9	0x3e146812	0.14492825
10	0xbc12990e	-0.008947624
11	0x3e0b9539	0.13631143
12	0x3c917dc7	0.01776017
13	0xbe024bd4	-0.12724239
14	0xbe262413	-0.16224699
15	0xbdd9b814	-0.10630813
16	0xbe230ffa	-0.15924063
17	0x3d479e50	0.048734963
18	0xbd103882	-0.03521014
19	0xbe04bc41	-0.12962438
20	0xbd483d20	-0.04888642
21	0x3d5594a9	0.052143726
22	0x3d75dfc8	0.060027868
23	0xbdb8d27f	-0.09024524
24	0xbd138660	-0.03601682
25	0x3da3d82d	0.08000217
26	0xbdd812cc	-0.1055046
27	0xbddb7685	-0.10715965
28	0xbd741811	-0.059593264
29	0x3d74e1ea	0.05978576
30	0xbdba2143	-0.090883754
31	0xbca57f78	-0.020202383
32	0xbc6fe2cd	-0.014641476
33	0xbd0b9619	-0.03407869
34	0xbe2247ae	-0.15847656
35	0x3de5a60a	0.1121331
36	0x3c9a8503	0.018862253
37	0x3d4055d5	0.046956856
38	0x3e27c2d7	0.16382919
39	0xbd1ca0e3	-0.03823937
40	0xbdae75ec	-0.085185856
41	0xbdd89b3a	-0.10576482
42	0xbc5cd6a7	-0.0134789115
43	0x3dbe4ef8	0.09292406
44	0x3e08b779	0.1335124
45	0xbdc9b35d	-0.09848664
46	0x3d6b808a	0.05749563
47	0xbcc19b7d	-0.023633713
48	0x3e1b5f06	0.15172967
49	0x3da0c21b	0.07849523
50	0x3e0702fc	0.13184732
51	0x3ddac020	0.10681176
52	0xbdc8b9aa	-0.098010376
53	0xbd4c20da	-0.049836017
54	0x3df256bc	0.118329495
55	0x3db6c073	0.089234255
56	0xbdef2a92	-0.116780415
57	0xbd6a9f07	-0.057280567
58	0xbe009b92	-0.12559345
59	0xbd666ab8	-0.05625412
60	0x3d00a2d2	0.031405278
61	0xbbadc3e7	-0.0053028944
62	0xbe0e676c	-0.1390664
63	0xbdc10a1f	-0.094257586

fc2.weight f4 [64, 64]
0	0xbd5816f6	-0.052756272
1	0x3d08181e	0.033226125
2	0xbdd1b206	-0.102390334
3	0xbce271a0	-0.027642071
4	0xbd9196a6	-0.07108812
5	0xbce0ad8c	-0.027426504
6	0x3dec0c15	0.11525742
7	0xbd425336	-0.047442637
8	0x3bccecb5	0.0062538036
9	0x3d4a38ed	0.049370695
10	0xbd5b10e2	-0.053482898
11	0x3cce8d14	0.025213756
12	0xbc0444d2	-0.008073049
13	0x3df565ff	0.11982345
14	0x3d9eba0c	0.077503294
15	0xbd914d91	-0.07094873
16	0xbdcb1d72	-0.099177256
17	0x3e0c92ec	0.13727921
18	0xbbc01b40	-0.0058626235
19	0x3d475625	0.04866614
20	0x3dd1f456	0.102516815
21	0x3d7aeb4a	0.061259545
22	0xbd2aa687	-0.04166272
23	0xbd8c8bee	-0.06862627
24	0x3d8e6136	0.06952135
25	0x3d0b6f29	0.034041557
26	0xbdb1f4dc	-0.08689281
27	0x3c290e66	0.010318374
28	0x3da0bd1d	0.078485705
29	0x3da4b157	0.080416374
30	0xbde155ad	-0.110026695
31	0x3d055337	0.032550063
32	0xbdab2e63	-0.08358457
33	0xbbaa8808	-0.0052042045
34	0xbccb2bdc	-0.024801187
35	0x3d42caf1	0.04755682
36	0xbdb5d6eb	-0.08878883
37	0xbdc96341	-0.09833384
38	0x3d313f69	0.043273363
39	0x3d980200	0.074222565
40	0x3d8377ea	0.06419356
41	0x3b3538d4	0.002765228
42	0x3d590960	0.052987456
43	0x3d83daba	0.06438203
44	0x3cbc7246	0.023003709
45	0xbc5a1515	-0.01331069
46	0xbd156584	-0.036473766
47	0xbd8a3c70	-0.06749809
48	0xbd4ad5c0	-0.049520254
49	0xbdd28515	-0.1027929
50	0xbde779b1	-0.11302508
51	0x3d16a458	0.036777824
52	0x3de99513	0.11405387
53	0xbdc7c326	-0.097540185
54	0xbd9fc1a9	-0.078006096
55	0x3e1aafa6	0.15106067
56	0xbdfcba8d	-0.12340269
57	0x3c1d1c00	0.009589195
58	0x3bf1f374	0.007383758
59	0xba856dc6	-0.001017981
60	0x3df49ec1	0.119443424
61	0xbdda9837	-0.10673564
62	0x3db864af	0.09003579
63	0x3e053398	0.13007963
64	0x3df6721e	0.12033485
65	0x3db4eef0	0.08834636
66	0xbca41e9f	-0.020034133
67	0x3d8e203f	0.06939744
68	0x3d739ac8	0.059473783
69	0xbd5992bc	-0.053118452
70	0x3cab3634	0.02089987
71	0x3c4ee630	0.012628123
72	0xbc47680c	-0.012170803
73	0x3daa0efd	0.0830364
74	0x3da8c42f	0.08240544
75	0x3d97a670	0.07404792
76	0x3db0e6b6	0.086377546
77	0x3dce9354	0.10086694
78	0x3b647ba2	0.003486373
79	0xbe052db3	-0.13005714
80	0xbddd8548	-0.10816437
81	0xbccc63ae	-0.024949875
82	0x3c83b66d	0.016078198
83	0xbd90c51a	-0.07068844
84	0xbc2b8811	-0.0104694525
85	0xbd8c371b	-0.06846448
86	0xbdb8a4d9	-0.09015817
87	0xbdb865a9	-0.09003765
88	0x3b910b00	0.00442636
89	0xbdd1609f	-0.10223507
90	0x3dc50099	0.096192546
91	0xbdabc304	-0.08386806
92	0x3de07847	0.10960441
93	0x3ca9d096	0.020729344
94	0xbd39f422	-0.04539884
95	0x3de3354f	0.11094152
96	0x3daf7a17	0.08568209
97	0x3d4cd837	0.050010886
98	0x3c0f8674	0.0087600835
99	0xbd9afbcb	-0.07567557
100	0xbd284043	-0.04107691
101	0x3cc88c76	0.02448104
102	0x3ce30a9d	0.027715022
103	0x3db6be4e	0.089230165
104	0xbd7731c7	-0.060350206
105	0x3dab13c3	0.083533786
106	0x3dcd59de	0.100269064
107	0xbddb32e2	-0.107030645
108	0xbcdf7ba4	-0.027280636
109	0xbd6d80c7	-0.05798414
110	0x3d8e9d91	0.06963647
111	0xbd9c37f2	-0.07627858
112	0xbd9a030d	-0.07520113
113	0xbcb22d85	-0.021750221
114	0x3d4beb8e	0.04978519
115	0xbbd9b607	-0.006644014
116	0xbd837483	-0.06418707
117	0xbda34145	-0.079714336
118	0xbde695b9	-0.11259026
119	0xbcec7e38	-0.02886878
120	0x3d31bf19	0.043395136
121	0x3dab53f1	0.0836562
122	0xbdc3854d	-0.095469095
123	0xbdcf4b15	-0.10121743
124	0xbdb64dd4	-0.08901563
125	0xbd980a73	-0.07423868
126	0xbdcb327e	-0.0992174
127	0x3d06797f	0.03283071
128	0x3ddfe187	0.10931688
129	0xbd636032	-0.05551166
130	0xbd690ae5	-0.056895155
131	0xbc4cd0b9	-0.012500935
132	0x3dd58c44	0.10427144
133	0x3d9b7c41	0.07592059
134	0x3d08fb0f	0.033442553
135	0xbdd3d725	-0.1034377
136	0x3d1b3ae8	0.037897974
137	0xbc361efe	-0.011115788
138	0xbd47e596	-0.048802935
139	0x3df066dc	0.11738369
140	0xbdbd30e4	-0.09237841
141	0x3a52d8dc	0.0008043179
142	0xbdcc1d09	-0.099664755
143	0x3db8111a	0.08987637
144	0xbd2627f8	-0.04056546
145	0x3df1c59b	0.118052684
146	0x3c295a58	0.010336481
147	0x3dfb2c03	0.12264254
148	0xbd566bae	-0.052348785
149	0xbd40371d	-0.04692756
150	0x3cc2a779	0.023761498
151	0x3da0b72b	0.078474365
152	0x3d9211d9	0.071323104
153	0x3dcaac78	0.09896177
154	0x3db9b021	0.09066797
155	0x3dbd49c7	0.092425875
156	0x3db83ba6	0.08995752
157	0x3dd6a321	0.10480333
158	0x3d9162d8	0.07098931
159	0x3da2f28a	0.07956417
160	0xbdb86819	-0.0900423
161	0xbdcb603a	-0.09930463
162	0xbdeb94c5	-0.11502985
163	0x3db5f630	0.08884847
164	0x3da79c0c	0.081840605
165	0xbdbd2c29	-0.092369385
166	0xbd835128	-0.06411964
167	0x3da5590d	0.08073626
168	0xbcdd1cdd	-0.026991302
169	0xbdd7be05	-0.1053429
170	0x3d10c6bf	0.03534579
171	0xbdb6bdb3	-0.08922901
172	0x3c8ca8d8	0.017170355
173	0xbd50e546	-0.050999902
174	0x3d66ed2b	0.056378525
175	0x3ba18e8e	0.004930324
176	0xbd83b4f0	-0.064309955
177	0x3d547c6a	0.051876463
178	0x3b3fe298	0.0029279348
179	0xbdd607ad	-0.10450683
180	0x3d1cb2b5	0.038256366
181	0x3d4b2f16	0.04960545
182	0x3d282d53	0.04105885
183	0x3ca34869	0.019931989
184	0xbd5cc0e0	-0.053894877
185	0x3db2f787	0.08738618
186	0xbdb4c2dc	-0.08826229
187	0xbd958ab7	-0.073018484
188	0x3d364d78	0.044507474
189	0xbd00c7de	-0.03144061
190	0x3d81c9a5	0.06337289
191	0x3deaa4d6	0.11457221
192	0xbd3464ee	-0.044041567
193	0x3dbd45b1	0.09241808
194	0x3d1a5b2e	0.037684612
195	0x3cc2563a	0.023722757
196	0xbdb80fe2	-0.089874044
197	0xbe05670f	-0.13027595
198	0xbe01e60f	-0.12685417
199	0xbd96f506	-0.07370953
200	0x3cac12f3	0.02100513
201	0x3d9ae063	0.075623296
202	0xbce38961	-0.027775468
203	0x3daa8f0b	0.083280645
204	0xbd98b6cc	-0.07456741
205	0xbdd59eb8	-0.10430664
206	0xbcd6b710	-0.026210338
207	0x3c2aff46	0.0104368385
208	0xbdc5e986	-0.09663682
209	0x3ca18698	0.0197175
210	0xbdcbfd53	-0.09960427
211	0x3da9bb40	0.08287668
212	0xbd01232e	-0.03152769
213	0xbdcc5359	-0.09976835
214	0x3d641fec	0.055694506
215	0x3ccb028d	0.02478149
216	0x3d6c5f2e	0.057707958
217	0x3d1ba4b0	0.037998855
218	0xbe01c731	-0.12673642
219	0x3d0a7c4b	0.03380994
220	0x3db5f9dc	0.088855475
221	0x3c8aca16	0.016942065
222	0x3da9c9e9	0.082904644
223	0x3ce26d8f	0.027640132
224	0x3dcff85a	0.10154791
225	0x3da5687c	0.080765694
226	0xbcd6cb4d	-0.026219988
227	0x3d696a65	0.05698623
228	0x3d51cf6a	0.051223196
229	0x3cf9dc82	0.030500654
230	0xbbcf5226	-0.0063269315
231	0xbd1dcd92	-0.038526125
232	0x3d81a850	0.06330931
233	0xbda91c93	-0.08257403
234	0x3d5395de	0.051656596
235	0xbd177f42	-0.036986597
236	0x3ce64ecb	0.028113743
237	0xbd1fcc34	-0.039013103
238	0x3dcf5ee8	0.10125524
239	0xbdcb40c1	-0.0992446
240	0x3da7118a	0.08157642
241	0xbdfcb5b4	-0.123393446
242	0xb9740e6b	-0.00023275024
243	0xbe009cf1	-0.12559868
244	0xbda2afb2	-0.079436675
245	0xbcf4912b	-0.029854378
246	0x3c883e23	0.016631192
247	0x3c0b8682	0.008515956
248	0xbd022d74	-0.03178163
249	0x3d3e76da	0.046500064
250	0x3d937c07	0.07201391
251	0x3da74e8c	0.081692785
252	0x3d97d59e	0.07413791
253	0x3dd1782a	0.102279976
254	0xbcb45236	-0.022011857
255	0xbde9a29b	-0.11407968

fc2.bias f4 [64]
0	0xbd828f1d	-0.06374953
1	0x3dd646bb	0.104627095
2	0x3acde0a2	0.0015707205
3	0xbcaede87	-0.021346344
4	0x3d32a3d1	0.04361326
5	0xbdbc93bc	-0.092078656
6	0x3d839c9a	0.06426354
7	0x3db4951c	0.08817503
8	0xbbbc78c8	-0.005751703
9	0x3d8a5dde	0.06756185
10	0xbc7fbdd0	-0.01560922
11	0xbde80fd0	-0.11331141
12	0xbd97f67a	-0.074200585
13	0xbd1eb88c	-0.038750216
14	0x3d806ed4	0.06271139
15	0xbd9238ff	-0.071397774
16	0x3dd8de82	0.10589315
17	0xbd0b9c79	-0.03408477
18	0x3cfe84fe	0.031069275
19	0xbc9357ba	-0.017986167
20	0x3d226776	0.03964945
21	0xbdd884b6	-0.105721876
22	0x3ca22692	0.019793782
23	0xbdbc5d09	-0.091974325
24	0x3db501be	0.08838223
25	0xbdb8ccb6	-0.090234205
26	0xbcce1e25	-0.025160858
27	0xbdcc01f4	-0.0996131
28	0x3dadc3bf	0.08484601
29	0x3d9dab71	0.076987155
30	0xbd235d19	-0.039883707
31	0xbdb1e4a2	-0.086861864
32	0x3cfc7956	0.030819576
33	0xbd54540a	-0.05183796
34	0xbda61a8b	-0.081105314
35	0x3c9e0e1a	0.019293834
36	0xbdbab547	-0.09116607
37	0xbd8709ab	-0.06593641
38	0xbd8fe6a4	-0.07026413
39	0xbd9da428	-0.07697326
40	0xbd7a2ed8	-0.06107983
41	0xbd8cd99f	-0.068774454
42	0x3c46cdef	0.012134059
43	0x3d19cdd5	0.037549812
44	0xbd7ab4ed	-0.0612077
45	0x3de06ed8	0.10958642
46	0xbdf8dd27	-0.121515565
47	0x3d6226fe	0.055212967
48	0xbd01e24f	-0.031709965
49	0xbde0b2f3	-0.10971632
50	0x3d473fc3	0.048644792
51	0x3e09a9b5	0.13443644
52	0x3a052dea	0.0005080389
53	0xbd350609	-0.04419521
54	0x3d30fa91	0.04320771
55	0xbd072345	-0.03299262
56	0x3dad8727	0.08473044
57	0x3d43c1e1	0.04779232
58	0x3c037e61	0.008025737
59	0xbd03604d	-0.03207426
60	0x3cf32b36	0.02968369
61	0x3ca8e353	0.02061621
62	0x3d524a33	0.051340293
63	0xbd81c126	-0.06335668

fc3.weight f4 [4, 64]
0	0x3e342aad	0.17594405
1	0xbc83a847	-0.016071452
2	0x3ddbf33b	0.10739752
3	0xbddc34c1	-0.107522495
4	0xbd811ac8	-0.06303936
5	0xbb8c2620	-0.004277006
6	0x3d15827a	0.036501385
7	0xbd553aad	-0.05205791
8	0x3ce5d7a1	0.028056921
9	0xbc55dd29	-0.013053217
10	0xbd4d9adf	-0.050196525
11	0x3d9f6f8d	0.077849485
12	0xbdb98329	-0.0905822
13	0xbd76cffa	-0.060256936
14	0xbd3576af	-0.04430264
15	0xbd7f7472	-0.06236691
16	0xbda878ab	-0.082261406
17	0xbd6dd032	-0.05805988
18	0x3df38e2b	0.11892351
19	0xbd7a6aa4	-0.061136857
20	0x3d5aa23b	0.05337737
21	0x3bfd316d	0.0077268393
22	0x3cbe2198	0.023209378
23	0x3d05ae29	0.032636795
24	0xbd719ee6	-0.058989428
25	0x3db67e42	0.089108005
26	0xbdc7ae37	-0.09750026
27	0x3d38a3d7	0.045078125
28	0x3de78e59	0.113064475
29	0xbd68f425	-0.05687346
30	0x3da5e706	0.08100705
31	0xbdc51934	-0.09623948
32	0x3d4ca015	0.049957354
33	0xbdddab1b	-0.108236514
34	0x3d87fd97	0.06640165
35	0x3becd983	0.007228078
36	0x3dbea314	0.093084484
37	0x3d9c0bee	0.07619463
38	0x3db4ae3c	0.08822295
39	0x3a1b3345	0.00059204205
40	0x3c08ef1d	0.00835779
41	0x3dfd5831	0.12370337
42	0x3dfd51a6	0.12369089
43	0xbb683d9f	-0.003543712
44	0x3dee8b4d	0.11647663
45	0xbc9c5e28	-0.019087866
46	0xbd90f1de	-0.070773825
47	0xbdc35b3c	-0.09538886
48	0x3dc2fc85	0.095208205
49	0xbab3bc4e	-0.0013712735
50	0xbdac4b6d	-0.08412824
51	0x3e028852	0.12747315
52	0x3dd39e0a	0.10332878
53	0xbd86c05e	-0.0657966
54	0x3cf122ba	0.029435504
55	0xbdd13068	-0.10214311
56	0x3c9b020c	0.018921874
57	0x3dff8eb2	0.12478389
58	0x3d424ecb	0.047438424
59	0xbdbc10bd	-0.0918288
60	0x3d8612cb	0.06546553
61	0xbc4cc39a	-0.012497807
62	0xbdd30474	-0.10303584
63	0xbd32af11	-0.043623988
64	0xbd9f7852	-0.07786621
65	0xbd9b5117	-0.07583826
66	0xbd88957c	-0.06669137
67	0xbdd2e44c	-0.102974504
68	0xbcd2575e	-0.025676426
69	0x3df74eb3	0.120755576
70	0x3dcd3def	0.100215785
71	0x3d103d26	0.035214566
72	0xbd19b328	-0.037524372
73	0x3de372b5	0.11105863
74	0xbcb2fbb4	-0.021848537
75	0x3dcd39e1	0.10020805
76	0xbdc93a54	-0.09825578
77	0xbdde7580	-0.10862255
78	0x3dde9691	0.10868562
79	0x3d5ccc67	0.05390587
80	0x3dd95643	0.10612156
81	0xbda9817c	-0.0827665
82	0xbdc93972	-0.0982541
83	0xbb292ed9	-0.0025815277
84	0x3ba67754	0.005080143
85	0x3c2cdffa	0.010551447
86	0x3c447dde	0.0119929
87	0xbd64e6a4	-0.05588402
88	0x3c02b80e	0.007978452
89	0xbc8652e2	-0.016396943
90	0xbdec2a18	-0.11531466
91	0xbde839d3	-0.11339154
92	0x3d80b57d	0.06284616
93	0xbdc779aa	-0.097400025
94	0x3df45ba1	0.11931539
95	0xbd0076dc	-0.031363353
96	0x3d68f8ac	0.056877777
97	0xbb82fc27	-0.003997344
98	0xbda3cfd8	-0.079986274
99	0x3d3d21fd	0.046174992
100	0x3d1cef02	0.038313873
101	0xbe13a5e5	-0.14418752
102	0x3dd2f9cd	0.10301552
103	0x3d5f4238	0.05450651
104	0xbdc6dfff	-0.097106926
105	0x3da3825d	0.07983849
106	0x3c77959e	0.015111355
107	0xbe025fbf	-0.12731837
108	0x3d5f07bf	0.054450747
109	0x3b4eab42	0.0031535183
110	0xbd4e877e	-0.050422184
111	0x3dd56590	0.10419762
112	0xbd3bee9a	-0.045881845
113	0x3c0bd0f1	0.008533702
114	0x3c9867c1	0.018604161
115	0xbcc8ddcc	-0.024519823
116	0x3cb42344	0.021989472
117	0x3cc8c84f	0.024509577
118	0x3c38f958	0.011289917
119	0xbd4c9b0a	-0.049952544
120	0x3de3dd78	0.11126226
121	0x3db86177	0.09002965
122	0xbcae6026	-0.021286082
123	0xbdbc9b87	-0.09209352
124	0x3e2625fe	0.1622543
125	0xbd755d03	-0.059903156
126	0x3dab29bd	0.0835757
127	0xbdb010ae	-0.085969314
128	0x3da2acfe	0.07943152
129	0x3d43d879	0.047813866
130	0x3d1a9caf	0.03774708
131	0xbdabdbf3	-0.08391561
132	0xbd426442	-0.047458895
133	0x3da045de	0.07825826
134	0x3db210db	0.08694621
135	0xbcb3cb8c	-0.021947645
136	0xbdc5f5bd	-0.096660115
137	0xbb431678	-0.002976803
138	0x3d8ee46c	0.06977162
139	0x3c37b79b	0.011213209
140	0x3b83c34e	0.004021085
141	0x3d1611ad	0.03663795
142	0x3dc607a9	0.0966943
143	0xbdd1e05e	-0.10247873
144	0x3d587614	0.052846983
145	0x3d9994fa	0.07499118
146	0x3de15565	0.11002616
147	0xbd4082ee	-0.046999864
148	0xbcd60463	-0.026125139
149	0xbdb5da82	-0.08879568
150	0xbd438a0f	-0.047739085
151	0xbd934068	-0.07190019
152	0xbb430e5b	-0.0029763195
153	0x3d99510a	0.0748616
154	0xbdb4a2b9	-0.088200994
155	0x3dbb5aa7	0.0914815
156	0x3dd192c2	0.1023307
157	0xbd8c9db8	-0.0686602
158	0x3df44fd6	0.1192929
159	0x3c3eeb96	0.011652848
160	0x3ba54443	0.005043538
161	0xbd7d92d3	-0.0619076
162	0xbdd28191	-0.10278619
163	0xbb61574a	-0.0034384304
164	0xbd796b3c	-0.060893282
165	0x3d238c37	0.03992864
166	0xbccb732f	-0.024835197
167	0x3dad8800	0.084732056
168	0xbd930a57	-0.071797065
169	0xbb9dd3d7	-0.004816513
170	0xbdc17ac9	-0.094472475
171	0xbde7887d	-0.1130533
172	0x3d24c999	0.04023132
173	0x3d84eab0	0.064900756
174	0xbdfe92ae	-0.12430321
175	0x3dbcf874	0.09227076
176	0xbd58ecce	-0.05296021
177	0xbd002a39	-0.031290267
178	0x3cc1e7e1	0.023670139
179	0xbd6eb43d	-0.058277357
180	0x3d256ded	0.040388037
181	0x3d6c669e	0.05771505
182	0x3ce6b464	0.028162189
183	0xbd1a4979	-0.037667725
184	0x3aac9da5	0.001316954
185	0xbd8d8b2a	-0.06911309
186	0xbd667eb2	-0.05627317
187	0x3d7fb962	0.062432654
188	0xbc76ec3c	-0.015070971
189	0x3d8ca0f7	0.06866639
190	0x3d0729ce	0.032998852
191	0xbdc38999	-0.09547729
192	0xbc8f2b0f	-0.017476587
193	0xbd2b228d	-0.041780997
194	0xbc704466	-0.014664745
195	0xbcc52258	-0.024064228
196	0x3c85e170	0.016342849
197	0xbd9ffb86	-0.07811646
198	0xbdbb9ee1	-0.09161163
199	0xbc2795a2	-0.010228546
200	0xbd5e1462	-0.054218657
201	0xbd5305db	-0.051519256
202	0x3dd133b5	0.102149405
203	0xbc45d453	-0.012074548
204	0x3dbff036	0.093719885
205	0x3ddc43de	0.10755132
206	0x3cb54fbc	0.022132747
207	0x3e02d91a	0.1277813
208	0x3d3534d8	0.04423985
209	0x3d0e9ef3	0.034819555
210	0xbd8c8d75	-0.06862918
211	0xbd3332f2	-0.043749757
212	0xbc939928	-0.018017367
213	0xbde20959	-0.11036939
214	0x3cf79172	0.03022072
215	0x3d8d2aaa	0.06892903
216	0xbceb8798	-0.02875118
217	0xbde44281	-0.11145497
218	0x3e069424	0.13142449
219	0x3d940824	0.07228115
220	0xbd3aba8a	-0.045588054
221	0x3d9229b6	0.07136862
222	0xbabc73ee	-0.0014377811
223	0xbdf21c82	-0.11821844
224	0x3bc851cf	0.006113268
225	0x3d3e8cd4	0.046521023
226	0x3d6a72d8	0.05723843
227	0xbd1b224c	-0.037874505
228	0x3dc16a84	0.09444144
229	0xbdbd1182	-0.09231855
230	0x3da8737c	0.08225152
231	0xbdb7988f	-0.08964645
232	0xbcca4bae	-0.02469429
233	0xbc80c403	-0.015718466
234	0x3de8781b	0.11351033
235	0xbd60c6ef	-0.054877218
236	0x3db3e78a	0.08784397
237	0xbc2fdff2	-0.010734545
238	0xbdb7340e	-0.089454755
239	0x3ddb0aff	0.10695457
240	0xbdcdfbba	-0.10057779
241	0x3df4ebb6	0.11959021
242	0xbd5e9a70	-0.0543465
243	0x3d202bdf	0.03910434
244	0xbd74f7d7	-0.05980667
245	0x3d5f1211	0.05446059
246	0xbd8a80a5	-0.06762818
247	0xbd8d6bf0	-0.06905353
248	0xbd89ada6	-0.06722574
249	0x3d3d567b	0.046225052
250	0x3d55854b	0.05212907
251	0xbd72b738	-0.059256762
252	0x3c957e48	0.018248692
253	0xbc521cf4	-0.012824286
254	0x3dfffab4	0.1249899
255	0xbbd526b6	-0.006504859

fc3.bias f4 [4]
0	0xbd08a794	-0.03336294
1	0x3d66cbba	0.056346633
2	0x3d9d1473	0.07669916
3	0x3d1cab61	0.038249377
