mlruns/0/59b9820960d745389ef5051f5820c9ed/artifacts/checkpoint.pth (torch_old, 28447 bytes, 6 tensors)

fc1.weight f4 [64, 37]
0	0x3dfabc3d	0.12242935
1	0x3dcd7e71	0.100338824
2	0xbe39dbf2	-0.18150309
3	0x3d7590cb	0.05995254
4	0xbe27f534	-0.16402131
5	0xbd4e7ba2	-0.050410874
6	0x3d7d7783	0.061881553
7	0x3c44cd0a	0.012011776
8	0xbde6da61	-0.11272121
9	0x3a034694	0.00050077704
10	0x3e643841	0.22287084
11	0xbe3293d0	-0.17439198
12	0x3ea23b86	0.31686038
13	0xbe8072cd	-0.25087586
14	0xbf0677fd	-0.5252684
15	0x3d23a2c8	0.039950162
16	0xbd1db4ad	-0.038502384
17	0xbe4eb617	-0.2018665
18	0x3debd326	0.11514883
19	0x3e52333b	0.20527355
20	0xbed7d77c	-0.4215659
21	0x3e4a4574	0.19753057
22	0x3e47b552	0.19502762
23	0x3d9ef25d	0.07761071
24	0x3f02f650	0.51157093
25	0xbc5ab566	-0.013348913
26	0xbdb38788	-0.08766085
27	0xbedd134a	-0.4317878
28	0xbdcd1ae4	-0.100148946
29	0xbe5abd2e	-0.21361229
30	0xbd884f18	-0.06655711
31	0xbdfb9023	-0.12283351
32	0x3e0a79fc	0.13523096
33	0xbc64f846	-0.013975209
34	0xbd7460f0	-0.05966276
35	0x3b1890d1	0.0023279677
36	0xba63157e	-0.00086625654
37	0xbcd6f9c9	-0.026242154
38	0x3db9d8cf	0.09074556
39	0x3e148484	0.14503676
40	0xbf1f42f6	-0.6221155
41	0xbe4f334d	-0.20234413
42	0xbea9db05	-0.3317491
43	0x3cb50813	0.022098577
44	0x3e83f1f3	0.2577053
45	0xbf0856eb	-0.53257626
46	0xbe8d5ac9	-0.27608326
47	0xbf17b3e1	-0.5925885
48	0xbd8fb21e	-0.07016395
49	0x3ea1706b	0.3153108
50	0x3e6a3418	0.22871435
51	0xbf0092e9	-0.5022417
52	0xbd93f9be	-0.07225369
53	0xbf2a9076	-0.6662668
54	0x3e183ca0	0.14866877
55	0xbcd786a7	-0.026309324
56	0xbe38ea59	-0.18058147
57	0xbe3fdfe7	-0.18737756
58	0x3ea55009	0.32287624
59	0xbdbb20bd	-0.09137104
60	0xbe6727f6	-0.22573838
61	0x3e55786c	0.20846719
62	0x3d481e11	0.0488568
63	0xbf1fe13d	-0.6245306
64	0x3e55c723	0.20876746
65	0xbe0edeb1	-0.13952138
66	0xbe7c29a3	-0.24625258
67	0x3e8c4072	0.27392918
68	0xbe39f0ef	-0.18158315
69	0xbdf04c6e	-0.11733328
70	0xbeec42b1	-0.46144632
71	0xbe03fcf4	-0.12889463
72	0x3cbf4978	0.023350462
73	0xbb375dd4	-0.002797951
74	0x3d82ccdc	0.0638673
75	0xbea5a4e2	-0.32352358
76	0xbd989061	-0.07449413
77	0xbe896118	-0.2683189
78	0x3cea8c7f	0.028631447
79	0xbf112ccf	-0.56709
80	0xbea5bc90	-0.32370424
81	0x3e10706f	0.1410539
82	0xbeccc461	-0.39993575
83	0xc079d7b3	-3.9037902
84	0xbefeb958	-0.4975078
85	0xbe4c4c3d	-0.19950958
86	0x3da334d2	0.07969059
87	0xbe41782d	-0.188935
88	0xbfdaf1d4	-1.710505
89	0x3d834715	0.06410042
90	0xbe8edf28	-0.2790463
91	0xbdad9bb9	-0.08476967
92	0xbe22b81d	-0.15890546
93	0xbe21f658	-0.15816629
94	0xbeb0dca6	-0.3454334
95	0xbe792e55	-0.2433408
96	0xbe220377	-0.15821634
97	0xbee7099a	-0.45124513
98	0xbff77e5b	-1.9335436
99	0xbea024e2	-0.3127814
100	0x3d57c625	0.0526792
101	0x3d8ad777	0.06779378
102	0xbf1cc622	-0.61239827
103	0x3e847f05	0.25878158
104	0xbeb4003a	-0.35156423
105	0xbce57c98	-0.028013512
106	0x3d97adcf	0.07406198
107	0xbea48d9b	-0.32139286
108	0xc008716a	-2.1319222
109	0xbdd7a8fa	-0.105302766
110	0x3c7a454c	0.015275311
111	0x3dc3d8e4	0.09562853
112	0x3e457ace	0.19285128
113	0x3df0ae1c	0.11751959
114	0x3e2add43	0.16685967
115	0xbd235b08	-0.039881736
116	0xbdfcea44	-0.1234937
117	0x3e7e7a29	0.24851288
118	0xbd046ba7	-0.032329228
119	0xbd22acb5	-0.039715488
120	0x3d86fd0f	0.06591236
121	0xbd2c2dff	-0.042036053
122	0xbd9c828a	-0.07642086
123	0x3dd40b60	0.10353732
124	0x3dc7eff7	0.097625665
125	0xbdac234a	-0.08405168
126	0x3efae2c8	0.49001145
127	0xbf2c23c7	-0.6724209
128	0xbd656f3e	-0.056014292
129	0xbf4d3c47	-0.801701
130	0xc0167e33	-2.3514526
131	0xbd10339d	-0.035205472
132	0x3d2a35d5	0.041555244
133	0xbcadcc5d	-0.021215612
134	0xbd71e96e	-0.059060507
135	0x3e16b1d9	0.14716281
136	0x3d30562a	0.043050922
137	0x3db13133	0.08651962
138	0x3e69abe6	0.2281948
139	0x3e4e7f87	0.20165835
140	0x3d59dc71	0.053188745
141	0xbdb0fccc	-0.08641967
142	0xbcb665d7	-0.022265358
143	0x3d10b3b9	0.035327647
144	0xbde98f50	-0.11404288
145	0xbd00214b	-0.03128175
146	0x3d6a773c	0.057242617
147	0xbbd6f0b8	-0.0065594576
148	0x3db91a94	0.090382725
149	0x3df985c2	0.121837154
150	0xbcb13e60	-0.021636188
151	0x3da4bdb0	0.080439925
152	0xbd81a556	-0.063303635
153	0x3efc30b9	0.49255922
154	0xbec7e73f	-0.39043614
155	0xbf34f48b	-0.7068564
156	0xbf1f804c	-0.6230514
157	0xbfd85fbe	-1.6904218
158	0x3c976c42	0.018484239
159	0x3e45a61f	0.19301651
160	0x3dfad83a	0.12248273
161	0x3e07d069	0.13263096
162	0x3c040f6c	0.0080603175
163	0x3e46db99	0.19419707
164	0x3d9a461c	0.075329036
165	0x3decdcf7	0.11565583
166	0x3e0659b1	0.13120152
167	0xbe13acef	-0.14421438
168	0xbdcb5bba	-0.09929605
169	0x3d1f8183	0.03894187
170	0xbcc41c99	-0.023939418
171	0xba4a86a2	-0.00077257503
172	0x3dc85337	0.09781497
173	0x3e0a2f01	0.13494493
174	0x3e1c94c6	0.15291128
175	0x3e2d06fa	0.16897193
176	0x3e217bd7	0.15769897
177	0xbd0d4938	-0.034493655
178	0x3dffc239	0.12488217
179	0x3d6c786c	0.05773203
180	0x3dcbe75e	0.09956239
181	0x3e7c9651	0.24666716
182	0xbc1fb0dd	-0.009746757
183	0x3c829d06	0.015944015
184	0xbbc2c1c7	-0.00594351
185	0x3e836b6a	0.25667888
186	0xbe968303	-0.2939683
187	0xbe67bb08	-0.2262994
188	0xbdf162ef	-0.11786448
189	0x3e1cbba2	0.15305951
190	0xbd6b8507	-0.05749991
191	0x3e56c44a	0.20973316
192	0x3bb5e36c	0.0055507924
193	0xbe7015cf	-0.2344582
194	0xbe3ebc25	-0.18626459
195	0x3e5e4e69	0.21709599
196	0xba182ab9	-0.0005804706
197	0x3d3ee23c	0.046602473
198	0x3d8ba58e	0.068186864
199	0x3e9e613a	0.30933553
200	0xbe0210bd	-0.12701698
201	0x3e0fb105	0.14032371
202	0xbc79be0c	-0.015243065
203	0xbe8008ab	-0.25006613
204	0xbd72fe2d	-0.059324432
205	0xbe1aac55	-0.15104802
206	0x3e0648be	0.13113686
207	0xbd739848	-0.0594714
208	0xbe11d23b	-0.14240353
209	0x3d00e998	0.031472772
210	0xbe6192ea	-0.220287
211	0x3c9d2c98	0.019186303
212	0xbd665322	-0.056231625
213	0x3e2dd266	0.16974792
214	0xbdcdb468	-0.100441754
215	0xbc30f1c2	-0.010799827
216	0x3d8377a4	0.06419304
217	0x3ddf688d	0.10908613
218	0xbe01beab	-0.1267039
219	0x3d9d23bf	0.07672834
220	0xbdfc4fd3	-0.12319913
221	0xbd505ae1	-0.05086792
222	0xbd86fd70	-0.06591308
223	0xbe42c49c	-0.19020313
224	0xbd8c8c35	-0.0686268
225	0xbd1a8249	-0.037721906
226	0x3d75d093	0.060013365
227	0x3df4b756	0.11949031
228	0x3e41a7d6	0.1891168
229	0x3dfafb74	0.12254992
230	0x3d840995	0.0644714
231	0x3e1f07ea	0.15530363
232	0x3d8abd81	0.06774426
233	0x3d5de085	0.054169197
234	0xbc70f8e9	-0.014707782
235	0x3d9ed643	0.07755711
236	0xbb406a6e	-0.0029360312
237	0x3db84a3c	0.08998534
238	0x3ddec8f1	0.1087817
239	0x3d50a0d6	0.050934635
240	0x3e13b031	0.1442268
241	0xbcfc75d2	-0.0308179
242	0x3d1c37d8	0.038139194
243	0x3d67facc	0.056635663
244	0x3df60f43	0.1201463
245	0x3e6214e1	0.22078277
246	0x3d138d33	0.03602333
247	0x3dd55cf6	0.104181215
248	0x3ecb3023	0.39685163
249	0x3dc4242d	0.095772125
250	0xbf3628f7	-0.7115626
251	0xc02f3301	-2.737488
252	0xbd39fea5	-0.045408864
253	0x3b5caadd	0.0033671178
254	0xbd1ab907	-0.037774112
255	0x3d70f9fa	0.058832146

fc1.bias f4 [64]
0	0xbe2ef8e0	-0.17087126
1	0xbe120c4b	-0.14262502
2	0xbdeaa7f1	-0.114578135
3	0xbdabd7e9	-0.08390791
4	0x3d0c5297	0.03425845
5	0x3d9222b3	0.071355246
6	0x3e25b969	0.1618401
7	0xbe016d13	-0.12639265
8	0xbce187d0	-0.02753058
9	0x3e732927	0.23746167
10	0x3da2348d	0.079201795
11	0x3e0b817d	0.13623615
12	0xbd1335a6	-0.035939835
13	0xbcc14908	-0.023594394
14	0xbe3457a2	-0.17611554
15	0xbe9b44fa	-0.30326062
16	0xbde27137	-0.1105675
17	0xbca17a26	-0.019711565
18	0xbd52b0e9	-0.051438246
19	0xbe8550c5	-0.26038185
20	0xbd4384c9	-0.047734056
21	0xbd563380	-0.052295208
22	0x3d29018a	0.041261233
23	0xbdcb9be0	-0.0994184
24	0xbdf9ab28	-0.121908486
25	0xbd14d8b7	-0.036339488
26	0xbb14a2d7	-0.0022680068
27	0xbe6d4b35	-0.2317322
28	0x3e107bd5	0.14109738
29	0x3e0acb2d	0.13554068
30	0xbe566eb8	-0.20940673
31	0xbe73a439	-0.23793115
32	0xbc535c14	-0.012900371
33	0x3c78ed4e	0.015193297
34	0xbdcce43b	-0.10004469
35	0x3e01bbf2	0.12669352
36	0x3e18c3e9	0.14918484
37	0x3defac43	0.11702778
38	0xbca12132	-0.01966915
39	0xbd6058de	-0.05477225
40	0x3d577f21	0.052611474
41	0xbd1feb16	-0.039042555
42	0xbd8d4aa6	-0.06899004
43	0x3c64bd90	0.013961211
44	0x3d9bddb4	0.07610646
45	0xbdb8fadf	-0.09032225
46	0x3d92df90	0.071715474
47	0xbd30938a	-0.043109454
48	0xbd8d0832	-0.06886329
49	0x3ccde8a8	0.025135353
50	0x3e97817c	0.29590976
51	0x3d84e6e6	0.06489353
52	0xbde9a395	-0.11408154
53	0xbdba9749	-0.091108866
54	0xbd58471e	-0.052802198
55	0x3e7c0b00	0.24613571
56	0xbc14b32b	-0.00907592
57	0xbe98380b	-0.29730257
58	0xbe212b9d	-0.15739293
59	0xbe1846d2	-0.14870766
60	0x3da34b2c	0.07973322
61	0xbd741b56	-0.059596382
62	0xbd9a0f98	-0.075225055
63	0xbe65fd99	-0.22460021

fc2.weight f4 [64, 64]
0	0xbd8f37ad	-0.06993041
1	0xbbf17d2f	-0.0073696594
2	0xbdd7c555	-0.10535685
3	0xbd85e633	-0.06538048
4	0xbda14b28	-0.07875663
5	0xbd444b4d	-0.047923375
6	0x3d508790	0.050910532
7	0xbda96226	-0.082706735
8	0xbd016329	-0.031588707
9	0x3c701fbc	0.014656004
10	0xbdd4c7a6	-0.103896424
11	0x3c9db548	0.01925148
12	0xbd2a4ba3	-0.04157604
13	0x3db365b6	0.08759634
14	0x3cd11629	0.025523262
15	0xbde7f39f	-0.11325764
16	0xbddcf784	-0.10789397
17	0x3d6f6c37	0.05845281
18	0xbc9fb972	-0.019497607
19	0xbc08169d	-0.008306173
20	0x3d96a0bc	0.073548764
21	0x3cb0ad8f	0.021567134
22	0xbd917486	-0.07102303
23	0xbd762bd4	-0.06010039
24	0x3d281f34	0.041045383
25	0xbcaf58e0	-0.021404684
26	0xbdd02cdc	-0.10164806
27	0x3b42e410	0.0029737987
28	0x3d8c1171	0.06839264
29	0x3c34d20d	0.011036408
30	0xbdbd1b52	-0.092337266
31	0x3c90c5a0	0.01767236
32	0xbdf041d5	-0.117313065
33	0xbd1c069f	-0.038092252
34	0xbd876034	-0.06610146
35	0x3c1e4d0f	0.009661927
36	0xbe069862	-0.13144067
37	0xbde2da72	-0.110768214
38	0x3a9b662c	0.0011856011
39	0x3d1cb9f4	0.038263276
40	0x3d1904d4	0.03735812
41	0xbd1be927	-0.03806415
42	0x3d0fde73	0.035124253
43	0x3ceb557a	0.028727282
44	0xbd4c0619	-0.049810503
45	0xbd628796	-0.055305086
46	0xbdbf2fc7	-0.09335285
47	0xbdf662a5	-0.12030534
48	0xbdcf7484	-0.101296455
49	0xbdff3550	-0.124613404
50	0xbe0912df	-0.13386105
51	0xbc3cd8d6	-0.011526307
52	0x3dbdc581	0.092661865
53	0xbdc99176	-0.098421976
54	0xbdd9aab2	-0.10628261
55	0x3da9c119	0.082887836
56	0xbdfae7bc	-0.12251231
57	0xbd22a6d6	-0.03970989
58	0xbd124f7b	-0.03572033
59	0xbd078f5a	-0.033095695
60	0x3da8042a	0.08203919
61	0xbdec28bf	-0.11531209
62	0x3ce543df	0.027986465
63	0x3d908194	0.07055965
64	0xbdc11266	-0.09427337
65	0xbeb25967	-0.34833834
66	0x3dd96de5	0.10616664
67	0xbe259497	-0.16169964
68	0xbde67a4b	-0.11253794
69	0x3d8b4b51	0.06801475
70	0xbd734487	-0.059391525
71	0xbdee5dec	-0.11639008
72	0x3df4299a	0.11921997
73	0xbd859cda	-0.06524058
74	0x3e0825d0	0.13295674
75	0xbf292038	-0.66064787
76	0x3e81987e	0.25311655
77	0xbd525408	-0.05134967
78	0xbebd66dc	-0.36992538
79	0xbf205480	-0.62628937
80	0xbde774d6	-0.113015816
81	0xbde0746b	-0.10959705
82	0xbdce9e08	-0.10088736
83	0xbf522e4e	-0.82101905
84	0x3d1984c4	0.03748013
85	0xbe98e843	-0.29864702
86	0xbe89f76d	-0.26946583
87	0xbebfff30	-0.3749938
88	0x3e9ec2d8	0.3100803
89	0xbd06751f	-0.03282654
90	0x3e0b3bd3	0.1359704
91	0xbe0899e8	-0.1333996
92	0xbf5b6da7	-0.8571419
93	0x3b3e97d0	0.0029082187
94	0x3dce63cb	0.10077628
95	0xbe0016d8	-0.12508714
96	0x3ebd5586	0.36979312
97	0x3de1b213	0.11020293
98	0xbf0ec570	-0.55770016
99	0x3e8d71ba	0.2762583
100	0xbf276805	-0.65393096
101	0xbef970a4	-0.4871875
102	0xbe74e2e2	-0.23914674
103	0xbd0a4d53	-0.03376515
104	0xbed30b54	-0.4121958
105	0xbd1ec831	-0.038765136
106	0xbf07a3f6	-0.5298456
107	0x3ebb737e	0.3661155
108	0xbe9ebd00	-0.3100357
109	0x3e00615e	0.12537143
110	0x3e217846	0.15768537
111	0xbf08abe1	-0.53387266
112	0xbe8f105b	-0.27942166
113	0xbe1559af	-0.14584993
114	0x3c9bb7b9	0.019008504
115	0xbe080603	-0.13283543
116	0xbe492750	-0.19643903
117	0xbdb0fc8f	-0.08641922
118	0xbe024fc7	-0.12725745
119	0xbe8cd535	-0.27506414
120	0x3e0266f0	0.1273458
121	0x3dd75b63	0.105154775
122	0xbe86a99e	-0.26301283
123	0xbdc16dc9	-0.09444768
124	0xbf263483	-0.64923877
125	0xbf17347a	-0.5906445
126	0xbf1bda6e	-0.6088017
127	0xbcde4c4b	-0.027135989
128	0x3e22578a	0.15853706
129	0x3d39d813	0.04537208
130	0xbf139fea	-0.57665884
131	0x3d54a5ed	0.05191605
132	0x3e301f8f	0.17199539
133	0x3d2c9790	0.04213673
134	0xbd9aeb0e	-0.075643644
135	0xbe5d825c	-0.2163176
136	0xbbafabcd	-0.0053610564
137	0xbd61dbe5	-0.05514135
138	0xbd84ad4f	-0.064783685
139	0x3e206c29	0.1566626
140	0xbd68b1fe	-0.05681037
141	0xbddc9cd2	-0.107720986
142	0xbe4344b9	-0.19069184
143	0xbcf5fdd4	-0.030028261
144	0xbd8533cb	-0.06504019
145	0x3cba9bb8	0.02277933
146	0x3c115455	0.008870204
147	0x3da9f791	0.08299173
148	0xbed22c02	-0.410492
149	0xbe2cef83	-0.16888241
150	0x3d9658a4	0.073411256
151	0x3e372e7e	0.17888829
152	0xbcc9b83a	-0.024623979
153	0x3d176ee1	0.036970977
154	0x3d9aa039	0.07550091
155	0x3d983f21	0.07433916
156	0x3e4022c0	0.18763256
157	0x3e8ba7e8	0.2727654
158	0xbda88bf3	-0.08229818
159	0x3ec2ccc3	0.38046846
160	0xbdd9d671	-0.106366046
161	0xbdd772ef	-0.10519969
162	0xbd7f0634	-0.062261775
163	0x3d66adf9	0.056318257
164	0x3e3ed0f3	0.18634395
165	0xbe7ba4b8	-0.24574554
166	0xbe250866	-0.16116485
167	0xbcb3beca	-0.021941561
168	0xbcd4f87c	-0.025997393
169	0xbd91cf59	-0.071196266
170	0xbd013724	-0.031546727
171	0x3d435d71	0.047696535
172	0xbc633a31	-0.013868854
173	0x3c6004ee	0.01367305
174	0x3dc893c5	0.0979381
175	0xbe15e473	-0.14637928
176	0xbd0d9d49	-0.034573827
177	0xbd71f6eb	-0.05907337
178	0x3da3f041	0.08004809
179	0xbe0de1c7	-0.13855658
180	0xbdf5abc1	-0.1199565
181	0xbd822f07	-0.06356626
182	0x3d33bcd4	0.043881252
183	0x3e019eeb	0.12658279
184	0xbf2c968a	-0.67417204
185	0x3cb8a78a	0.022540826
186	0xbe3b7b72	-0.1830881
187	0xbcd10304	-0.025514133
188	0x3d8e1cb5	0.06939069
189	0xbe1a9893	-0.15097265
190	0x3e3f0d25	0.18657358
191	0x3e45b0e0	0.19305754
192	0xbdebdf9a	-0.11517258
193	0xbda85f0b	-0.08221253
194	0xbe0727fc	-0.13198847
195	0x3e2bd98e	0.1678221
196	0xbf65abc8	-0.8971524
197	0xbf40ef73	-0.7536537
198	0xbf3fb4d2	-0.74885285
199	0xbe8c6cfd	-0.274269
200	0x3e1966c3	0.14980607
201	0xbe7d9969	-0.24765553
202	0xbe931b33	-0.2873169
203	0xbef933b2	-0.48672253
204	0xbf1ba0cb	-0.60792226
205	0xbcdab5f8	-0.026698098
206	0xbf120fb7	-0.5705523
207	0x3d0a909e	0.033829324
208	0xbea3975a	-0.3195141
209	0x3e0f86df	0.14016293
210	0xbeb7854b	-0.35843882
211	0xbd7fedab	-0.062482517
212	0x3e1d5506	0.15364465
213	0x3ebd0725	0.36919513
214	0x3d60165f	0.054708835
215	0xbeadd6f1	-0.3395305
216	0x3ed1830d	0.40920296
217	0xbd98b189	-0.07455737
218	0xbe3eba10	-0.18625665
219	0xbbc446af	-0.0059898715
220	0xbcae78a5	-0.021297762
221	0xbf1d88d8	-0.6153693
222	0x3df86383	0.12128355
223	0xbe2df118	-0.16986501
224	0x3b378cdb	0.002800754
225	0xbf422641	-0.7583962
226	0xbf1ce7b0	-0.6129103
227	0xbe4382ac	-0.19092816
228	0xbecc62b5	-0.39919057
229	0xbe087980	-0.13327599
230	0xbe40719f	-0.18793343
231	0x3d96d80e	0.07365428
232	0xbeae1d8a	-0.34006912
233	0xbea8bcea	-0.3295663
234	0xbdb184aa	-0.08667882
235	0x3d1f7015	0.03892525
236	0x3e0b6ca2	0.13615659
237	0xbf3f17c4	-0.7464564
238	0xbebff80d	-0.37493935
239	0x3d923f9e	0.0714104
240	0x3cad01c0	0.021118999
241	0x3f1692d3	0.58817786
242	0x3e3958f2	0.18100336
243	0x3e691e07	0.22765361
244	0xbe2ebc95	-0.17064126
245	0xbdb0f59b	-0.086405955
246	0x3c7b1e29	0.015327015
247	0x3e0396fb	0.12850563
248	0xbeea6900	-0.45783234
249	0xbe2edcfd	-0.17076488
250	0xbd601225	-0.054704804
251	0xbcadcbda	-0.021215368
252	0xbebb9c85	-0.36642852
253	0x3e4b338d	0.19843884
254	0xbfedf5a1	-1.8590585
255	0x3d1852a9	0.037188206

fc2.bias f4 [64]
0	0xbe09de42	-0.13463691
1	0x3d106c77	0.03525969
2	0x3f1e21e9	0.6177049
3	0xbec94574	-0.393108
4	0xbd0eed5b	-0.03489433
5	0xbeadc29f	-0.33937547
6	0x3f46ab58	0.776052
7	0x3d19471d	0.037421335
8	0x3e8a9044	0.2706319
9	0x3f19fdef	0.60153097
10	0xbe28081d	-0.16409345
11	0xbe357981	-0.17722131
12	0xbe9dab5a	-0.30794793
13	0xbd2a3e73	-0.041563462
14	0x3e017d37	0.12645422
15	0xbda8f494	-0.082497746
16	0x3ef71f12	0.48265892
17	0x3d25bf19	0.040465448
18	0x3e5f041b	0.2177891
19	0xbe8a77a7	-0.27044412
20	0x3f30e7f3	0.69103926
21	0xbe970510	-0.2949605
22	0x3e0a7c7d	0.13524051
23	0xbe92f3cd	-0.2870163
24	0x3e604d02	0.21904376
25	0xbd87fa14	-0.066394955
26	0xbdac4189	-0.08410937
27	0xbe402a59	-0.18766154
28	0x3f4da16b	0.8032443
29	0xbe3241ca	-0.17407909
30	0x3c4bb257	0.012432656
31	0xbe2cb0ab	-0.16864268
32	0x3f421dd3	0.7582676
33	0xbdd05792	-0.10172953
34	0xbd0677b6	-0.03282901
35	0xbd39a696	-0.045324884
36	0x3e112157	0.14172874
37	0xbe69e34a	-0.2284061
38	0x3dbee0ac	0.093201965
39	0x3d857f75	0.06518451
40	0xbe94c4a0	-0.29056263
41	0x3edb167a	0.42790586
42	0x3f20fb77	0.62883705
43	0xbde0dbb3	-0.10979404
44	0x3ed3170c	0.4122852
45	0x3f3dddbf	0.7416648
46	0xb9d8368e	-0.00041239377
47	0xbc023459	-0.007947051
48	0xbe38c56e	-0.18044063
49	0xbde1311d	-0.10995696
50	0xbe7b56cc	-0.24544829
51	0x3f53a485	0.8267291
52	0x3e90caf6	0.28279847
53	0x3d0c421a	0.034242727
54	0x3e7cb0df	0.24676846
55	0xbeaa9ddf	-0.3332357
56	0x3eefc641	0.46830943
57	0xbbbf9378	-0.005846437
58	0x3efad468	0.48990178
59	0xbcb34ac3	-0.021886235
60	0x3f4e93e4	0.80694413
61	0xbd0d349a	-0.034473993
62	0xbd09933b	-0.033587676
63	0xbe3a54ae	-0.18196365

fc3.weight f4 [4, 64]
0	0x3dde1fda	0.10845919
1	0xbe980e17	-0.2969825
2	0x3e803c18	0.25045848
3	0xbf33636a	-0.7007357
4	0x3eb45a61	0.35225204
5	0xbe118814	-0.14212066
6	0x3e63515e	0.22199008
7	0xbeb2aeb1	-0.34898904
8	0x3e957786	0.29192752
9	0x3e944c8a	0.28964645
10	0x3e6223d5	0.22083981
11	0x3e5e9dc2	0.21739867
12	0xbe92a80b	-0.28643832
13	0x3dd2a4f5	0.10285369
14	0x3c89cf81	0.016822578
15	0x3e4f399a	0.20236817
16	0x3db46742	0.08808757
17	0x3e39571c	0.18099636
18	0x3e096a70	0.13419509
19	0xbee4de6e	-0.4470095
20	0x3e563935	0.2092026
21	0xbe8ea808	-0.27862573
22	0x3d86667c	0.06562516
23	0xbe7ba48d	-0.2457449
24	0x3eac0162	0.33594805
25	0x3e7296cd	0.23690338
26	0xbde6398d	-0.11241446
27	0xbddad1c7	-0.10684543
28	0x3ea420c5	0.3205625
29	0xbde94d6a	-0.11391719
30	0x3ee2a607	0.44267294
31	0xbf3c7706	-0.73619115
32	0x3e48fcef	0.19627737
33	0xbf5bfac6	-0.85929525
34	0x3cd9ff2c	0.026610933
35	0x3e45829e	0.19288108
36	0xbbdce1fa	-0.0067408057
37	0x3e5b8e9b	0.21441118
38	0x3e97fe4e	0.29686207
39	0x3ea408d2	0.3203798
40	0xbeb42d39	-0.35190752
41	0x3e71d912	0.23617962
42	0x3e3cc392	0.18433979
43	0x3dc78c1b	0.0974352
44	0x3eabc6ae	0.33550018
45	0x3e2f4105	0.17114647
46	0x3e9fc114	0.31201994
47	0xbeb6e8b4	-0.35724413
48	0x3c10abac	0.008829992
49	0xbede9188	-0.43470407
50	0xbe69be9a	-0.22826615
51	0x3ea4ce52	0.3218866
52	0x3e142953	0.14468889
53	0x3e5db965	0.21652754
54	0x3e02968c	0.12752742
55	0xbe58fac4	-0.2118941
56	0x3df55f8d	0.119811155
57	0xbe1a606f	-0.15075849
58	0x3e838526	0.25687522
59	0xbf029e22	-0.5102254
60	0x3e772d48	0.24138367
61	0xbe23e789	-0.16006292
62	0xbe9402d9	-0.28908423
63	0x3db396a6	0.08768968
64	0xbda4e4c4	-0.08051446
65	0xbd147e06	-0.036252998
66	0x3e591857	0.21200691
67	0xbe36858b	-0.1782438
68	0x3e161d6a	0.14659658
69	0xbd2f6198	-0.042817682
70	0x3e80138b	0.2501491
71	0x3e05dd66	0.13072738
72	0x3ebc192d	0.36737958
73	0x3e9c4d95	0.3052794
74	0x3e25e322	0.16199926
75	0x3e377aab	0.17917888
76	0xbe017acd	-0.12644501
77	0xbe3488ce	-0.17630312
78	0xbcfed985	-0.03110958
79	0x3e6d0f6f	0.23150419
80	0x3e836a2b	0.25666937
81	0x3c860f4e	0.01636472
82	0x3e82c3e6	0.25540084
83	0xbe905d96	-0.281964
84	0x3debe2c1	0.11517859
85	0xbe33cc58	-0.1755842
86	0x3dee7f69	0.11645395
87	0xbe608815	-0.21926911
88	0x3e794cba	0.24345675
89	0x3e110c0d	0.14164753
90	0xbe95de4d	-0.29271165
91	0xbcc172c5	-0.023614297
92	0x3e831843	0.25604448
93	0xbe9ee10e	-0.31031078
94	0x3f056a50	0.52115345
95	0xbedf3810	-0.4359746
96	0x3e60c4e9	0.21950115
97	0xbc1e246e	-0.00965224
98	0xbdbfd304	-0.0936642
99	0x3e70439b	0.2346329
100	0x3d8de5ee	0.06928621
101	0x3eab4626	0.33451957
102	0x3e84a2be	0.25905412
103	0x3e420e12	0.1895068
104	0xbd67193b	-0.056420546
105	0x3e5301fa	0.20606223
106	0x3e3c7bc8	0.18406594
107	0xbddca57b	-0.107737504
108	0x3e99918a	0.2999385
109	0x3e77dc3c	0.24205106
110	0x3e7fc42b	0.24977176
111	0x3de222a9	0.11041767
112	0xbe89956f	-0.2687182
113	0x3cdf52a2	0.027261082
114	0xbe579a7c	-0.21055025
115	0x3e8c5e30	0.2741561
116	0x3d6d6c36	0.057964526
117	0x3ea6722d	0.32508984
118	0x3e173a12	0.14768246
119	0xbe50559c	-0.20345157
120	0x3e018431	0.12648083
121	0xbea18e48	-0.31553864
122	0x3e6f661b	0.23378794
123	0xbe274da6	-0.16338214
124	0x3e91f730	0.28508902
125	0xbee00c42	-0.43759352
126	0x3dd58c1a	0.10427113
127	0xbdd63898	-0.10460013
128	0x3d6232e3	0.05522431
129	0xbe1b5b8b	-0.1517164
130	0x3e3db056	0.18524298
131	0xbcad8632	-0.021182153
132	0xbe0fce04	-0.14043432
133	0x3cc8de53	0.024520075
134	0x3eacdff0	0.337646
135	0xbe824a3a	-0.25447255
136	0x3ce7a314	0.028276004
137	0x3e8d91e8	0.2765038
138	0x3f04e0f2	0.5190574
139	0x3da05d22	0.07830264
140	0x3e3ef586	0.18648347
141	0x3ea0cd4b	0.31406626
142	0x3e6ca7ce	0.23110887
143	0x3e01bf17	0.12670551
144	0x3e6b7157	0.22992454
145	0x3e446f56	0.19183096
146	0x3e5d7bdd	0.21629281
147	0xbe3a0c65	-0.1816879
148	0x3e040115	0.12891038
149	0xbcabd34b	-0.020974776
150	0xbdf0e021	-0.11761499
151	0xbea4a6fe	-0.32158655
152	0x3e60fc71	0.21971299
153	0x3e25df0d	0.16198368
154	0x3d525621	0.05135167
155	0x3e45445a	0.19264355
156	0x3ea870c7	0.32898542
157	0xbed1cef9	-0.4097822
158	0x3ecf9edf	0.40550897
159	0xbe6dc8a1	-0.23221065
160	0x3e5ecda5	0.21758135
161	0xbc03811f	-0.00802639
162	0x3e99ac2d	0.30014172
163	0x3f0b7c6a	0.54486716
164	0xbc637a20	-0.013884097
165	0xbe85626b	-0.2605165
166	0x3c830460	0.015993297
167	0x3e69f865	0.22848661
168	0xbeabb4d9	-0.33536413
169	0x3e2324a5	0.15931948
170	0x3de39f84	0.111144096
171	0xbf3b527d	-0.7317274
172	0x3df85b90	0.12126839
173	0x3e9660c5	0.29370704
174	0x3e5a81d3	0.21338587
175	0x3e696588	0.22792637
176	0xbf2dd0b0	-0.67896557
177	0xbf0ed9f7	-0.5580134
178	0xbe0175e4	-0.12642628
179	0x3e3f259d	0.18666692
180	0x3cc4f579	0.024042832
181	0x3f13cdb6	0.57735765
182	0x3df19599	0.117961116
183	0xbe78640f	-0.2425692
184	0x3e74c0a2	0.23901609
185	0xbeef838f	-0.4678006
186	0x3e412144	0.18860346
187	0xbf1adf90	-0.6049738
188	0x3e5960bc	0.21228307
189	0xbe06b05a	-0.1315321
190	0x3e146ee1	0.14495422
191	0x3d4a6d2f	0.04942053
192	0xbb7168e6	-0.0036836206
193	0xbe8cff76	-0.2753865
194	0x3e23147a	0.1592578
195	0xbe1c9760	-0.1529212
196	0x3f3dfd2b	0.7421443
197	0xbeab714f	-0.33484885
198	0x3e394619	0.18093146
199	0x3df26147	0.118349604
200	0x3ddbc612	0.10731138
201	0x3e91efc8	0.2850325
202	0x3e066585	0.13124664
203	0xbf238ff1	-0.6389151
204	0xbe6417d0	-0.22274709
205	0x3eed1124	0.4630214
206	0x3e19bf7d	0.15014453
207	0x3effa291	0.49928716
208	0x3e8b1aa0	0.2716875
209	0x3e6a3004	0.22869879
210	0x3dc3e009	0.09564216
211	0xbd761801	-0.060081486
212	0x3e828783	0.25494012
213	0xbf13c8a6	-0.5772804
214	0x3e84c8ac	0.2593435
215	0x3da7c893	0.08192553
216	0x3e3f3b14	0.1867488
217	0xbeef08c8	-0.46686387
218	0x3e709931	0.23495938
219	0x3f0ebdab	0.5575816
220	0x3e11891b	0.14212458
221	0xbe12c342	-0.14332297
222	0x3dc0cdae	0.0941423
223	0xbee993d4	-0.45620596
224	0x3e66c561	0.22536232
225	0xbd9d3af3	-0.07677259
226	0xbf3008a3	-0.6876318
227	0xbda7b338	-0.0818848
228	0x3e5b2a5c	0.21402878
229	0xbe6316d7	-0.22176681
230	0x3ebdcc7b	0.3707007
231	0x3c317ffa	0.010833735
232	0xbe27552c	-0.16341084
233	0x3e891a70	0.26777983
234	0x3e9e1e39	0.30882433
235	0xbe3631b3	-0.17792396
236	0x3e9764b7	0.29569027
237	0x3e7c5f52	0.24645737
238	0x3cd323ac	0.025773846
239	0x3f146950	0.57973194
240	0xbf288ee9	-0.65843064
241	0xbefd9d54	-0.49534094
242	0xbe2a8aa2	-0.16654447
243	0x3e9a6d21	0.30161384
244	0xbe163de2	-0.14672044
245	0xbe05d4bd	-0.13069434
246	0x3e0c2c2c	0.13688725
247	0xbe57ba2c	-0.21067113
248	0x3e324823	0.1741033
249	0xbe91c7d4	-0.2847277
250	0x3e4e0e0b	0.20122544
251	0xbf2b751b	-0.66975564
252	0x3e86ea6d	0.26350728
253	0x3e32ffa6	0.17480335
254	0x3ec4d7db	0.38445935
255	0xbec4ee15	-0.38462892

fc3.bias f4 [4]
0	0x3f1568bd	0.5836294
1	0x3eed3114	0.46326506
2	0x3f157792	0.58385575
3	0x3f0bdd21	0.5463429
