mlruns/0/f37f4bf99bec4dc984a79bc09129c5c8/artifacts/checkpoint.pth (torch_old, 28447 bytes, 6 tensors)

fc1.weight f4 [64, 37]
000000 f9 af 07 3e 24 68 87 bd e9 65 37 bc 96 a5 ed 3d
       0.13250722 -0.0661166 -0.011193731 0.11603849
000010 a1 1d f5 bd 38 de d2 3c 64 89 7b 3d 71 d8 0c be
       -0.11968542 0.025740728 0.061410323 -0.13754441
000020 b9 74 0a 3d 4c b4 24 bd fe 95 20 3e aa 9c bf 3c
       0.03380272 -0.040211007 0.15682217 0.023390133
000030 11 98 04 3e b4 78 a7 3d a4 c5 9c 3d 24 78 00 be
       0.12948634 0.08177319 0.076548845 -0.1254583
000040 df 84 17 3e 4a 6f 08 be be 2d be 3d 18 47 b7 3d
       0.1479678 -0.13323703 0.092860684 0.08949107
000050 41 19 7a 3b aa 37 21 3e 0a e1 f2 bc 6e 4f ae bd
       0.0038162025 0.1574389 -0.029648323 -0.08511244
000060 4b 47 87 3d b6 1b c8 bc ce ac 02 be eb a8 e0 bd
       0.06605395 -0.024427276 -0.12761232 -0.109697185
000070 3e d6 d4 bd 09 a6 7d 3d 93 5f dd bd 62 a8 b0 3d
       -0.10392426 0.06192592 -0.10809245 0.086258665
000080 49 e6 1b 3e c1 ec 4b bd ea 5a ce 3d 6e e4 a6 bc
       0.15224566 -0.049786333 0.10075934 -0.020372596
000090 f6 ee e7 3d e4 20 32 bc 64 20 e5 bd 2a 1f d4 3d
       0.11324875 -0.0108721 -0.11187819 0.103575066
0000a0 d3 80 e7 bd 7e 5c 1d 3d d3 aa 87 3d 6c 90 c9 bd
       -0.11303868 0.038418286 0.06624379 -0.098419994
0000b0 00 51 14 be 3f 1a bb 3d c3 7c 17 be 44 f1 02 be
       -0.14484024 0.091358654 -0.14793687 -0.12787348
0000c0 e7 f5 a0 3d 95 a7 72 bd 0c ea ec 3d 67 c8 26 bd
       0.07859402 -0.05924185 0.115680784 -0.040718462
0000d0 9c 4b d8 3c 23 01 a5 bd 49 5a 24 3c 58 60 1e be
       0.02640324 -0.080568574 0.010031291 -0.1546644
0000e0 62 92 f0 bd 24 14 02 be d4 8f da 3c 6a 2b 05 bd
       -0.1174667 -0.12702996 0.02667991 -0.032512106
0000f0 cd b2 26 3e 92 47 33 3a 82 52 02 3e 9f 68 a5 bd
       0.16279145 0.0006838973 0.12726787 -0.080765955
000100 0e 5f 2f 3d da 7b 00 ba 5f dc 1b 3e 89 5b 4d 3d
       0.04281526 -0.0004901268 0.15220784 0.050136123
000110 ce 8f 88 3c a0 ac da bd be 7c 15 be f6 6c 5a bd
       0.016670134 -0.10677457 -0.14598367 -0.05332657
000120 4d 12 88 3d c9 88 d0 bd 8e df 8f bd 3c 51 13 be
       0.066441156 -0.1018234 -0.070250615 -0.14386457
000130 16 b4 16 3e 3d 4a 13 3e ac d0 c7 bd 3e 0f ad 3b
       0.14717135 0.14383788 -0.09756598 0.005281358
000140 6b 60 20 bd 09 10 be 3c 11 1e ed bd 1d 10 fb bd
       -0.03915445 0.023201006 -0.11578 -0.12258933
000150 06 07 16 3c 12 e1 0b be 5a 96 77 3c 1f 97 a7 bd
       0.009156948 -0.13660076 0.01511153 -0.08183121
000160 35 e1 0f be e6 47 01 bd 22 2e 37 bd 60 cc 83 3d
       -0.14050753 -0.03156271 -0.04472173 0.06435466
000170 97 44 03 3e 3f be d2 bd 2c 67 47 bd 2c e7 1b bd
       0.12819134 -0.10290193 -0.048682377 -0.03806226
000180 17 36 1d be 03 3d 31 be 77 a0 70 3d 9b 31 b0 bc
       -0.15352665 -0.1730843 0.05874678 -0.021508029
000190 8d 56 cf bd ce af 1e 3e 4d 1e 21 be 9a cd 04 3e
       -0.1012393 0.15496752 -0.15734215 0.12969056
0001a0 37 5c 18 be 18 e1 d0 bd f6 19 a4 3d d1 b7 23 bd
       -0.14878927 -0.10199183 0.08012764 -0.039970223
0001b0 40 44 56 bd 5e 77 d6 bd 12 05 33 3d 43 4e ef 3d
       -0.052311182 -0.10471986 0.043706007 0.11684849
0001c0 b7 6b 55 3d 13 be 40 3e 27 be e3 bd 89 00 0d be
       0.052104678 0.18822508 -0.11120253 -0.13769735
0001d0 59 ac d1 bd 0a 97 a8 bc fb df 58 3d 96 0e 16 bc
       -0.10237951 -0.020579834 0.05294798 -0.009158751
0001e0 61 e6 2c 3d 93 fb f8 bd 3a 82 c8 bc 7f 87 2f 3c
       0.042211894 -0.12157359 -0.02447616 0.010713457
0001f0 a4 c5 6b 3d 7f f9 c4 bd dd 23 12 3e 1f 40 cd bc
       0.05756153 -0.096179 0.14271493 -0.02505499
000200 a7 3c 5d 3d ab 88 32 3e 07 cc a6 3d 40 10 61 3d
       0.05401292 0.17434947 0.08144384 0.054947138
000210 a3 df 2f bd 7f cf 02 be ed 6f a9 3d f8 9c 14 3e
       -0.042937886 -0.12774466 0.08273301 0.14513004
000220 2d cc b7 3d 85 e6 28 3d 29 ed 00 3e 66 f4 2e bd
       0.0897449 0.041235466 0.1259047 -0.042713545
000230 67 01 2f bd db c0 96 bd ff 44 b5 bd 8b cf 17 3c
       -0.042725947 -0.07361003 -0.088510506 0.009265791
000240 20 41 1d be 00 68 ea 3d 9e 0a 48 be 21 48 59 bd
       -0.15356874 0.11445618 -0.195353 -0.053047303
000250 62 dc 49 3d ee 52 90 bb ae d7 92 bd 66 2c 0f be
       0.04928244 -0.0044044172 -0.07170044 -0.1398178
000260 97 ec c0 3d 7a fc 1d 3e 8b e2 86 3c 57 25 aa bd
       0.09420126 0.15428343 0.016465446 -0.08307903
000270 09 4e 18 bd 69 19 fd bd 7f 18 59 3d 61 14 44 3d
       -0.037183795 -0.12358362 0.053001877 0.047870997
000280 a2 a4 03 bd 39 a8 a7 bd dc e8 b1 3d 9b c0 05 bd
       -0.032139428 -0.08186383 0.086869925 -0.032654386
000290 66 f9 83 3d 85 67 04 3d 37 3b da 3d 1d 76 ac bd
       0.06444053 0.032325286 0.106558256 -0.08420966
0002a0 b7 9e 15 be f5 c4 15 3c 7c 28 06 be 30 12 28 be
       -0.14611326 0.0091411965 -0.13101381 -0.16413188
0002b0 f3 06 05 3e 61 bf a7 bb 7e cd e5 3d ba 2b 5a 3d
       0.12990932 -0.0051192497 0.11220835 0.053264357
0002c0 14 4d 15 3e 74 42 be 3c d2 5d 19 3e 0e c8 77 bd
       0.14580184 0.023225047 0.14977196 -0.06049352
0002d0 0b e2 dc bd b2 b4 bc bb 08 ca 10 bd 47 b9 ce 3d
       -0.10785302 -0.0057588452 -0.035348922 0.100939326
0002e0 53 3e 55 bc 9e 32 20 3c 87 fd b4 bd 53 05 14 be
       -0.0130153475 0.009777693 -0.08837419 -0.14455156
0002f0 b7 8b c7 3c 38 89 bc bd 28 55 1a 3e 90 d8 0c 3e
       0.024358613 -0.0920586 0.15071547 0.13754487
000300 24 87 28 be a3 d9 8b bd 65 1c ec bd e9 9c 1b 3e
       -0.16457802 -0.0682862 -0.11528853 0.15196575
000310 8f 05 d5 bd 21 8f 1f 3e 87 fd fe 3d f0 fc 0e bd
       -0.10401451 0.15581943 0.124507 -0.03490919
000320 3c 27 8e bd b2 22 e6 3d 2f 69 fa bc 49 28 5b bd
       -0.06941077 0.11237086 -0.030567734 -0.053505216
000330 06 e6 6d 3c dc 6d 20 be 07 0f 04 bd 5d cc 95 3d
       0.014520174 -0.15666908 -0.032240894 0.0731437
000340 00 6c 81 bd f9 f8 01 bd 18 fc e3 bd e6 c8 07 bd
       -0.063194275 -0.03173158 -0.111320674 -0.033150576
000350 1b 48 96 3d 22 af ec bc 0d 75 05 be e3 5d f6 3c
       0.07337972 -0.028892104 -0.13032933 0.030074066
000360 07 b2 0d be 9c 6f 00 3e 15 89 40 3d f9 84 ca 3b
       -0.13837443 0.12542576 0.04700573 0.0061804024
000370 4e 19 01 be 17 5c 1c 3e 42 49 0e be 08 8f 9d bc
       -0.12607309 0.15269504 -0.13895133 -0.019233242
000380 f6 dd 15 be 57 c8 04 be a7 0c 3a 3d ad fc dc 3d
       -0.14635453 -0.12967049 0.045422222 0.107903816
000390 79 76 62 3d af 41 20 3e 3e 2b f5 3a ce a0 02 be
       0.055288766 0.15650056 0.0018704904 -0.12756655
0003a0 08 da 65 3c ce 27 2e bb d8 9c 0e 3d 15 f6 1f bb
       0.0140290335 -0.0026574018 0.034817547 -0.002440815
0003b0 52 ee 0f be aa 75 b2 bc 1e 7e 11 3e 2c c7 ce 3d
       -0.14055756 -0.021784622 0.14208266 0.10096583
0003c0 6a cd 13 3e 35 4f 41 3d 01 ee 0b 3e 22 06 98 3c
       0.14433828 0.04719468 0.1366501 0.018557612
0003d0 f1 f2 e8 3c d3 d5 56 bb 1f ca b4 bd a3 89 ef 3d
       0.028436156 -0.0032781258 -0.08827614 0.11696174
0003e0 0b 1a 08 be e9 2e 25 bd 7e 6b bd 3d 3d 16 fc bc
       -0.13291185 -0.04032794 0.09249018 -0.030772323
0003f0 bd 4d d7 bd 1c 59 04 bd 19 06 a1 3d 31 48 2b bd
       -0.10512874 -0.032311544 0.07862491 -0.041816894

fc1.bias f4 [64]
000000 99 56 6a bd d0 8b f4 bd 68 81 ec bd 4e 29 1c be
       -0.057211492 -0.119407296 -0.1154812 -0.15250131
000010 0c df dc bd 48 2d ed 3d df 97 ca 3d aa fe 4f bc
       -0.1078473 0.11580902 0.09892248 -0.012694994
000020 f1 6c 7c bd 18 35 13 3e f0 df 18 bc 1e 8e 0b 3e
       -0.061627332 0.14375722 -0.009330735 0.13628432
000030 24 98 ab 3c 35 d4 02 be dc f2 27 be 66 4d db bd
       0.02094657 -0.12776263 -0.16401237 -0.10708122
000040 26 21 25 be 67 d4 3f 3d a4 01 07 bd 3a b5 05 be
       -0.16125926 0.046833422 -0.03296055 -0.13057414
000050 01 97 48 bd ed 73 46 3d 0e b6 81 3d 1d 88 c3 bd
       -0.048972134 0.0484504 0.06333552 -0.09547446
000060 41 e4 17 bd 75 77 aa 3d c3 00 d6 bd 3c 4e d3 bd
       -0.037082914 0.08323566 -0.10449364 -0.103176564
000070 61 a8 76 bd 28 d7 81 3d 50 fc bd bd c2 1d af bc
       -0.060219172 0.06339866 -0.092766404 -0.021376494
000080 e7 a3 51 bc 0b 7a 0e bd de 12 20 be 3d 31 e9 3d
       -0.012795425 -0.034784358 -0.15632197 0.113863446
000090 e5 fc 7e 3c 02 00 46 3d 3a 94 24 3e 83 aa 18 bd
       0.015563224 0.04833985 0.16072169 -0.037271988
0000a0 47 96 af bd ea 01 d8 bd d2 ca 84 bc f2 fc c2 3d
       -0.08573585 -0.1054724 -0.016209994 0.09520902
0000b0 70 24 0c 3e 30 b2 c9 bd b3 1e 74 3d bf 9a b5 bc
       0.13685775 -0.0984844 0.05959959 -0.022168515
0000c0 4c 94 1d 3e df de a0 3d 1a 6b 03 3e 50 22 de 3d
       0.15388602 0.07855009 0.12833825 0.10846388
0000d0 5a 25 cc bd 25 e8 4b bd f0 44 eb 3d 3c 6f bc 3d
       -0.09968062 -0.049781937 0.11487758 0.09200904
0000e0 dd e0 df bd c7 c5 6e bd 7b d8 00 be 7e e7 4b bd
       -0.10931561 -0.058294084 -0.12582581 -0.049781315
0000f0 b7 ab 28 3d f1 fd 90 bb 26 50 0f be ad b1 d5 bd
       0.041179385 -0.0044248034 -0.13995418 -0.104342796

fc2.weight f4 [64, 64]
000000 68 bb 52 bd 67 cf be 3c 0e 47 a4 bd a3 f6 ce bc
       -0.051448256 0.023292257 -0.08021365 -0.02526409
000010 16 76 55 bd bb 64 1f bd 7f 2d df 3d 29 26 9a bd
       -0.05211457 -0.038914423 0.108973496 -0.0752681
000020 28 77 d5 3a a4 80 e7 3c 67 54 4d bd a2 88 f2 3c
       0.0016286122 0.028259583 -0.05012932 0.029606167
000030 8a 5f e3 bc e5 3c cd 3d f8 65 86 3d fa d9 94 bd
       -0.027755518 0.1002138 0.06562418 -0.07268138
000040 ff 96 ed bd a1 0f fe 3d 15 99 c2 ba 62 f5 4e 3d
       -0.11601066 0.12405325 -0.0014846647 0.050526984
000050 47 53 f9 3d 4c 2f 2f 3d 89 e0 78 bd 2b 98 80 bd
       0.12174087 0.042769715 -0.06076101 -0.06279024
000060 cc 3f 67 3d b5 d4 12 3c c2 b7 e5 bd 35 67 69 3b
       0.056457326 0.008961846 -0.1121669 0.0035614495
000070 00 d4 b1 3d bb fa 9c 3d 50 c8 c5 bd 3d e0 af 3c
       0.08683014 0.076650105 -0.09657347 0.02146923
000080 6e 18 a2 bd 5a 20 71 bc 0c 27 ca bc b9 9a 5b 3d
       -0.07914816 -0.014717186 -0.024676822 0.053614352
000090 df 8c e5 bd ed 1f c2 bd 0e 8e 6e 3d df b4 2b 3d
       -0.1120851 -0.094787456 0.058240943 0.04192054
0000a0 fc aa a2 3d 5c c2 54 3c 43 c1 55 3d 61 b1 7b 3d
       0.07942769 0.012985792 0.05218626 0.06144846
0000b0 5e d3 e4 3c c8 c1 c6 bc 28 8a 5c bd fb 3e 8a bd
       0.027932819 -0.024262324 -0.053842694 -0.06750294
0000c0 7f c2 f1 bc f1 21 ed bd b0 db f7 bd f2 ff 2e 3d
       -0.029511688 -0.115787394 -0.12102449 0.042724557
0000d0 3e 68 d4 3d 38 42 85 bd ba 98 b0 bd 11 35 19 3e
       0.10371445 -0.06506771 -0.0862288 0.1496165
0000e0 cd 53 f9 bd 37 13 ad bb ff b3 a5 bc 67 90 63 bc
       -0.12174187 -0.0052818316 -0.02022743 -0.013889409
0000f0 6f 59 bb 3d 80 97 be bd 28 9a b3 3d 83 df 0a 3e
       0.091479175 -0.0930624 0.08769637 0.13561825
000100 92 ed eb 3d 59 5d b5 3d c2 98 2f bc 3f 9b 88 3d
       0.11519922 0.08855695 -0.010717573 0.06670236
000110 9c 42 6d 3d 5b 9c 66 bd ab 0d 7d 3c eb a6 3d 3c
       0.05792485 -0.056301456 0.015445153 0.011575441
000120 9f eb 8e bc 32 68 a6 3d 3d 77 a0 3d 65 e6 89 3d
       -0.017446337 0.081253424 0.07835243 0.067333974
000130 ef d4 a9 3d 86 58 ca 3d cc 63 ab bb 04 9b 02 be
       0.08292567 0.09880166 -0.0052304026 -0.12754446
000140 68 72 dd bd 2b f0 f4 bc f9 3d 27 3c 42 8d 9a bd
       -0.10812837 -0.029899677 0.0102076465 -0.07546474
000150 26 d8 75 bc 77 de 84 bd 09 3d c9 bd 09 02 af bd
       -0.015005147 -0.06487744 -0.09826095 -0.0854531
000160 66 ed b6 3a 17 a2 cf bd 27 94 d3 3d 47 c9 a0 bd
       0.0013956248 -0.10138338 0.10330992 -0.078508906
000170 43 28 d7 3d 26 44 96 3c 5e b8 55 bd 38 ba f5 3d
       0.10505726 0.018343043 -0.05217778 0.11998409
000180 a3 5e ae 3d ee ef 44 3d c6 e8 66 3b ec 27 a7 bd
       0.08514144 0.048080377 0.0035233959 -0.08161911
000190 bd 54 23 bd 7c e7 a0 3c a0 3d bd 3c d6 eb b2 3d
       -0.039875735 0.01964163 0.023100674 0.087363884
0001a0 f8 1a 80 bd e0 b0 9d 3d 88 7c c7 3d 71 bf dd bd
       -0.06255144 0.07699752 0.09740549 -0.1082753
0001b0 ab dc e9 bc 09 05 4b bd 0c 49 90 3d 7b e8 a2 bd
       -0.028547605 -0.04956535 0.070451826 -0.079544984
0001c0 a3 a1 a5 bd 2a f4 c9 bc e2 47 37 3d 82 ac 3f bc
       -0.080874704 -0.02465256 0.044746287 -0.011698844
0001d0 89 dd 81 bd db 13 b1 bd 42 4f f0 bd ad 11 ec bc
       -0.063410826 -0.08646365 -0.11733867 -0.028817022
0001e0 b8 bd 3f 3d 44 0a a3 3d ce 87 af bd 3d 75 cd bd
       0.04681179 0.079609424 -0.085708246 -0.10032127
0001f0 0a 65 c5 bd eb 95 a5 bd 4f be ca bd db 94 10 3d
       -0.09638412 -0.08085235 -0.0989958 0.03529821
000200 48 47 e1 3d 22 d8 5d bd f9 32 6d bd fa 68 97 bc
       0.10999924 -0.0541612 -0.05790994 -0.018482674
000210 d1 6d db 3d d9 43 9c 3d 26 83 0a 3d 8a fc d1 bd
       0.10714305 0.076301284 0.03381648 -0.10253246
000220 7f f3 19 3d 5d 36 63 bc c3 b0 45 bd ce a9 ef 3d
       0.03758573 -0.013867942 -0.048264276 0.117023095
000230 ee ae bb bd 07 c4 9f 3a 41 49 cf bd 61 b8 b7 3d
       -0.091642246 0.0012189158 -0.10121394 0.08970714
000240 45 1d 30 bd fd 48 ef 3d 50 fb 4a 3c bb 6d fa 3d
       -0.042996664 0.11683843 0.012389019 0.12227961
000250 7c 8c 51 bd 29 1f 43 bd 62 94 b3 3c df 51 a4 3d
       -0.051159367 -0.04763714 0.02192134 0.08023428
000260 5d 16 92 3d ef 2f ca 3d 54 2c b1 3d c4 1c ba 3d
       0.07133172 0.09872424 0.08651033 0.09087518
000270 4e 89 b9 3d 69 6f ce 3d 60 ab 96 3d 3b fd 97 3d
       0.09059392 0.100798436 0.07356906 0.07421347
000280 4d a8 b8 bd 93 1b cb bd ba 9e ec bd da d4 b7 3d
       -0.09016476 -0.09917369 -0.11553712 0.08976145
000290 21 40 ad 3d fd 95 c4 bd 19 05 7d bd 8d 89 a7 3d
       0.08459497 -0.095989205 -0.06177244 0.081805326
0002a0 fd b1 d6 bc 05 24 dc bd 31 5c 19 3d 19 49 b6 bd
       -0.026207918 -0.10749058 0.037441436 -0.08900661
0002b0 0e 68 8c 3c 1c e7 55 bd a0 9d 6a 3d 36 27 97 3b
       0.01713946 -0.052222356 0.05727923 0.0046128286
0002c0 e9 23 83 bd fc 08 4f 3d 08 46 44 3b ab 92 d4 bd
       -0.06403334 0.050545678 0.0029948968 -0.10379537
0002d0 e6 7f 22 3d 6c e6 49 3d 4b b1 2b 3d 3b 70 9c 3c
       0.039672755 0.049292013 0.041917127 0.019096484
0002e0 e8 e8 63 bd 6a 7b b5 3d fc 40 ac bd aa 59 9e bd
       -0.05564204 0.0886143 -0.08410832 -0.07731946
0002f0 ae 28 19 3d 9e 24 06 bd 86 84 82 3d f2 f1 f2 3d
       0.03739231 -0.032749765 0.06372933 0.11862554
000300 5d 77 35 bd 12 54 ae 3d 49 70 1a 3d 00 0c b1 3c
       -0.044303287 0.08512129 0.03770474 0.021612167
000310 48 6d b9 bd 04 35 05 be d7 af 02 be 2f 6c 98 bd
       -0.09054047 -0.13008505 -0.1276239 -0.074425094
000320 ab 1e a8 3c 21 4c 99 3d b6 d4 e4 bc 8b 78 a6 3d
       0.020522436 0.074852236 -0.02793346 0.081284605
000330 58 d5 9a bd fa e0 d6 bd f9 d1 fe bc a2 c4 24 3c
       -0.07560223 -0.104921296 -0.031105982 0.010056647
000340 5e 1b c7 bd 29 be 70 3c 3e eb d6 bd 91 fc a8 3d
       -0.09722017 0.014693775 -0.10494088 0.08251298
000350 a2 4e 03 bd bd 25 cf bd 76 29 5c 3d be 5d ec 3c
       -0.032057412 -0.1011462 0.053750478 0.028853294
000360 49 34 69 3d 30 34 1c 3d a0 cd 03 be 96 2c 03 3d
       0.05693463 0.038135707 -0.12871408 0.032024942
000370 43 a9 b5 3d 9c 2f 71 3c b4 69 a9 3d 78 c7 e9 3c
       0.08870175 0.014720824 0.082721144 0.028537497
000380 5c 82 c4 3d f1 4c 94 3d 6d da f5 bc 6b 94 69 3d
       0.095951766 0.07241238 -0.03001138 0.057026308
000390 8c 46 57 3d 65 5b f7 3c fe 14 e6 bb 00 92 1e bd
       0.052557513 0.030194947 -0.0070215454 -0.038713455
0003a0 82 96 73 3d bb 5b c0 bd 6c ff 54 3d d9 77 1f bd
       0.059469707 -0.09392496 0.0520014 -0.038932655
0003b0 5c 02 d7 3c 6e cc 24 bd 00 25 be 3d 08 db cf bd
       0.026246242 -0.04023402 0.09284401 -0.10149199
0003c0 aa 98 a4 3d 39 cd fd bd 04 80 07 ba 53 31 01 be
       0.08036931 -0.12392659 -0.0005168917 -0.12616472
0003d0 7b af a2 bd dd ec f0 bc 16 f4 98 3c 89 2f cc 3b
       -0.079436265 -0.02940982 0.018671077 0.0062312526
0003e0 40 3b fe bc a8 2e 3a 3d d8 5b 9c 3d 7d 5b a4 3d
       -0.031034112 0.04545465 0.07634705 0.080252625
0003f0 88 03 8d 3d 24 56 cf 3d 44 d6 bd bc c1 2b eb bd
       0.06885439 0.10123852 -0.023173459 -0.11482955

fc2.bias f4 [64]
000000 02 d8 79 bd 6e f6 cd 3d 1a 0d 14 3b fe 3c bc bc
       -0.060997017 0.10056768 0.0022590817 -0.022978302
000010 20 90 29 3d 36 24 b0 bd 1f 6a 87 3d 14 9a b4 3d
       0.041397214 -0.08600657 0.06612038 0.088184506
000020 5a a6 00 bb 3c 8e 8f 3d 97 1c 82 bc e1 8f e4 bd
       -0.0019630403 0.07009551 -0.015882773 -0.11160255
000030 5d 80 9a bd 72 0d 35 bd e4 53 83 3d 38 26 95 bd
       -0.075440146 -0.044202276 0.06412485 -0.0728268
000040 58 36 d9 3d 2e da 12 bd 6a ae 03 3d 11 c9 b1 bc
       0.106060684 -0.035852604 0.032148756 -0.021702321
000050 1a 52 23 3d 0c 46 dd bd 82 ec a6 3c d2 c1 c2 bd
       0.03987322 -0.10804376 0.020376448 -0.095096245
000060 72 7b b5 3d 9c 28 b7 bd 06 d3 cb bc 1c 44 c3 bd
       0.08861436 -0.089432925 -0.024880897 -0.09534475
000070 05 46 b0 3d 17 e7 9c 3d f0 81 14 bd 37 59 b0 bd
       0.08607105 0.076612644 -0.03625673 -0.086107664
000080 e4 3a 03 3d 04 d9 58 bd db a6 a4 bd 11 e6 8a 3c
       0.032038584 -0.052941337 -0.08039638 0.016955407
000090 2d 52 b9 bd ca 5e 88 bd 18 d5 87 bd 1a 4d a3 bd
       -0.09048877 -0.066587046 -0.06632441 -0.0797369
0000a0 12 62 91 bd 5b d4 86 bd f9 25 53 3c 75 02 14 3d
       -0.070987836 -0.06583472 0.012887471 0.036135156
0000b0 30 21 77 bd 38 8c e3 3d 50 c0 ea bd 9a ce 66 3d
       -0.060334384 0.11110729 -0.11462462 0.056349374
0000c0 c7 09 f8 bc f0 1c d5 bd c3 29 45 3d cf 64 0a 3e
       -0.0302781 -0.1040591 0.04813553 0.13515018
0000d0 30 5c 1f 3a 36 9d 39 bd 7a 88 32 3d e9 c9 09 bd
       0.00060791057 -0.045315944 0.043587185 -0.033639822
0000e0 4f 14 9c 3d d3 af 40 3d 32 9f 01 3c f4 7b 0b bd
       0.07621061 0.04704268 0.00791149 -0.034053758
0000f0 7c 7f fe 3c 96 88 bb 3c b9 3e 3b 3d 11 39 89 bd
       0.031066649 0.022892278 0.045714114 -0.06700338

fc3.weight f4 [4, 64]
000000 ce 65 1b 3e 29 00 80 bc 31 2a dc 3d e5 93 da bd
       0.15175554 -0.015625076 0.10750235 -0.1067274
000010 a9 c4 7b bd e1 63 ed ba 7b fd 17 3d 3b 96 54 bd
       -0.061466847 -0.0018111431 0.037106972 -0.051901083
000020 27 b3 ea 3c 19 49 fb bb c3 03 4d bd 83 0e a0 3d
       0.02864988 -0.007668626 -0.050052416 0.07815268
000030 ac 70 b8 bd 3b e9 65 bd 74 46 34 bd d9 bb 7e bd
       -0.090058655 -0.05613063 -0.0440125 -0.062190864
000040 e8 cf a6 bd 7b 7f 67 bd 32 26 f2 3d d9 34 70 bd
       -0.08145124 -0.05651806 0.118236914 -0.05864415
000050 3a c9 5f 3d 6d 20 e5 3b fa e8 c6 3c ad d2 1f 3d
       0.054635264 0.006992391 0.024281014 0.039019275
000060 cc 88 71 bd 4f b9 b7 3d 34 45 c7 bd d0 b9 39 3d
       -0.05896835 0.08970892 -0.09729996 0.04534322
000070 a3 1c ea 3d 60 15 70 bd 8c c8 a8 3d c9 47 c6 bd
       0.11431243 -0.058614135 0.08241376 -0.09681661
000080 ef 19 50 3d 96 0e d9 bd e5 31 8b 3d 6c 4e 06 3c
       0.050805982 -0.10598485 0.06796626 0.008197408
000090 25 ad c0 3d 07 8c 9c 3d a7 e9 b3 3d b2 57 50 3a
       0.09408025 0.076438956 0.087848 0.0007947638
0000a0 e5 87 37 3c 0c b4 ff 3d 9a 26 ff 3d 9c 14 4a bb
       0.011201833 0.12485513 0.124585345 -0.0030835038
0000b0 c7 54 ef 3d 4d 9b 95 bc de f1 90 bd 4b 46 c3 bd
       0.11686092 -0.01826253 -0.070773825 -0.09534892
0000c0 9d c6 c5 3d 72 fe 37 3b 1c ad ab bd 7f f3 03 3e
       0.09657023 0.0028075245 -0.08382627 0.12885855
0000d0 9a 7f d4 3d 61 8c 88 bd 8f 37 f2 3c fb ae ce bd
       0.103759006 -0.066674 0.029567508 -0.100919686
0000e0 4b ef 92 3c 9e 62 02 3e 24 95 46 3d a6 16 bc bd
       0.01793637 0.12732932 0.048482075 -0.09184007
0000f0 97 db 85 3d da 68 3e bc 7f 93 d4 bd d7 22 2b bd
       0.06536024 -0.011621678 -0.10379695 -0.041781273
000100 b1 5e 4e bd fc f1 92 bd 60 1e 8b bd 42 6d ce bd
       -0.050383274 -0.07175061 -0.06792903 -0.10079433
000110 70 78 bc bc 9a e6 ff 3d 53 1a c4 3d dd 35 0c 3d
       -0.023006648 0.12495156 0.095753334 0.034231056
000120 56 da 0c bd 77 46 ea 3d 39 33 9d bc 55 2c cb 3d
       -0.03438791 0.11439221 -0.019189464 0.09920565
000130 49 07 c8 bd c7 1d f4 bd 2c 40 df 3d 2e 01 68 3d
       -0.097670145 -0.11919742 0.10900912 0.05664175
000140 7e 95 d8 3d 88 0f a0 bd 6f 3f c9 bd 99 09 01 3c
       0.10575388 -0.07815462 -0.09826552 0.007875823
000150 e8 8e 97 b8 fa b2 10 3c fd 09 64 3c e6 77 63 bd
       -7.2268595e-05 0.008831734 0.013918397 -0.055534266
000160 11 04 4c 3c 7f 11 84 bc 23 c1 f3 bd 85 7e e8 bd
       0.012452141 -0.016121624 -0.11902072 -0.11352257
000170 ce 61 73 3d 82 3b c6 bd 79 61 df 3d c8 fa f2 bc
       0.059419446 -0.09679319 0.10907263 -0.029660597
000180 c0 1a 55 3d 7e ad 0a 3b 58 44 9e bd 50 83 1f 3d
       0.052027464 0.0021160538 -0.07727879 0.03894359
000190 5e c5 17 3d ad ca 0f be 29 63 da 3d de cd 2c 3d
       0.03705346 -0.14042158 0.106634445 0.042188518
0001a0 71 7d ae bd bd 64 b8 3d 84 1e 86 3c 91 5b fc bd
       -0.0852002 0.09003589 0.016371973 -0.123221524
0001b0 50 18 52 3d 71 ab a8 3b 88 5c 68 bd 6a b7 d7 3d
       0.051292717 0.0051473905 -0.05672887 0.1053303
0001c0 84 fd 34 bd 1e 00 c8 39 62 c7 a7 3c bc a9 97 bc
       -0.044187084 0.0003814706 0.020480815 -0.018513553
0001d0 79 d8 a6 3c fc 20 83 3c 20 14 a4 3b 26 13 31 bd
       0.020366894 0.01600694 0.005007282 -0.043231152
0001e0 0e 06 c4 3d 15 32 b3 3d 5f 8d b3 bc 4d 53 b6 bd
       0.09571467 0.08749787 -0.021917997 -0.08902607
0001f0 a9 2f 1d 3e 9a 7d 6a bd 56 32 89 3d ab 8b c1 bd
       0.15350212 -0.05724869 0.06699054 -0.09450468
000200 28 d7 98 3d 34 91 3b 3d 63 f9 20 3d e1 11 ac bd
       0.07462913 0.045792773 0.039300334 -0.08401848
000210 13 dd 2d bd 53 8a aa 3d e8 f2 b1 3d 75 57 9d bc
       -0.04244716 0.083271645 0.08688909 -0.019206742
000220 e5 39 df bd 38 52 45 b9 1f ee 7d 3d 85 7a f4 3b
       -0.108997144 -0.00018818013 0.061994668 0.0074608945
000230 cd 3f 7d 3b fc 92 c4 3c 29 9c c9 3d 92 73 c8 bd
       0.0038642765 0.023995869 0.09844238 -0.09787668
000240 30 34 5f 3d 82 05 a0 3d 35 f2 e0 3d 36 6a 28 bd
       0.05449313 0.078135505 0.10983697 -0.041116916
000250 c4 7d b9 bc 55 90 b0 bd 27 7c 3e bd 68 15 93 bd
       -0.022642978 -0.08621279 -0.04650512 -0.07181817
000260 1a 3b 4c bb ed bf 99 3d f8 3f b0 bd 32 c8 bb 3d
       -0.0031163157 0.0750731 -0.08605951 0.091690436
000270 78 0f cc 3d 4b 8e 8b bd 72 00 fb 3d 3e 4f 88 3c
       0.09963888 -0.068142496 0.12255944 0.016639348
000280 f9 be ef 3b 17 1b 8c bd a0 5b d3 bd 9b 71 24 bb
       0.007316467 -0.068411045 -0.103202105 -0.0025092128
000290 e9 36 6f bd b7 3f 21 3d 36 28 e7 bc 01 3f aa 3d
       -0.058401976 0.039367404 -0.028217416 0.08312798
0002a0 84 54 84 bd 27 69 b5 bb c1 c4 bd bd d8 7d e7 bd
       -0.064614326 -0.005536217 -0.092660435 -0.113033
0002b0 6b 50 1f 3d 4f 19 88 3d ae 92 fe bd 55 12 bf 3d
       0.038895052 0.06645452 -0.12430321 0.093296684
0002c0 d4 07 52 bd d3 e9 00 bd 7f 72 cf 3c 3a 4d 62 bd
       -0.051276997 -0.031472992 0.02532315 -0.05524943
0002d0 63 5a 21 3d 4f ae 80 3d 35 59 ed 3c f4 cb 1c bd
       0.03939284 0.06283247 0.028973201 -0.038280442
0002e0 82 92 e7 39 0f 5b 8a bd 56 98 65 bd 1b bd 7c 3d
       0.0004416891 -0.06755649 -0.056053482 0.061703783
0002f0 30 2e 96 bc 0f 84 91 3d 14 4b 19 3d 19 fd c4 bd
       -0.01833257 0.07105266 0.037425116 -0.09618587
000300 3c ee 32 bd 0a 3e 2b bd cf c1 3f bc 00 09 a4 bc
       -0.04368423 -0.041807212 -0.011703922 -0.020023823
000310 27 ea 4d 3c 86 fb 9f bd 0a ed b9 bd 75 e0 05 bc
       0.012568033 -0.07811646 -0.09078415 -0.0081711905
000320 51 ff 54 bd 7f ef 62 bd 69 c1 d5 3d 66 ec 72 bc
       -0.0520013 -0.055404183 0.10437281 -0.01482687
000330 43 7c cb 3d bf 55 c8 3d 1b af e4 3c 9f 23 fb 3d
       0.099358104 0.0978198 0.027915528 0.122626536
000340 d4 5a 40 3d ef 44 26 3d 81 53 94 bd da 42 56 bd
       0.04696162 0.040593084 -0.072424896 -0.05230985
000350 56 17 1d bc 8d a2 e3 bd 11 b8 0b 3d 6d c0 83 3d
       -0.009588083 -0.111149885 0.034111086 0.06433187
000360 06 39 f6 bc 82 b0 df bd 7e dd 05 3e ff bc 8b 3d
       -0.030056488 -0.10922338 0.13072774 0.068231575
000370 73 e7 50 bd 6f 0a 8d 3d 6f 17 64 3a 93 e4 d9 bd
       -0.051001977 0.06886756 0.00087010016 -0.106393
000380 ec 2a d6 3b 94 2b f9 3c 98 64 63 3d ca 7f 1c bd
       0.0065358784 0.030416287 0.055515856 -0.038207807
000390 10 a1 cf 3d c4 ed b3 bd a1 aa a8 3d 71 5b b8 bd
       0.10138142 -0.087855846 0.0823567 -0.09001816
0003a0 69 a2 f7 bc b3 1a e7 ba 2d d1 eb 3d e8 65 54 bd
       -0.03022881 -0.0017631858 0.115145065 -0.051854998
0003b0 4b b2 b8 3d d4 9b 1b bc 0e 34 b7 bd 4f 0b e2 3d
       0.09018382 -0.009497602 -0.089454755 0.11037313
0003c0 09 a9 d1 bd e5 61 09 3e a8 1a 48 bd c8 79 1c 3d
       -0.10237319 0.1341625 -0.048853546 0.038202077
0003d0 75 d7 71 bd 34 ce 5f 3d b8 5e 8e bd d8 27 91 bd
       -0.059043366 0.05464001 -0.0695166 -0.07087678
0003e0 75 7a 87 bd fe b3 2a 3d 4d c1 5b 3d 95 79 79 bd
       -0.06615154 0.04167556 0.053651143 -0.060906965
0003f0 f8 ed ed 3c 44 4f fb bb 33 07 03 3e 97 a4 ad 3b
       0.029044136 -0.0076693613 0.12795715 0.0052991617

fc3.bias f4 [4]
000000 c7 fc 04 bd 4a fe 49 3d 67 59 a2 3d f0 51 14 3d
       -0.03246763 0.049314775 0.079272084 0.036210954
