mlruns/0/44e2a422835b486ca46aae8bc68574c0/artifacts/checkpoint.pth (torch_old, 28447 bytes, 6 tensors)

fc1.weight f4 [64, 37]
0.13933253 -0.06580007 -0.00369595 0.11727794 -0.11327832 0.041258372 0.06610023 -0.20406748
0.032706656 -0.040029626 0.16354793 0.021028973 0.15465654 0.083644904 0.08268906 -0.13358665
0.15035337 -0.10298348 0.077462114 0.090468846 0.009060001 0.15825637 -0.028897392 -0.094995156
0.07018149 -0.0180644 -0.1249699 -0.10455396 -0.100396246 0.0644556 -0.111956425 0.091724835
0.15833583 -0.058804322 0.11075737 -0.00057543337 0.11322013 -0.010619062 -0.11841081 0.14337961
-0.100866735 0.055206314 0.1022627 -0.1073317 -0.15191832 0.07702812 -0.14623378 -0.13358629
0.09355613 -0.06444363 0.1075825 -0.03026308 0.02007044 -0.08523166 0.03912036 -0.1312353
-0.12544177 -0.097078644 0.031614777 -0.052400313 0.1472035 0.0099434 0.115510546 -0.076963745
0.06761152 -0.016186537 0.15934646 0.05410997 0.025511917 -0.11617043 -0.1386016 -0.039873894
0.08715133 -0.10941093 -0.082250595 -0.14482293 0.14661026 0.16162267 -0.11505728 0.018621225
-0.011029069 0.023850542 -0.099236876 -0.10825676 -0.04680997 -0.109369114 -0.009715504 -0.059601
-0.13679445 0.006718153 -0.07900503 0.051812533 0.12898429 -0.09968877 -0.053712994 -0.032423653
-0.17164734 -0.15185924 0.05959483 -0.01921484 -0.082094304 0.15634847 -0.1562357 0.14315087
-0.13947025 -0.087866165 0.06645419 -0.0076340623 -0.05771142 -0.109200545 0.04772743 0.11101309
0.037465125 0.14955477 -0.1425033 -0.15640078 -0.12201862 -0.03712428 0.044855945 -0.0083153425
-6.635635e-05 -0.11973791 -0.057382867 0.000176485 0.029295143 -0.12817058 0.09294463 -0.028750537
0.03659246 0.14259255 0.06363009 0.04914281 -0.08078866 -0.12969622 0.048937403 0.116190955
0.072372265 -0.0034857758 0.1235769 -0.065365046 -0.08492792 -0.08295768 -0.10428543 -0.037193354
-0.17620921 0.09931805 -0.14920275 -0.058212645 0.07796792 0.0067502316 -0.081162915 -0.13551234
0.10643152 0.17708136 0.025422376 -0.095968805 -0.014787422 -0.116458796 0.06950458 0.07226412
-0.0083040595 -0.08809171 0.10062142 -0.0018114853 0.066770926 0.050906688 0.094690666 -0.060633957
-0.15342051 0.023862248 -0.116443075 -0.13745102 0.13878718 0.018860804 0.10916547 0.054631256
0.13031106 0.04527608 0.13557963 -0.05597093 -0.072445735 0.013097692 -0.030092958 0.10952858
-0.008297362 0.006279376 -0.08904484 -0.16634856 0.05742229 -0.092351586 0.12527081 0.13897558
-0.116958044 -0.09522539 -0.115142696 0.14813912 -0.084551476 0.13065955 0.11810613 -0.039721854
-0.049914535 0.111068174 -0.05084413 -0.051061746 0.018455902 -0.16908208 -0.012282894 0.07255976
-0.076859325 -0.028862525 -0.120082065 -0.033861842 0.08462073 -0.03677019 -0.1326236 0.027908564
-0.12917437 0.11649872 0.0519884 -0.00017200861 -0.12527137 0.15316522 -0.14678028 0.011591689
-0.10607703 -0.120992795 0.06120804 0.14025973 0.076699965 0.12952545 0.01163786 -0.095817976
0.06314241 -0.012201035 0.0409996 0.009141871 -0.13096757 -0.038285136 0.1670647 0.13721149
0.13705297 0.06599789 0.16315214 0.04130484 0.023020482 0.0041105542 -0.047232468 0.122955054
-0.09632521 -0.028768782 0.08302794 0.011000621 -0.11403669 -0.012459816 0.10663238 -0.041683782
00000000: 30ad 0e3e 30c2 86bd c037 72bb 6b2f f03d
00000010: 77fe e7bd 8afe 283d 8f5f 873d 11f7 50be
00000020: 6af7 053d 1bf6 23bd 1c79 273e f444 ac3c
00000030: 495e 1e3e 054e ab3d e258 a93d f0ca 08be
00000040: 3cf6 193e 01e9 d2bd 75a4 9e3d bb47 b93d
00000050: 6670 143c f50d 223e 39ba ecbc d28c c2bd
00000060: 50bb 8f3d cbfb 93bc 38f0 ffbd 6320 d6bd
00000070: 8c9c cdbd 4c01 843d 6949 e5bd 3bda bb3d
00000080: ca22 223e cddc 70bd c3d4 e23d aed8 16ba
00000090: f5df e73d 93fb 2dbc 5e81 f2bd 1bd2 123e
000000a0: 3893 cebd 0420 623d 1b6f d13d b9d0 dbbd
000000b0: 7a90 1bbe ebc0 9d3d 4fbe 15be d8ca 08be
000000c0: 5b9a bf3d 06fb 83bd 3754 dc3d 47ea f7bc
000000d0: c36a a43c f08d aebd ac3c 203d 8c62 06be
000000e0: cf73 00be 2bd1 c6bd 7f7e 013d b6a1 56bd
000000f0: 84bc 163e a4e9 223c cb90 ec3d 2b9f 9dbd
00000100: e977 8a3d a199 84bc b82b 233e 6aa2 5d3d
00000110: 5efe d03c c3ea edbd 94ed 0dbe cf52 23bd
00000120: 667c b23d d612 e0bd 0073 a8bd 764c 14be
00000130: 0021 163e 6a80 253e 27a3 ebbd 8a8b 983c
00000140: 45b3 34bc 3662 c33c b43c cbbd b8b5 ddbd
00000150: d0bb 3fbd eafc dfbd c72d 1fbc 2e20 74bd
00000160: d813 0cbe f423 dc3b 64cd a1bd 6139 543d
00000170: 7514 043e a029 ccbd 2802 5cbd aace 04bd
00000180: 52c4 2fbe fd80 1bbe b519 743d 7168 9dbc
00000190: 0f21 a8bd d019 203e 40fc 1fbe 2496 123e
000001a0: 4ad1 0ebe 2df3 b3bd 2219 883d 2827 fabb
000001b0: cf62 6cbd 89a4 dfbd d67d 433d d55a e33d
000001c0: 0875 193d e324 193e 63ec 11be 8727 20be
000001d0: e6e4 f9bd a10f 18bd deba 373d 133d 08bc
000001e0: cb28 8bb8 2639 f5bd 4c0a 6bbd d50e 3939
000001f0: 5efc ef3c 263f 03be c159 be3d 3f86 ebbc
00000200: fae1 153d c803 123e 7e50 823d f949 493d
00000210: 8674 a5bd 16cf 04be 9672 483d 86f5 ed3d
00000220: e937 943d 9d71 64bb e315 fd3d 1cde 85bd
00000230: b0ee adbd b7e5 a9bd 9993 d5bd 0f58 18bd
00000240: 3070 34be 4367 cb3d 9bc8 18be 6270 6ebd
00000250: a5ad 9f3d 0c31 dd3b be38 a6bd bfc3 0abe
00000260: c5f8 d93d d154 353e 9642 d03c 4b8b c4bd
00000270: f146 72bc f381 eebd 6b58 8e3d 36ff 933d
00000280: c00d 08bc 6d69 b4bd 9a12 ce3d 5c6f edba
00000290: 32bf 883d 8883 503d 2eed c13d 505b 78bd
000002a0: 441a 1dbe c37a c33c b579 eebd f6bf 0cbe
000002b0: 3a1e 0e3e f981 9a3c 2592 df3d 06c5 5f3d
000002c0: 4370 053e 6973 393d 63d5 0a3e c641 65bd
000002d0: 6e5e 94bd b497 563c 8285 f6bc 8550 e03d
000002e0: a9f1 07bc 39c3 cd3b 245d b6bd 4757 2abe
000002f0: a333 6b3d d422 bdbd fe46 003e 9d4f 0e3e
00000300: b387 efbd 8705 c3bd efcf ebbd c8b1 173e
00000310: 5329 adbd 9ecb 053e a0e1 f13d 62b3 22bd
00000320: 2f73 4cbd b677 e33d ef41 50bd 1f26 51bd
00000330: d530 973c da23 2dbe 313e 49bc 369a 943d
00000340: 6c68 9dbd 1a71 ecbc 96ed f5bd b7b2 0abd
00000350: a24d ad3d 579c 16bd 7bce 07be 80a0 e43c
00000360: 4946 04be e296 ee3d caf1 543d 365d 34b9
00000370: 2347 00be 58d7 1c3e 924d 16be 11eb 3d3c
00000380: ea3e d9bd 12cb f7bd 48b5 7a3d 3fa0 0f3e
00000390: df14 9d3d 52a2 043e b9ac 3e3c 373c c4bd
000003a0: cf50 813d dae6 47bc 32ef 273d c9c7 153c
000003b0: 5d1c 06be e0d0 1cbd 0213 2b3e 2b81 0c3e
000003c0: 9d57 0c3e e729 873d 5b11 273e 442f 293d
000003d0: 7395 bc3c d4b1 863b d576 41bd dccf fb3d
000003e0: 2746 c5bd 82ac ebbc 8d0a aa3d f33b 343c
000003f0: 118c e9bd 4224 4cbc 1462 da3d 9dbc 2abd

fc1.bias f4 [64]
-0.051960554 -0.1118828 -0.11020789 -0.17812653 -0.09072648 0.11489632 0.11884134 -0.013551048
-0.061202846 0.15395541 0.0049919626 0.13403326 0.01935477 -0.130193 -0.16480844 -0.14135094
-0.156495 0.06392127 -0.035589274 -0.13638443 -0.06529899 0.033944614 0.076959856 -0.08920569
-0.031627472 0.10269973 -0.10866923 -0.09177435 -0.050317343 0.05964408 -0.09632822 -0.033747103
0.003034744 -0.03725706 -0.14753942 0.11635843 0.038555443 0.052017633 0.15387449 -0.0401675
-0.089140475 -0.10592052 -0.027864542 0.08094874 0.16442782 -0.090981655 0.0678617 -0.011629381
0.14638215 0.08746354 0.13933457 0.097300984 -0.079117164 -0.038048178 0.09739234 0.09799841
-0.095728874 -0.041723512 -0.15092714 -0.052390948 0.04312868 0.0001991815 -0.13694277 -0.11125291
00000000: 97d4 54bd cf22 e5bd adb4 e1bd cd66 36be
00000010: cece b9bd c34e eb3d 1763 f33d 3705 5ebc
00000020: d6af 7abd 7da6 1d3e 9e93 a33b 0440 093e
00000030: e58d 9e3c 5051 05be 8bc3 28be 4dbe 10be
00000040: 3a40 20be 28e9 823d 0fc6 11bd 5ca8 0bbe
00000050: 7abb 85bd 8209 0b3d 219d 9d3d 79b1 b6bd
00000060: cf8b 01bd 3c54 d23d f98d debd 31f4 bbbd
00000070: 8f19 4ebd 5a4d 743d bb47 c5bd 673a 0abd
00000080: 8ee2 463b dc9a 18bd 9314 17be 544d ee3d
00000090: 50ec 1d3d 7110 553d 4691 1d3e ad86 24bd
000000a0: 488f b6bd dcec d8bd 2e44 e4bc 74c8 a53d
000000b0: c45f 283e 9754 babd 13fb 8a3d 2989 3ebc
000000c0: 34e5 153e 1620 b33d b9ad 0e3e bd45 c73d
000000d0: 2e08 a2bd 68d8 1bbd a375 c73d 64b3 c83d
000000e0: 800d c4bd 46e6 2abd a58c 1abe e497 56bd
000000f0: b3a7 303d 60db 5039 ba3a 0cbe 91d8 e3bd

fc2.weight f4 [64, 64]
-0.051801607 0.015922636 -0.09534685 -0.043006912 -0.06941204 -0.038085684 0.09062649 -0.082706735
-0.007190153 0.018602505 -0.076272294 0.01925148 -0.02669394 0.10010731 0.05335042 -0.08768606
-0.10789397 0.09558287 -0.010241002 0.013339803 0.1002616 0.030803233 -0.04604742 -0.055397883
0.056536347 0.015385985 -0.10164806 0.014592394 0.08405438 0.049373433 -0.092337266 0.02669242
-0.09237361 -0.035955712 -0.043279752 0.0370387 -0.107006386 -0.09640044 0.024097398 0.04938242
0.055351898 -0.018234283 0.06027259 0.04158126 -0.008998945 -0.030103534 -0.07567039 -0.08668268
-0.07642712 -0.11162077 -0.118831396 0.022886515 0.10835184 -0.098421976 -0.091540635 0.12484445
-0.12251231 -0.0075601637 -0.027506605 -0.01738441 0.08203919 -0.108917415 0.050904647 0.09871918
0.11428351 0.08554028 -0.0053017465 0.067044705 0.042180937 -0.056705195 0.010825652 0.018917464
-0.050476342 0.09308091 0.07354247 0.07764807 0.075668536 0.10595419 -0.0055433414 -0.11783759
-0.10051791 -0.06080201 0.0013779375 -0.08192736 -0.024808183 -0.08401577 -0.11740141 -0.083541155
-0.010040932 -0.11805613 0.10127642 -0.09523579 0.10140278 0.030269668 -0.04474641 0.11004453
0.07869912 0.052365735 0.0030422695 -0.08418898 -0.053727496 0.02491235 0.018918287 0.083922654
-0.05266958 0.06540071 0.093891665 -0.11440504 -0.031782344 -0.06168215 0.053973418 -0.116463624
-0.08642998 -0.033420436 0.03950441 -0.018276772 -0.058857895 -0.07580729 -0.12934604 -0.035505116
0.0276879 0.0707607 -0.10575136 -0.10599136 -0.090683125 -0.0769526 -0.09409286 0.050840817
0.1205217 -0.067445666 -0.036224626 -0.03214524 0.109379604 0.080962904 0.037889045 -0.099664025
0.04312745 -0.022272287 -0.043885987 0.120115824 -0.08592552 0.0026607916 -0.1125596 0.08756117
-0.056980744 0.1186556 0.035100445 0.12840112 -0.07307082 -0.055018835 0.038966652 0.095486805
0.06933392 0.10940572 0.08413017 0.07896446 0.09470668 0.092128344 0.08170659 0.07935809
-0.10016901 -0.099634625 -0.09838462 0.094015546 0.089948095 -0.0977605 -0.050473973 0.08189714
-0.026761012 -0.12690121 0.046440516 -0.08713494 0.018090062 -0.06135428 0.06937926 0.014473815
-0.060909685 0.04925693 0.00782035 -0.097717024 0.0049578133 0.050057307 0.04080094 0.024631368
-0.050307058 0.094410874 -0.07779049 -0.078661196 0.043081872 -0.026946984 0.06940561 0.12055095
-0.0443862 0.08263218 0.072698176 0.027864408 -0.09427137 -0.12937939 -0.12850125 -0.08148062
0.020187518 0.07346969 -0.03052681 0.07954489 -0.08734573 -0.105891496 -0.026099661 0.015145517
-0.09187212 0.007885557 -0.101549365 0.081468366 -0.036634617 -0.10533994 0.038003586 0.007385941
0.047517795 0.03646625 -0.12991443 0.024063287 0.088154994 0.024500648 0.08291745 0.026397523
0.09123441 0.08039569 -0.04017421 0.058525827 0.03217414 0.02970422 -0.007648017 -0.061023958
0.054171037 -0.08494779 0.0458337 -0.040684436 0.024830455 -0.044875618 0.09074166 -0.101630755
0.08003582 -0.12486808 -0.0013871596 -0.1263932 -0.047077388 -0.028078401 0.010618977 0.0077310805
-0.0418443 0.034474418 0.0741488 0.07902904 0.0646965 0.10025289 -0.023496829 -0.11773276
00000000: ec2d 54bd 3070 823c 3645 c3bd 0428 30bd
00000010: e627 8ebd bcff 1bbd 629a b93d 2662 a9bd
00000020: 609b ebbb 4864 983c a634 9cbd 48b5 9d3c
00000030: 40ad dabc 1005 cd3d f885 5a3d c094 b3bd
00000040: 84f7 dcbd f4c0 c33d e0c9 27bc 308f 5a3c
00000050: f455 cd3d 1057 fc3c 389c 3cbd e4e8 62bd
00000060: a892 673d 8015 7c3c dc2c d0bd f014 6f3c
00000070: b424 ac3d cc3b 4a3d 521b bdbd 10aa da3c
00000080: 602e bdbd 4c46 13bd 1c46 31bd e4b5 173d
00000090: 2a26 dbbd 986d c5bd e867 c53c 3845 4a3d
000000a0: acb8 623d 1060 95bc 64e0 763d 1c51 2a3d
000000b0: 5070 13bc b09b f6bc 14f9 9abd b086 b1bd
000000c0: d285 9cbd 6e99 e4bd e05d f3bd 807c bb3c
000000d0: 92e7 dd3d 7691 c9bd a879 bbbd 72ae ff3d
000000e0: bce7 fabd 40bb f7bb 8855 e1bc c069 8ebc
000000f0: 2a04 a83d 1810 dfbd 6481 503d 482d ca3d
00000100: 790d ea3d be2f af3d 46ba adbb bc4e 893d
00000110: ebc5 2c3d b543 68bd 135e 313c ccf8 9a3c
00000120: 48c0 4ebd 34a1 be3d 6f9d 963d f405 9f3d
00000130: 1bf8 9a3d 83fe d83d eba4 b5bb d654 f1bd
00000140: 56dc cdbd 870b 79bd e99b b43a 88c9 a7bd
00000150: 883a cbbc 7610 acbd 2770 f0bd a017 abbd
00000160: b982 24bc 6ac7 f1bd 036a cf3d fb0a c3bd
00000170: 43ac cf3d 18f8 f73c 0348 37bd 075f e13d
00000180: 012d a13d 747d 563d d060 473b 466b acbd
00000190: 5d11 5cbd fc14 cc3c 86fa 9a3c a4df ab3d
000001a0: 0fbc 57bd cff0 853d 464a c03d 314d eabd
000001b0: 342e 02bd 6ca6 7cbd 3b13 5d3d 7b84 eebd
000001c0: 3402 b1bd dee3 08bd 60cf 213d 2bb9 95bc
000001d0: fa14 71bd da40 9bbd 4a73 04be d06d 11bd
000001e0: bcd1 e23c fcea 903d 2b94 d8bd 0012 d9bd
000001f0: 13b8 b9bd 5399 9dbd c2b3 c0bd 763e 503d
00000200: 15d4 f63d f420 8abd 4660 14bd baaa 03bd
00000210: 6a02 e03d e1cf a53d 8b31 1b3d a71c ccbd
00000220: 69a6 303d 5f74 b6bc cbc1 33bd 49ff f53d
00000230: b8f9 afbd ad60 2e3b a685 e6bd 4553 b33d
00000240: a464 69bd b501 f33d 7cc5 0f3d 957b 033e
00000250: 27a6 95bd 6e5b 61bd 7f9b 1f3d 968e c33d
00000260: f1fe 8d3d 1b10 e03d 704c ac3d 1eb8 a13d
00000270: 93f5 c13d c9ad bc3d c955 a73d 7f86 a23d
00000280: 6925 cdbd 3d0d ccbd e07d c9bd 398b c03d
00000290: b536 b83d a836 c8bd ccbd 4ebd b0b9 a73d
000002a0: e939 dbbc 64f2 01be 6938 3e3d ce73 b2bd
000002b0: 9c31 943c a04e 7bbd b716 8e3d 9523 6d3c
000002c0: 6f7c 79bd a2c1 493d ed20 003c dd1f c8bd
000002d0: 2775 a23b e408 4d3d e31e 273d b9c7 c93c
000002e0: c60e 4ebd 7d5a c13d 9f50 9fbd 1f19 a1bd
000002f0: 9e76 303d ecbf dcbc 8724 8e3d 6be3 f63d
00000300: 4ece 35bd 0f3b a93d c8e2 943d e643 e43c
00000310: 5911 c1bd 087c 04be d595 03be 50df a6bd
00000320: 4b60 a53c 4777 963d 5c13 fabc 6ee8 a23d
00000330: 51e2 b2bd a4dd d8bd f5ce d5bc e724 783c
00000340: 7327 bcbd 6c32 013c 1df9 cfbd e3d8 a63d
00000350: 2e0e 16bd 77bc d7bd a6a9 1b3d c405 f23b
00000360: 05a2 423d a25d 153d 4a08 05be 5f20 c53c
00000370: 9b8a b43d 95b5 c83c a0d0 a93d 9e3f d83c
00000380: 1bd9 ba3d 7fa6 a43d b68d 24bd c7b8 6f3d
00000390: 08c9 033d 4456 f33c 379c fabb 42f4 79bd
000003a0: 73e2 5d3d 1bf9 adbd 1ebc 3b3d b9a4 26bd
000003b0: 3d69 cb3c 7fcf 37bd c3d6 b93d c923 d0bd
000003c0: d2e9 a33d d6ba ffbd 5ad1 b5ba 386d 01be
000003d0: 38d4 40bd ad04 e6bc 38fb 2d3c 0155 fd3b
000003e0: ee64 2bbd 0c35 0d3d 53db 973d fad9 a13d
000003f0: 997f 843d 6351 cd3d 6c7c c0bc e01d f1bd

fc2.bias f4 [64]
-0.093397215 0.090041585 0.011163889 -0.02546769 0.045524266 -0.087840006 0.066613615 0.082836665
0.006999674 0.08035563 -0.00985754 -0.10183641 -0.08046725 -0.048250843 0.05278082 -0.07434067
0.09660512 -0.039373446 0.037794765 -0.023692526 0.045110878 -0.097143225 0.0274629 -0.088129215
0.089112595 -0.10114932 -0.023057848 -0.08943136 0.09787028 0.07586888 -0.048354186 -0.08716881
0.03494671 -0.048353765 -0.085339144 0.014921147 -0.08605039 -0.06601052 -0.05514458 -0.08160151
-0.085208744 -0.06279669 0.018875724 0.035264138 -0.051328696 0.10904218 -0.11462462 0.04915553
-0.017275777 -0.10177224 0.043773714 0.14346325 0.012680583 -0.046125133 0.059853125 -0.03527686
0.072633654 0.051040236 0.017716296 -0.03061932 0.033014745 0.03446371 0.04487438 -0.0643725
00000000: 0a47 bfbd b967 b83d bfe8 363c 9ea1 d0bc
00000010: a777 3a3d 76e5 b3bd b86c 883d 45a6 a93d
00000020: 855d e53b 7e91 a43d 8581 21bc 9c8f d0bd
00000030: 03cc a4bd ada2 45bd b330 583d ec3f 98bd
00000040: e8d8 c53d 0d46 21bd afce 1a3d d416 c2bc
00000050: 2fc6 383d 07f3 c6bd e0f9 e03c 177d b4bd
00000060: aa80 b63d 6027 cfbd d0e3 bcbc ca27 b7bd
00000070: 3770 c83d 2561 9b3d 0a0f 46bd 9085 b2bd
00000080: 4824 0f3d 990e 46bd 4ac6 aebd d477 743c
00000090: 303b b0bd 8630 87bd 48df 61bd b11e a7bd
000000a0: ec81 aebd 8d9b 80bd 43a1 9a3c 2171 103d
000000b0: 0a3e 52bd 8251 df3d 50c0 eabd 4f57 493d
000000c0: ee85 8dbc f76d d0bd 114c 333d 08e8 123e
000000d0: 38c2 4f3c b5ed 3cbd 8d28 753d 787e 10bd
000000e0: f4c0 943d 910f 513d c421 913c 5ed5 fabc
000000f0: 783a 073d d229 0d3d 33ce 373d bbd5 83bd

fc3.weight f4 [4, 64]
0.11756566 -0.011107192 0.11637029 -0.10225749 -0.073746495 -0.004277006 0.04396455 -0.0507195
0.037843544 -0.001730431 -0.049394365 0.07837713 -0.08906584 -0.05186564 -0.04332305 -0.06203212
-0.08002305 -0.056154106 0.12575468 -0.057385102 0.06111813 -0.0044004857 0.027582573 0.036882117
-0.055418026 0.084362745 -0.09793376 0.045489814 0.11825338 -0.056257375 0.076975524 -0.09664667
0.05564515 -0.113402285 0.07232236 0.015811685 0.09644918 0.07421653 0.10713633 0.0029022426
0.014321363 0.13015494 0.12818609 -0.0020049051 0.10158973 -0.014596345 -0.070773825 -0.09376445
0.104408614 -0.00056562654 -0.08184398 0.13701443 0.0993676 -0.0639428 0.040050548 -0.106195435
0.022174483 0.100446545 0.053167477 -0.11082756 0.07506579 -0.0075268312 -0.10605831 -0.049653593
-0.08051446 -0.06599419 -0.062276933 -0.08719052 -0.014526329 0.12495156 0.07857572 0.038541224
-0.0028644516 0.11649464 -0.015366205 0.103226185 -0.100792885 -0.1173499 0.076378845 0.0368034
0.09493834 -0.07287397 -0.09633968 0.017500514 -0.025548609 0.02034805 0.023651993 -0.061555225
0.011132251 -0.010666141 -0.11782833 -0.11460033 0.105531886 -0.095558114 0.0812256 -0.028783722
0.04715218 -0.014412933 -0.08161517 0.02944533 0.02512461 -0.12244823 0.11864152 0.012263048
-0.09839325 0.06311244 0.014500509 -0.10959571 0.06531623 0.009397879 -0.05672887 0.1007737
-0.077619046 0.004149636 0.021778906 -0.011673256 0.029492818 0.012070745 -0.021403903 -0.035872336
0.07190587 0.090719655 -0.026753938 -0.08142545 0.12087614 -0.05583736 0.06988301 -0.060513895
0.06171094 0.050768718 0.04679161 -0.089099415 -0.042829134 0.081286624 0.087912925 -0.015101107
-0.114314064 0.01837423 0.08711999 0.0025365069 0.010623088 0.008248945 0.106403634 -0.10086337
0.0606201 0.08392841 0.10517129 -0.05282982 -0.025172383 -0.08691451 -0.039587352 -0.07242506
-0.009075133 0.08387246 -0.098921984 0.09139219 0.098142 -0.073183216 0.11970748 0.01768861
0.01619672 -0.062523 -0.10808177 -0.0009255449 -0.04386369 0.040486176 -0.017276868 0.09415198
-0.040360086 -0.0060757482 -0.08336063 -0.09703604 0.030647987 0.07512334 -0.12430321 0.10040607
-0.038450796 -0.02895345 0.02316282 -0.046894718 0.035972632 0.063493155 0.05459517 -0.02661205
0.030999748 -0.09432461 -0.048688907 0.0586611 -0.017051313 0.07218317 0.040176306 -0.08508137
-0.02454856 -0.040036056 -0.0046814545 -0.015832514 0.02040982 -0.07811646 -0.09319464 -0.01611849
-0.069105394 -0.063575916 0.11015144 -0.0057528983 0.0972705 0.08688621 0.03297896 0.11715974
0.038854644 0.03602982 -0.06311377 -0.07046424 -0.012638073 -0.12153458 0.042824112 0.07057006
-0.044440296 -0.10162564 0.12746365 0.09245483 -0.04346815 0.0668568 0.0031899647 -0.099433236
0.015305138 0.001256853 0.08042503 -0.032604445 0.10178713 -0.07952605 0.07851529 -0.0859634
-0.055284947 -0.0043153227 0.124333926 -0.051145364 0.08068884 -0.0022476383 -0.089454755 0.108169705
-0.09179786 0.117725156 -0.0532 0.05197737 -0.044760194 0.043763783 -0.061596677 -0.07619219
-0.059644286 0.03426534 0.059657745 -0.07757042 0.017263876 -0.00713182 0.1309893 0.014431596
00000000: 44c6 f03d f1fa 35bc 8c53 ee3d 606c d1bd
00000010: 6708 97bd 2026 8cbb 2c14 343d 40bf 4fbd
00000020: d501 1b3d a1cf e2ba bf51 4abd 3084 a03d
00000030: 2768 b6bd 1171 54bd 8373 31bd 6415 7ebd
00000040: 20e3 a3bd d901 66bd d6c5 003e a40c 6bbd
00000050: 0157 7a3d f331 90bb d9f4 e13c b411 173d
00000060: 03fe 62bd 60c6 ac3d 7f91 c8bd 8753 3a3d
00000070: d42e f23d 226e 66bd 58a5 9d3d b0ee c5bd
00000080: 2bec 633d 753f e8bd bf1d 943d 8287 813c
00000090: 2687 c53d d6fe 973d 4b6a db3d 8d33 3e3b
000000a0: 26a4 6a3c 5647 053e 3743 033e ba64 03bb
000000b0: 470e d03d 8225 6fbc def1 90bd 9307 c0bd
000000c0: 2fd4 d53d 8e46 14ba d19d a7bd 834d 0c3e
000000d0: 3e81 cb3d 71f4 82bd 0b0c 243d fe7c d9bd
000000e0: 43a7 b53c ebb6 cd3d 24c6 593d 8ff9 e2bd
000000f0: 18bc 993d a3a3 f6bb 1935 d9bd 9161 4bbd
00000100: c4e4 a4bd f627 87bd 1916 7fbd f190 b2bd
00000110: d7ff 6dbc 9ae6 ff3d 4fec a03d 67dd 1d3d
00000120: 86b9 3bbb be94 ee3d 89c2 7bbc 4068 d33d
00000130: 806c cebd 2555 f0bd 836c 9c3d 29bf 163d
00000140: 086f c23d f33e 95bd bd4d c5bd 3d5d 8f3c
00000150: 514b d1bc f4b0 a63c d3c1 c13c 5521 7cbd
00000160: 0b64 363c 0ac1 2ebc fb4f f1bd 94b3 eabd
00000170: 1a21 d83d f9b3 c3bd 9b59 a63d d7cb ebbc
00000180: a522 413d 3924 6cbc db25 a7bd 5537 f13c
00000190: 20d2 cd3c 23c6 fabd 53fa f23d f4ea 483c
000001a0: 6682 c9bd 1841 813d 8b93 6d3c b773 e0bd
000001b0: 84c4 853d 90f9 193c 885c 68bd 7162 ce3d
000001c0: bcf6 9ebd abf9 873b ad69 b23c 2f41 3fbc
000001d0: ec9a f13c 60c4 453c 3d57 afbc dfee 12bd
000001e0: 6343 933d 3acb b93d 132b dbbc 63c2 a6bd
000001f0: e98d f73d b7b5 64bd d31e 8f3d 6bdd 77bd
00000200: 9cc4 7c3d dcf2 4f3d 8fa8 3f3d c179 b6bd
00000210: 9a6d 2fbd 9a79 a63d b10b b43d a26a 77bc
00000220: 7e1d eabd 8e85 963c f76b b23d 863b 263b
00000230: 760c 2e3c 9526 073c 26ea d93d 7491 cebd
00000240: c84c 783d a9e2 ab3d 0c64 d73d 1564 58bd
00000250: 5036 cebc 3c00 b2bd 5926 22bd 9753 94bd
00000260: deaf 14bc 53c5 ab3d 9c97 cabd d42b bb3d
00000270: acfe c83d 15e1 95bd 3229 f53d b4e7 903c
00000280: fcae 843c 0f0c 80bd fa59 ddbd 44a0 72ba
00000290: 6aaa 33bd d5d4 253d 3888 8dbc c1d2 c03d
000002a0: 9e50 25bd 1217 c7bb fab8 aabd d5ba c6bd
000002b0: 7d11 fb3c 44da 993d ae92 febd b3a1 cd3d
000002c0: 957e 1dbd c92f edbc f4bf bd3c ad14 40bd
000002d0: 0a58 133d b308 823d 2f9f 5f3d 8401 dabc
000002e0: 2ff3 fd3c 432d c1bd 056e 47bd 9f46 703d
000002f0: 32af 8bbc c5d4 933d e98f 243d 243f aebd
00000300: 101a c9bc d9fc 23bd e366 99bb 30b3 81bc
00000310: 7f32 a73c 86fb 9fbd d5dc bebd ec0a 84bc
00000320: 2187 8dbd 1734 82bd 1497 e13d cf82 bcbb
00000330: c235 c73d 66f1 b13d f214 073d 72f1 ef3d
00000340: 0c26 1f3d 0194 133d cb41 81bd 8e4f 90bd
00000350: ec0f 4fbc 1fe7 f8bd 5668 2f3d 0987 903d
00000360: 0707 36bd 1b21 d0bd d585 023e f558 bd3d
00000370: a90b 32bd 38ec 883d ba0e 513b a7a3 cbbd
00000380: 67c2 7a3c fdbc a43a e1b5 a43d 3d8c 05bd
00000390: c575 d03d 8ede a2bd a0cc a03d 940d b0bd
000003a0: 7872 62bd 8d67 8dbb c9a2 fe3d cd7d 51bd
000003b0: 3140 a53d 1d4d 13bb 0e34 b7bd 1488 dd3d
000003c0: 8400 bcbd e319 f13d 3ee8 59bd 39e6 543d
000003d0: 7756 37bd a741 333d cc4c 7cbd a70a 9cbd
000003e0: 914d 74bd d059 0c3d ae5b 743d 3edd 9ebd
000003f0: f96c 8d3c 0bb2 e9bb 0f22 063e 8072 6c3c

fc3.bias f4 [4]
-0.027574722 0.03670646 0.08654034 0.045622278
00000000: 62e4 e1bc 8359 163d 103c b13d 6dde 3a3d
