mlruns/0/6844a726e563437a967606ee3c4e38f0/artifacts/checkpoint.pth (torch_old, 28447 bytes, 6 tensors)

fc1.weight f4 [64, 37]
00000000: ff69 2b3e 2c9e 74be 3b5f c43d dc63 503e
00000010: 0869 d9be 3cd8 293e 7879 e7bc e4c9 c6bd
00000020: be02 1ebf cf2b a7bf f34e d73d d63e 35bc
00000030: ce5a 3b3e f85b a63e a64a e83d b985 c53c
00000040: cec4 31be 75d5 7cbe 6dea 863e e4f0 cc3e
00000050: 3b28 393e 0fe4 3abe 61ad 543b 6ff6 12bd
00000060: cd92 443e 713c 673c 5711 893d cdc8 36be
00000070: bece a13d c13c 983e 382c 5a3b 2577 043e
00000080: 0e6c c9bd 81fa c3bb b834 5bbd f9c5 b43c
00000090: c59d 60bc bd95 b23e f322 1ebf 636a 89be
000000a0: 3028 11be 8826 a0be fdf3 303e 40ab cbbe
000000b0: 387f 1b3d 2f10 11be 30bd b3bd cea8 33bd
000000c0: ba0a 603e 87d5 7abe 65ff dbbc a212 9bbe
000000d0: 0f95 963e ffad 17bf ccef d7bd e17d 48be
000000e0: 5347 e4bc ee9d 80bc ce9f eb3d e0fd e3bd
000000f0: 226a 97be 4e64 5c3d 302f 73bc 592f 03be
00000100: 81ca d23d 55f0 e73d 4770 ca3e 67b9 c4be
00000110: 0fbc e63b a0f7 f83c a5c3 b6bd 5b4c 48be
00000120: e0f9 cebc c44d 02be 6fca cbbd 80bc cbbe
00000130: 55bb 80be 16c4 a9be e32c c9be d8b1 6abf
00000140: 0d21 debe 3dfb 9d3e e111 25bf 4b33 ecbf
00000150: 285b f13d d42b f5be 70d0 733b cf23 a5be
00000160: 7521 0cbf 6cf9 a4be 5c15 1fbf d4d8 acbe
00000170: 10a1 283e df96 babe a16e eabe 877b d9be
00000180: 7dce 423e e6e8 e8be bc1f 21c0 17ec f33d
00000190: 0613 1ebe 289e 72bd fd15 43bf 131a 1dbe
000001a0: 3a81 07bf 8618 84be 3c1d e83e 9d1d 4bbf
000001b0: 1f52 76c0 3bee 75be 6dfb 933d 8433 df3c
000001c0: 85f8 c4bc 9ecb ac3e fe6c 6abf 27f7 febe
000001d0: 3681 d53b 801d 05bd f506 a2bc d8de b7be
000001e0: 59d1 15be 82fb e63a 8cd6 8cbd 3043 d5bd
000001f0: cecf 6abf 6639 dabf 3262 b43e 0dd4 02bf
00000200: 4b03 2ebe 9a6e 47be 6522 643e 7e86 68bd
00000210: b841 2bbf aa0b 8c3e b452 f1be 9802 4ebf
00000220: 2c32 483e 6e25 53be d589 2ebf 4ce9 af3e
00000230: 7182 2a3c ecc6 b5bd 1da5 89be 5f9f 493e
00000240: 1e83 6abf f0e3 39be 388e 173d d109 85bd
00000250: b351 d73c e847 533d 9121 d83b 5760 5abe
00000260: 6c00 2dbe 5dc4 3f3e 52d9 4a3e 890b 19bf
00000270: 3d58 a5be 54b0 a3be c3e0 413e a0fb 79bc
00000280: 033f 0fbf 9f0c 7dbd dbca 16bf 366a 133e
00000290: 1c64 8fbe 3220 50bd e98a 89bd dbe7 0c3e
000002a0: 70d6 83be c0b6 86bb 7f78 36be 4d7f 4ebd
000002b0: 8f2b 1e3f 6d75 4abd 3c41 49be fd5d b6be
000002c0: 8593 a73d 8165 c63e 80d5 483e f55e 7cbe
000002d0: 355f 9bbe 02cf 96bb 4b4c 463e cf81 c1bc
000002e0: 8b91 4c3a c012 73be f096 3dbe 3546 17be
000002f0: 2e78 a8be 9f0f 13be 6b7a fbbe 5090 fabc
00000300: 0dc7 b43d c9c4 953c 88a1 6cbe 153a 62be
00000310: 5517 393c a4db c7bd 7ad7 1dbc 9655 56be
00000320: 85d1 fbbd b874 ebbd 2319 5abe 9b34 e6bd
00000330: 1408 3cbe 16a9 a2be d3c5 563d beb8 ccbe
00000340: 21f3 5fbe 0dd4 debe 2d74 61be 1aee 0fbe
00000350: 18c5 73be 0810 3bbe 6629 10be bbc2 64be
00000360: 343c 61bd 6f5c d6bc 3503 44be fdc1 16bf
00000370: 0b2e 983d e9f0 383e bd09 c0bd a0e5 a7bc
00000380: 2284 cebd 908a bbbd 10cc 643c e35e 933e
00000390: 13d8 353e dd9d c2bd d483 aebe 3699 0abf
000003a0: 5cc2 053e c6b5 afba a81c 573d 9557 3bbd
000003b0: df04 3ebe c869 b13d cb18 7b3e 872b 553e
000003c0: 1ccf 0a3d 19f3 4e3e a4ea 3c3e 0848 2d3b
000003d0: e7a6 7f3d f55b 83bc 80e4 82be 99cf 383e
000003e0: 7b7c 1ebd 8429 b0bd 3c1e 3a3d e9ad 933c
000003f0: 27a0 29be 5608 24bd 0e9d 243d 305f 5d3e
0.16739653 -0.23888463 0.09588476 0.20350593 -0.42462945 0.16586393 -0.028256163 -0.09706476
-0.61722934 -1.3060244 0.10513105 -0.011062345 0.18296358 0.32492042 0.11342363 0.024111615
-0.17360231 -0.24690802 0.26350728 0.40027535 0.18081753 -0.1825106 0.0032451975 -0.03587955
0.19196625 0.014113531 0.066927604 -0.17850037 0.07900761 0.29733852 0.0033290517 0.12936075
-0.09835063 -0.00598079 -0.053517073 0.022067057 -0.01370949 0.34879866 -0.6177208 -0.2683898
-0.14175487 -0.31279397 0.17280574 -0.3977909 0.037963122 -0.1416633 -0.08776319 -0.043862157
0.21879092 -0.24495517 -0.02685518 -0.30287653 0.29410598 -0.5924987 -0.105437845 -0.19579269
-0.027866041 -0.015700307 0.1150509 -0.11132407 -0.2957316 0.053806596 -0.014842793 -0.1281103
0.10292531 0.113251366 0.39538786 -0.384227 0.0070414613 0.030391514 -0.08924035 -0.19560377
-0.025265634 -0.12724978 -0.099507205 -0.39792252 -0.25142923 -0.33157414 -0.39292058 -0.9167762
-0.4338459 0.30855742 -0.64480406 -1.8453153 0.11784965 -0.47885 0.0037203096 -0.32253882
-0.5473855 -0.32221544 -0.62141967 -0.33759177 0.1646769 -0.3644323 -0.45787528 -0.42477056
0.19024082 -0.45490187 -2.517562 0.11910265 -0.15436944 -0.05923286 -0.76205426 -0.15341978
-0.5293156 -0.2579996 0.45334804 -0.7934206 -3.8487623 -0.24016659 0.0722569 0.027246244
-0.024044285 0.33749098 -0.9157256 -0.49797937 0.0065156473 -0.032498837 -0.019778708 -0.35912204
-0.14630641 0.0017622563 -0.06876859 -0.104132056 -0.91723335 -1.7048767 0.35231167 -0.51104814
-0.16993444 -0.19475785 0.22278745 -0.056768887 -0.66897154 0.2735265 -0.4713341 -0.8047271
0.19550389 -0.20619747 -0.68179065 0.3435768 0.010407076 -0.08875832 -0.26883784 0.19689701
-0.9160632 -0.18153358 0.037000865 -0.06496013 0.026284074 0.051582247 0.0065957983 -0.21325813
-0.16894692 0.1872725 0.19809464 -0.59783226 -0.32293883 -0.31970465 0.18933396 -0.015257746
-0.55955523 -0.061779615 -0.5890328 0.14395985 -0.28006065 -0.050811954 -0.06715948 0.13760321
-0.2574954 -0.004111141 -0.17819403 -0.050414372 0.61785215 -0.049428392 -0.19653791 -0.35618582
0.08182434 0.38749316 0.19612694 -0.24645598 -0.30346075 -0.004602314 0.19365041 -0.023621468
0.000780367 -0.23737621 -0.1851461 -0.14772876 -0.3290419 -0.14361428 -0.49116835 -0.030586392
0.088270284 0.018282311 -0.23108494 -0.22092469 0.011297067 -0.0975869 -0.009633893 -0.20931086
-0.12295822 -0.11496872 -0.21298651 -0.112405024 -0.18362457 -0.31769627 0.052434754 -0.39984697
-0.2187009 -0.43521157 -0.22016974 -0.14055672 -0.23805654 -0.18267834 -0.14078292 -0.22339909
-0.054989055 -0.026167123 -0.19141848 -0.5888975 0.07430657 0.1806065 -0.093768574 -0.020495236
-0.10083796 -0.09157288 0.013964668 0.2878333 0.17758207 -0.09502766 -0.34084952 -0.5414003
0.13062423 -0.0013405613 0.052517563 -0.04573782 -0.18556546 0.08662754 0.24521177 0.20817386
0.03388892 0.20209922 0.18448883 0.002644064 0.06241503 -0.01603506 -0.25564957 0.18047942
-0.038692933 -0.086016685 0.04543899 0.018027263 -0.16565 -0.040047012 0.04018884 0.21618342

fc1.bias f4 [64]
00000000: 0191 b9bd 97d1 40be ed82 c43d 4a20 edbc
00000010: d397 2bbe 51f6 25be a285 0c3e 2f5c 383d
00000020: b115 cfbd 22ce c53d 4f54 eebd 6a1f 2d3e
00000030: 2882 b73d 63ef 49be 6fb6 80be b466 48be
00000040: 29f9 45be 84f9 b03e 0798 2fbd 0e09 50be
00000050: eaca cb3d 7e61 5f3d b900 95bd 051a 87bd
00000060: 909e c6bb ab0d e83c a0f7 93be a6e0 03be
00000070: 8d26 cf3d 63ac 343c 251d 22be bf21 e6bc
00000080: 0408 c9bd ddba 08bd 1ef7 e53c 7600 603e
00000090: 8177 34bc c02a 963c fc65 fb3d 62a2 953c
000000a0: 8d23 043d e58f ccbc 5a1e 17bd 4f5a 973d
000000b0: 5c5d b83d 4aab d9bd 6586 963d 42a7 bcbd
000000c0: 4646 113d 1e04 b13d 27f6 b03d c39e 7b3d
000000d0: 62b5 a13c 237b e43d 222d 2c3d fc5f 773e
000000e0: b942 b9bd 3a7c 073e eee9 aebe 2018 d1bd
000000f0: 941a abbd c3ac 1abe c0ed 4abc 6f06 b33d
-0.090608604 -0.18829952 0.095952846 -0.02894606 -0.16757135 -0.16207244 0.13722852 0.045009788
-0.10111559 0.09658457 -0.11637174 0.16906515 0.08960372 -0.19720225 -0.25139186 -0.19570428
-0.19333328 0.34565365 -0.042869594 -0.20315954 0.09950812 0.054536335 -0.072755285 -0.0659676
-0.0060613826 0.02832683 -0.2889986 -0.12878665 0.10114775 0.011027428 -0.1583143 -0.028092263
-0.09815982 -0.03338133 0.028071936 0.21875176 -0.01101482 0.018330932 0.12275311 0.018265907
0.032260466 -0.024970958 -0.03689418 0.07390272 0.09002182 -0.10628374 0.073498525 -0.092115894
0.03546741 0.086433634 0.086407 0.061430704 0.01973981 0.11156299 0.04203523 0.24157709
-0.090459295 0.13230982 -0.3416285 -0.102096796 -0.08354679 -0.15104966 -0.012385786 0.087414615

fc2.weight f4 [64, 64]
00000000: def3 32bf 1e01 10bf 7aac 06bc c2b4 49bd
00000010: 7f2a 25be 820f 77be 05cb 6f3d 69c1 c6bd
00000020: a355 99be 657d e4be 2754 12bf c809 c1bb
00000030: 595a 05bf f49c 2cbe d330 303c cc44 cdbe
00000040: 46f4 04be 59a8 003d 7789 d5be 3d5e 1dbf
00000050: f254 8a3c 2d1b 97be a6a8 e8bd ee14 ef3d
00000060: 361b 3bbf 08b2 57be 5cee 0bbe 708c c3be
00000070: f4b0 10bc 24d0 6f3d f049 94be 4b16 a2be
00000080: 35f0 e1bd dc44 afbd 47c1 49be b997 91be
00000090: ee3f d2be 4042 29bf 1903 25be d72b fabe
000000a0: 97f6 f3bd ef7f 373e da87 07be 627f 0bbf
000000b0: 1600 54bd 1e13 3ebd 0edc 18bf 8184 5ebc
000000c0: acb7 35be 763d c9be 93fd 2abf 62e4 d7bc
000000d0: 1e30 77be 0160 cebe 29c4 0f3d a1ab 563e
000000e0: 8ce0 1fbf ed18 afbe 8879 edbe 9f58 e7be
000000f0: 40d7 0abf e61d 41be a53c 92be 6aec af3d
00000100: e4d2 b23c 0e9a 1a3f 25ed 963e c358 463f
00000110: 5899 8c3d 545a 993e 669c 0cbe 1b6e f13d
00000120: e702 a6bd b2dd 413d 3b86 c4be df2c 673e
00000130: fecb 32be d0b2 613e 1521 67bc f3eb d6be
00000140: 112e 6abe 65cf f6bc 432a c0be 8b14 dc3d
00000150: 56b3 d7be 5a6d 323e 1968 76bd 7622 543b
00000160: 964d 3dbe 2f30 cdbe bd0a 9f3e b899 4d3d
00000170: e838 ffbd 8792 fb3d a529 de3d f286 ad3e
00000180: e8ba 883e 4c7e 75be 4ad5 dabe 0779 31be
00000190: e16c 31be eb2d f1bd df4c d63c 79f0 273e
000001a0: 393e 11bd a711 62be ee30 8c3d b4a9 1dbe
000001b0: 92ba 27bf d4e8 63bb 01b5 a93e 2e6e 563c
000001c0: e414 9c3c 753b d5be 677e 563d 6885 273d
000001d0: 8d8a 963e a087 553d 4967 ae3e b9fa 4cbe
000001e0: a3ce 623c 578c 53be 6e20 cbbe 69aa 8ebd
000001f0: 7f7f 983c c9af 14be fc02 c0be 39d6 8f3e
00000200: 0530 1e3e 71ee ea3c 4d83 f6bc ded2 cdbd
00000210: c802 6f3d 77fa 093b 7f6b c13d 0a18 bdbe
00000220: 1bb8 04be f0a4 eabc ef2e 5ebe 7a8c a03d
00000230: 8e26 44be 7115 b7bd 4cf8 dfbd deb2 3f3e
00000240: faec 513e 0c3c 053e 3c2e 703c aaf1 963d
00000250: 05d3 7cbd 902d 123e 35f6 43bc 4813 6cbd
00000260: 1a93 0bbe 788f 0a3e 8c23 b83e 11bb 49be
00000270: 2adf 833e 38a7 51be aa6b ab3d cee7 1abe
00000280: 5a46 b0bd 85cd d6be 1494 03bf 8283 803e
00000290: 9d34 21bd ffc6 d5bd 141f 11be 6e60 f33e
000002a0: 5192 10bf 3641 90be 9234 e63c cfb5 ee3d
000002b0: c062 2fbc fae8 0cbe 3794 04bf 5501 fb3c
000002c0: d5cb 52bd b11c 673d 9d3d 85be 9f9d 96be
000002d0: 57ff 24be a61b bb3e 4c3e ab3e 03f6 8fbe
000002e0: 22a5 bdbc 0369 413e d0e8 69be 5f6b fcbc
000002f0: ea17 88bf 78b6 70bd a95d 04be f48a a1be
00000300: 1775 283e d6ff c83c 3834 adbe 54df 29bf
00000310: 94af f63c c744 ca3e 59dd 30be 66fd a3be
00000320: 62a2 ee3d b9d0 6d3e bb8d 823e 9045 e8be
00000330: 9189 c13e 3391 dabc 00ac c03d 4890 3d3e
00000340: 0744 70bf 885f 87bd d56d 073e 3407 963d
00000350: bb54 8fbe 98e8 02bf b5a5 973d ff81 2a3e
00000360: 85f0 4cbe 5a31 0ebe cb34 833b 3f93 a33e
00000370: 253b ac3e e9fd be3e a043 bf3e fa0d 6f3d
00000380: b29a 093d 22e8 e53e cdab 503e f92a 85be
00000390: 111b e4bd 4a8c 93bd da0f edbd bb5d 98be
000003a0: 4f00 04be 5806 14be 31ce a43d c5c9 b03e
000003b0: ae13 5d3e 3fd8 4b3e 4242 9dbe 3a5f f4be
000003c0: 66b5 18be 0cd9 dd3d abcb 663e 1599 d73c
000003d0: 135d ddbe f79e 24bd 0ae5 d6be 1789 0b3d
000003e0: 07c8 27be c60d 87bd 97d7 3abf 31ae 773e
000003f0: d45a fb3d 45f3 dd3d cc6b 92be a6de 3abf
-0.6990336 -0.56251705 -0.008219833 -0.04924465 -0.16129492 -0.2412701 0.058543224 -0.09704859
-0.29948148 -0.44626918 -0.57159656 -0.0058910586 -0.52090985 -0.16856748 0.010753828 -0.4009155
-0.12983808 0.03141055 -0.4170644 -0.6147192 0.016886208 -0.2951292 -0.11360292 0.11673914
-0.73088396 -0.21064007 -0.13665146 -0.38193083 -0.008831251 0.058548108 -0.2896266 -0.31657633
-0.11032144 -0.08558056 -0.19702636 -0.28436068 -0.410644 -0.66116714 -0.16114463 -0.48861572
-0.11912268 0.17919897 -0.13235417 -0.54491246 -0.051757894 -0.04640495 -0.59710777 -0.013581396
-0.17745847 -0.39304703 -0.66793174 -0.026354019 -0.24139449 -0.4030762 0.035099182 0.20963909
-0.62452006 -0.34198704 -0.46381783 -0.451848 -0.54234695 -0.18859062 -0.28561893 0.08590014
0.021829076 0.6039132 0.29477802 0.7747919 0.068651855 0.29951727 -0.13731536 0.11788579
-0.08106022 0.047330566 -0.3838366 0.2257571 -0.1746063 0.22040868 -0.014107008 -0.4197689
-0.22869135 -0.03012819 -0.37532243 0.10746106 -0.4212901 0.17424527 -0.06015787 0.0032369173
-0.18486628 -0.40075824 0.3106288 0.050195426 -0.12462026 0.12283807 0.10847787 0.33892018
0.26705098 -0.2397396 -0.42740852 -0.17331325 -0.1732669 -0.11776336 0.026159702 0.16400327
-0.03545973 -0.22077046 0.0684527 -0.15396768 -0.6551906 -0.0034776228 0.33145908 0.013087792
0.01905293 -0.41646925 0.05236664 0.04089871 0.2940258 0.052131295 0.34063175 -0.20017518
0.013843211 -0.20659004 -0.3967318 -0.06966097 0.018615482 -0.14520182 -0.37502277 0.28093126
0.15448005 0.02867815 -0.030091906 -0.10049985 0.05835226 0.002105383 0.094443314 -0.36932403
-0.12960856 -0.028643101 -0.21697591 0.07839294 -0.19155332 -0.089396365 -0.10936031 0.18720576
0.20500556 0.13011187 0.014659461 0.073703125 -0.06172468 0.14275193 -0.011960556 -0.057635576
-0.13630334 0.13531291 0.3596462 -0.19700266 0.25756198 -0.20473945 0.08370145 -0.15127489
-0.086071685 -0.41953674 -0.51397824 0.25100332 -0.039356817 -0.10438346 -0.14172012 0.47534508
-0.5647326 -0.28174752 0.02810124 0.11655771 -0.010704696 -0.13760749 -0.5178866 0.030640284
-0.05146392 0.056423847 -0.2602357 -0.2941713 -0.1611303 0.36544532 0.33445966 -0.2811738
-0.02315003 0.18887715 -0.22842717 -0.030812917 -1.0632298 -0.058767766 -0.12926354 -0.31551325
0.16450916 0.024536055 -0.33828902 -0.66356397 0.030113019 0.39505598 -0.17271937 -0.32029265
0.11652066 0.23224153 0.25498757 -0.45365572 0.37800267 -0.026680565 0.094078064 0.1851207
-0.938538 -0.06610018 0.13225491 0.07325593 -0.27994332 -0.5113616 0.07404653 0.16651152
-0.20013626 -0.13886014 0.004004096 0.31948277 0.33638874 0.37303093 0.3735628 0.05836294
0.033594795 0.44903666 0.20378037 -0.26009348 -0.11137975 -0.072044924 -0.11575289 -0.2975901
-0.12890743 -0.14455545 0.080471404 0.34528938 0.21589538 0.1990671 -0.30714613 -0.47728902
-0.14912948 0.10832414 0.2253863 0.026318112 -0.43235072 -0.040190663 -0.41971618 0.034066286
-0.16384898 -0.06594424 -0.72985214 0.24187542 0.122731835 0.108374156 -0.28597867 -0.72995985

fc2.bias f4 [64]
00000000: 3e87 18be 4cba 3e3e 75ca 0f3e 66dc a0be
00000010: 727b 08be 149f eebd 7097 1f3f 3f10 41be
00000020: c071 40be 4745 d0bd 22a3 bebd b39d 19be
00000030: 8d55 51be ca84 8abe db22 d73d a3eb 043d
00000040: 5187 5abd 2ea1 8abc 876d 21bd bfe9 e6bd
00000050: 22a7 cb3e c919 f2bd 1040 693d 78c5 64be
00000060: 6b74 5b3e aae7 843e 790c 83bd ab61 0dbe
00000070: 2687 4d3f 3f7b 333d 2887 ea3c e42e 8dbe
00000080: 56cb 353f 4902 74be a744 91be 9955 093e
00000090: 6f1b 10be 43f7 13bd fe95 813d 87fd 633e
000000a0: 50bc e8bd 3bdc fcbd f31a 263f fbec 47be
000000b0: 68ce 173d 6b7f 133f 3b26 aebe 45d2 553d
000000c0: 64e1 febd f6c8 a4bd 05bf c53a b1c5 4c3f
000000d0: afcb c43e 982e c93e 439d bb3e 86cb 43be
000000e0: 42f9 fc3c 5d49 a7bd 3535 2dbd 348e 153d
000000f0: db3e a13d 0aea 1c3e 11d7 3d3d 0f67 81be
-0.14895341 0.18625754 0.14042075 -0.3141815 -0.1332834 -0.116514355 0.6234045 -0.18853854
-0.18793392 -0.101694636 -0.09308459 -0.15001564 -0.20442791 -0.27054435 0.10504695 0.032451283
-0.053351704 -0.01692256 -0.039411094 -0.11275052 0.3977595 -0.118213244 0.05694586 -0.22340953
0.21431129 0.25957996 -0.06398863 -0.13806789 0.80284345 0.04381871 0.0286289 -0.27574837
0.7101339 -0.23828997 -0.2837269 0.13411559 -0.14072965 -0.03612448 0.06327437 0.22264682
-0.11364043 -0.12346693 0.6488487 -0.19523995 0.03706208 0.576163 -0.34013543 0.05220248
-0.124453336 -0.08046143 0.0015086835 0.79989153 0.38436648 0.3929336 0.3664342 -0.19120607
0.030880574 -0.0816829 -0.04228707 0.03651257 0.07873317 0.15323654 0.04634768 -0.2527394

fc3.weight f4 [4, 64]
00000000: a92d 6cbc d6c9 503d 4fa5 ba3e afde 55be
00000010: 792a 20bd 9adc 76bc 7a6d 323e 01b3 49be
00000020: 4220 b2bd d0af 50bf 669f 783e 4da7 b93a
00000030: f34d 8ebe 7c2c 2bbe 212e 2bbd 6c83 163f
00000040: fc4e 37bd b70c 303e 72bb b03e 8f49 91be
00000050: f91a 993d cae9 a2be 7924 863d 69a4 b2be
00000060: 04e8 143e 6446 0a3e 7a36 163e 5e10 9c3e
00000070: a95f 9c3e e649 a3be 97b7 533e c6b1 36be
00000080: 794b 533e 8352 f8bd 3caa ad3e 41b2 0a3d
00000090: 1b88 bbbc 8005 1c3e 6c53 9e3e 4ac9 8d3e
000000a0: c0b0 9a3e 2753 023f 8dfb 6f3e 7f7e 2dbe
000000b0: e223 683e 0015 c23d 3865 06bf 903b b13d
000000c0: cecc a63e 28ca ac3e be7d 023e 0117 a13e
000000d0: 676c 0b3e 4b16 293e 429e e13d bff5 5abf
000000e0: 7689 863e 5dc5 883e 76ac 4d3e a67e e63d
000000f0: fb37 61bc a09f dc3e 2927 a73a 5b3d debd
00000100: 9a31 31be 651a 813e 639e 603e 1dc8 afbe
00000110: 2e27 02be 047a 053e 0bf9 603e 42b6 e7bd
00000120: d9ed 40bb 5592 98be 3f76 a23e 9c39 5c3e
00000130: fdaf 1bbe f99b e4bd aeb1 4dbd ff39 763e
00000140: b0bd 94be b199 c53e 7fb6 aa3e 2b00 3a3c
00000150: 251f 933d d2a6 15be a4f3 9c3d 9855 21be
00000160: 0cc6 d93d 0418 883e 256e 56bf ad1c 56be
00000170: 0634 9f3e a88e 30be 257b fb3d fbaf 57be
00000180: 517d 893e 5475 50be 6333 85be 1ed1 dd3c
00000190: 4184 013e 5a6e fcbd 1026 e73d a4e8 843d
000001a0: 8b4a 85ba 5985 b53e 0134 493e 398e bc3c
000001b0: bb45 c93e 919f 833e 19cf bbbe 33af 5f3e
000001c0: e2de 343e ac19 4a3e 4cad b03d 5c84 103e
000001d0: d376 1a3e 7273 5a3e 5c44 543c aeca 0a3e
000001e0: 2038 d23e be58 a33e db60 b83e b129 5a3e
000001f0: 22dc 89be 5f4b 993e 62c8 ec3d 6509 b4bd
00000200: 7b06 013f 788a 313e a82b c73c 8349 a1be
00000210: 1d48 62be 257a 313e a981 733e b1d7 20bd
00000220: 9793 87be 6636 46bf 66fd 983e 5e69 34bf
00000230: 578f ef3c 3d6d 08be 1cd3 7d3e 73f4 ffbd
00000240: f8f5 bb3e 6e98 0e3f 300f c83e 1e8f 11bf
00000250: 03c5 e53d ba2e b0be 3617 c93d d23d bbbd
00000260: 0991 8f3e 2391 083e f468 b83e c0ae 8e3e
00000270: 31a6 a13e 5a3e b1be f5d8 393e 4c9b a6bd
00000280: 5e3d 5f3e d514 36be afee e7be d133 1ebd
00000290: 3f7c 893e bfc9 8cbd a10f 223e 6cf7 2f3e
000002a0: 2228 a83e 3d08 debd 4dd6 0d3e 59bc c13d
000002b0: e45b 483e 76f2 6b3e 8eda 88bd b029 fb3d
000002c0: be09 80be c4bf 303d 091b f5be 0ad0 8b3e
000002d0: 78c4 1d3e 7545 4f3e ef47 233e c4b2 40bd
000002e0: 6bd2 f73e f225 8fbe 5ef7 77bd e7f0 393e
000002f0: 2209 043e 9b13 9c3e 118c db3e d324 2ebe
00000300: c623 80be 065e 6f3e fc08 b03d 5ba8 23be
00000310: df48 a7be f62a f9be f1ff 2f3e 0672 c03d
00000320: 7277 74be 715e 31bf 7b4d fe3e 5994 0c3f
00000330: 964e 01be 0dba 11be c252 093c 1fe7 923e
00000340: 4175 393e 0517 2fbe 55eb b0bd 95a1 b93c
00000350: 96c9 ce3d 5bb9 e8be efce 9d3e c317 8abe
00000360: 52d2 4a3e 717e 4c3e f4cd 343d 4707 843e
00000370: 7b55 593e e4d1 7f3d b032 463e 3851 03be
00000380: 8c77 6d3e f164 b3be e658 c0bc 114b 1dbe
00000390: 0181 6d3e 9c2a b3be 8003 773e ac3e 6d3e
000003a0: e643 8e3e b314 a63d 0ee3 a03e 25e4 4f3e
000003b0: 6698 8b3e 6095 4c3e 0b63 69bd 0fa3 cb3e
000003c0: 4f92 9cbe 8025 c23e 190b 17be 2e3d 8e3e
000003d0: d4a6 883c ffb6 393e 2998 c03c 24a4 cabe
000003e0: 0ff6 7dbe b468 e13e aa0d cb3e c687 d0be
000003f0: f94e b2be 652c e23d e705 913e 63ca c03d
-0.014415183 0.050973736 0.36454245 -0.20885728 -0.039103005 -0.015067244 0.17424574 -0.19697191
-0.08697559 -0.8151827 0.24279556 0.0014164239 -0.27793846 -0.16716188 -0.04179204 0.58794284
-0.04475306 0.1719235 0.3451801 -0.28376433 0.07475848 -0.31818992 0.06549925 -0.3489106
0.14541632 0.13503414 0.14669219 0.30481237 0.30541733 -0.31892318 0.20675503 -0.17841253
0.2063426 -0.12125113 0.3391894 0.033861402 -0.022892049 0.15236473 0.3092302 0.27692634
0.30212975 0.5090813 0.23435803 -0.16942786 0.22669938 0.09476662 -0.524982 0.08653939
0.3257813 0.33747983 0.1274328 0.31462863 0.13615571 0.1651241 0.110165134 -0.8553123
0.2627675 0.26713076 0.2008532 0.11254625 -0.013746257 0.43090534 0.001275276 -0.108515464
-0.17304078 0.2521545 0.2193542 -0.34332362 -0.12710258 0.13034827 0.21970002 -0.1131406
-0.0029438643 -0.29799142 0.3173084 0.21506351 -0.15203853 -0.11162562 -0.050218277 0.24045561
-0.2905097 0.3859382 0.33342358 0.011352579 0.07183675 -0.14614418 0.07663658 -0.15755308
0.106334776 0.26580822 -0.8376182 -0.20909376 0.31094378 -0.17241919 0.12279347 -0.21063225
0.2685342 -0.20357257 -0.26015767 0.027077254 0.12648107 -0.123257354 0.11286557 0.06489685
-0.001016931 0.354533 0.19648744 0.023017036 0.39311013 0.25707677 -0.3668144 0.21844177
0.17663148 0.19736356 0.08626804 0.14112991 0.1508439 0.21333101 0.012955751 0.13553879
0.41058445 0.31903642 0.36011395 0.21304967 -0.2692576 0.29940316 0.115616575 -0.08790854
0.50400513 0.17337978 0.02431281 -0.31501397 -0.22097822 0.1733175 0.2377993 -0.0392682
-0.2647979 -0.77426755 0.29880828 -0.7047328 0.029243154 -0.13322921 0.24787563 -0.12497797
0.36711097 0.5570134 0.39074087 -0.56859004 0.11219218 -0.3441065 0.0981888 -0.09142651
0.2804034 0.13336615 0.36017573 0.278677 0.31572106 -0.34617883 0.18149169 -0.08135089
0.21800753 -0.17781384 -0.4529929 -0.038623635 0.26852605 -0.068744175 0.15826274 0.17184228
0.3284312 -0.10841415 0.1385128 0.094597526 0.19566303 0.2304171 -0.06682311 0.12263811
-0.25007433 0.043151632 -0.4787219 0.2730716 0.15406978 0.2024134 0.15945409 -0.047045484
0.48402724 -0.27958637 -0.060538642 0.18158303 0.12894109 0.30483708 0.428803 -0.17006235
-0.25027293 0.23375711 0.08595464 -0.15982191 -0.32672784 -0.4866559 0.17187478 0.09396748
-0.2387369 -0.6928473 0.49668488 0.5491386 -0.12627634 -0.14231129 0.008381547 0.28691956
0.18111135 -0.17098625 -0.08638636 0.022660056 0.10097043 -0.45453915 0.3082194 -0.26971254
0.19806793 0.19970109 0.044141725 0.25786802 0.21224014 0.062456027 0.19355273 -0.12823951
0.23190135 -0.3503795 -0.02347989 -0.15360667 0.23193742 -0.34993446 0.24122429 0.23168439
0.27786177 0.08109417 0.3142323 0.20301874 0.27264708 0.19978857 -0.05697922 0.3977284
-0.30580375 0.37919235 -0.14750327 0.2778105 0.016681112 0.18136214 0.023510056 -0.39578354
-0.24800895 0.44025195 0.39658862 -0.40728587 -0.34825876 0.11043624 0.28324816 0.09413602

fc3.bias f4 [4]
00000000: 87c0 0e3f c68a f63e 9c9a 003f e616 013f
0.55762523 0.4815275 0.50235915 0.50425565
