mlruns/0/fb5224a41a88480188b53359992e0e3d/artifacts/checkpoint.pth (torch_old, 28447 bytes, 6 tensors)

fc1.weight f4 [64, 37]
000000 ed 7c 50 3e 8f 53 92 bb ae 3d 87 bd 6d e5 fd bd
       0.20360155 -0.0044655274 -0.06603561 -0.12397275
000010 1f 40 c7 be be cd 03 3c 6c e5 9c 3d 01 2b 66 be
       -0.38916108 0.008044658 0.07660946 -0.22477342
000020 71 74 8e bc 5d 33 e4 bd 8f c9 3e 3d 40 9f 1d 3e
       -0.017389508 -0.11142609 0.04657894 0.1539278
000030 ff 04 3d 3d 92 d6 0b 3e f5 d4 3f 3e 4f 89 ad bd
       0.046147343 0.13656071 0.1873358 -0.08473455
000040 de 8b 17 be 2f ad e4 bc 5a 00 81 3e f9 91 c0 3e
       -0.14799449 -0.027914612 0.2519558 0.37611368
000050 c8 d0 7a 3d 5f e9 c5 3d c2 b7 4c bd 61 83 a2 bd
       0.061234266 0.09663653 -0.049979933 -0.07935215
000060 b4 0b 85 bc 4c 1c bf bc 03 99 28 be 88 4c fe bd
       -0.016240932 -0.023328923 -0.1646462 -0.12416941
000070 ac 29 b3 bd b5 65 1e be 10 f6 02 be 2d d1 91 bd
       -0.08748183 -0.15468486 -0.12789178 -0.07119975
000080 0f e7 2e 3e 76 f5 ad 3d 0b 55 47 3e 9f 27 37 3d
       0.1708033 0.084940836 0.19466035 0.04471552
000090 18 22 92 3c 71 fa 84 3d cd dd 0d bf a4 ac 19 bd
       0.017838523 0.064930804 -0.55416566 -0.03751816
0000a0 05 25 c7 3d 62 c7 e5 bd 80 48 72 3d 0d 7d c2 3c
       0.09723858 -0.1121967 0.059151173 0.02374127
0000b0 e6 8f 2e bd b6 6f 40 be c4 43 fa bc 1a 02 1b be
       -0.0426177 -0.18792614 -0.030549891 -0.1513752
0000c0 16 9b e9 3c ed 0e 78 be 80 20 11 3e ba 2f 29 be
       0.028516334 -0.24224444 0.14172554 -0.16522112
0000d0 2d 1a 04 3d 40 19 6a be bf e5 98 3c 10 6a a7 be
       0.032251526 -0.22861195 0.018664239 -0.32698107
0000e0 62 d2 bd be 6b 13 a4 be d0 60 de bc 94 91 14 be
       -0.37074572 -0.32046065 -0.027145773 -0.14508659
0000f0 e7 0d a2 3e 16 9e b3 bc 27 ad 70 3e ab fb 8f be
       0.31651232 -0.021925967 0.23503552 -0.28121695
000100 d4 53 b3 bd e7 6b 3f be df a8 40 3d 72 4b 3e bd
       -0.08756223 -0.18693505 0.047036048 -0.04645867
000110 b1 38 0f be 9c 61 8e bd 59 e2 ad bc 16 b5 34 be
       -0.1398647 -0.06952211 -0.021226095 -0.17647204
000120 89 59 68 3d ff 29 82 bc 44 b7 2e 3d de 75 78 bd
       0.056726012 -0.015889166 0.042655244 -0.060659282
000130 38 f6 2f 3e a6 1a 7a be a8 59 9c be 1e 08 6d be
       0.17183769 -0.24424228 -0.30537152 -0.23147628
000140 f3 74 f6 bc d6 40 0d 3e ca fc bd be 6c 12 d6 bf
       -0.030085063 0.13794264 -0.37106925 -1.6724372
000150 a3 c9 d9 bd e4 2d f6 bd 1f 1b a1 bd cb 5a e6 bd
       -0.10634162 -0.12020472 -0.07866501 -0.11247786
000160 0f 88 d4 bd c7 94 4c be 7f 04 ec bd eb 80 7c 3e
       -0.103775136 -0.19978629 -0.11524295 0.24658553
000170 88 14 a8 be b9 16 46 bf 32 26 cf bd f6 0c 17 be
       -0.32828164 -0.7737842 -0.10114707 -0.14751038
000180 ac 72 c0 bb be 65 aa be f4 eb c7 bd c9 3d 6b be
       -0.005873045 -0.33280748 -0.09761801 -0.22972788
000190 3d 14 a6 be 40 5b 9d 3e d6 24 20 bf 76 32 e3 bf
       -0.32437316 0.3073368 -0.6255621 -1.7749774
0001a0 4d 9c 9b bd 72 ed ec bd c8 db 0b 3d 06 08 3b be
       -0.075981714 -0.115687266 0.034145147 -0.1826478
0001b0 90 3e 26 bf d1 4d 56 3e 53 ac 7e 3d d6 8d 6c 3e
       -0.6493921 0.20928122 0.06217606 0.23100981
0001c0 ce 7a 6a bd 4e 9b 55 bd 63 dd f5 bd a5 3d 26 bf
       -0.057246022 -0.052150063 -0.12005117 -0.6493781
0001d0 4a 34 a9 be 7b 62 38 3e 24 1c 8e be 68 1b 85 3d
       -0.33047706 0.18006317 -0.27755845 0.06499368
0001e0 99 bf 1e be dd 60 91 be 9b 77 c0 bd aa 5b e1 bc
       -0.15502776 -0.28394213 -0.09397813 -0.02750953
0001f0 8e 74 ce bb b7 71 18 be a4 7b ec 3d 6f 22 4a be
       -0.0063005155 -0.14887129 0.1154702 -0.19739698
000200 de 04 0c 3e ca 84 04 be 2c 4c 3d 3e c7 9b 90 bd
       0.13673732 -0.1294128 0.18486089 -0.07060962
000210 de dc 04 be 6d a2 04 bd 0f 8e 46 bd 7d f2 52 be
       -0.12974879 -0.032381464 -0.04847532 -0.20600314
000220 2a 3e c8 3c 31 1b f1 3a b5 e2 f5 3c c7 25 3a bd
       0.024443705 0.0018394944 0.030015329 -0.045446184
000230 0b cc 89 be ba 59 5b bd 75 fa 58 be 8d a0 46 bd
       -0.26913485 -0.053552367 -0.21189292 -0.048492957
000240 30 ec 42 be d5 24 6f 3e 9b 68 5d bd 38 00 d3 bd
       -0.19035411 0.23353894 -0.054054838 -0.10302776
000250 6c 8b e4 3c e1 5a 4e 3d 2c 91 34 3d 48 0a 0a 3d
       0.027898513 0.050379638 0.04408376 0.03370121
000260 f6 f3 b4 3b 7c 3b d8 3e 7b 41 ce be da a3 fa be
       0.0055222465 0.42232883 -0.40284333 -0.48953134
000270 05 50 a1 be 01 ab b4 bf b5 9e a4 3d 1a ec 71 3d
       -0.31506363 -1.4114686 0.080380835 0.059063055
000280 3c e0 96 3d 09 e5 b5 3d 13 92 dc 3c 1e 9b 6e 3d
       0.07366988 0.088815756 0.026925122 0.0582534
000290 4e dc fd 3d 97 d3 af 3d 0d 46 96 3d 93 8c 02 bd
       0.123955354 0.085852794 0.0733758 -0.031872343
0002a0 9e 57 6e bd e3 f4 7c bc 30 92 4a bd 92 64 5d bc
       -0.058189027 -0.015439245 -0.04945582 -0.013512747
0002b0 7a 4b e4 bc 7d dd 0a 3e 07 a0 e7 3d 90 2c 1b 3e
       -0.027868021 0.13561054 0.1130982 0.15153718
0002c0 57 2e f9 3d f1 c7 22 3b ba de 12 3e e6 f1 66 3d
       0.12167042 0.0024838413 0.14342776 0.056383036
0002d0 92 27 93 3d 51 18 22 3c a8 40 dd bd 49 9e 80 3b
       0.07185282 0.009893493 -0.10803348 0.003925119
0002e0 88 03 1f b8 ec 97 0c bd 5d a4 40 bd 33 a1 20 be
       -3.7911843e-05 -0.03432457 -0.04703175 -0.15686493
0002f0 32 a5 83 bd 02 63 0d be 57 8d 0f 3e f9 61 ee bd
       -0.06427993 -0.138073 0.1401876 -0.116397806
000300 1f 2a 4f 3c 2c ba 21 be 84 8c d3 bf c7 12 34 3e
       0.01264432 -0.15793675 -1.6527257 0.17585288
000310 75 65 37 bd 68 95 03 3e e0 a6 49 3c 93 eb 48 3d
       -0.04477449 0.12849963 0.0123078525 0.049052786
000320 68 6f 75 3d 4c 9d cd 3d f0 73 4c be e3 65 cd bc
       0.0599207 0.100397676 -0.19966102 -0.025072997
000330 6c 3a 67 bd b5 27 cc bd 12 45 44 39 00 da b9 3c
       -0.0564522 -0.09968511 0.00018717747 0.022686958
000340 f9 d6 25 bc 16 d8 5c be e4 98 44 bd 1c ac 7b 3e
       -0.010122054 -0.21566805 -0.04799737 0.24577373
000350 31 7f 30 be 7c b8 fc bd ba f3 97 be b7 a2 4e be
       -0.1723602 -0.12339875 -0.29678136 -0.20179258
000360 57 c7 88 3d 54 54 6b 3e 7b c7 ec 3d 33 3e b2 be
       0.06678646 0.22981387 0.115614854 -0.3481308
000370 6f 8d 96 bc 9d ac 61 3c fd 19 37 be e2 1a 1b bc
       -0.018377988 0.013774064 -0.17881007 -0.009466859
000380 c1 11 9f bd 9d f8 2e bc 82 79 6a 3e 9f e8 40 3e
       -0.07767058 -0.010679391 0.22897914 0.18838738
000390 a5 b0 45 3e 26 2a bb 3d bc 8b c5 bd 90 97 83 be
       0.19305666 0.091388986 -0.09645793 -0.2570157
0003a0 85 8c 97 3d 60 66 b3 3c 3c 4f e1 3c 03 9d b6 3d
       0.07399849 0.021899402 0.027503602 0.08916666
0003b0 20 6b 9e bc 31 61 d5 3d 25 ac cc 3d 16 9e f2 3d
       -0.01933819 0.104189284 0.099937715 0.11846559
0003c0 73 d2 c2 3d 67 e2 23 3e 3a f2 5d 3e 3d 85 90 3d
       0.09512796 0.16004334 0.21674433 0.07056663
0003d0 a4 b0 7e 3d b5 e1 b1 bd c0 fd f7 be 61 d2 73 3d
       0.062180176 -0.08685628 -0.48435783 0.059526805
0003e0 0f ee 1f 3d 2c ee be 3d ad 25 b5 bd 63 ef d1 bb
       0.03904539 0.093227714 -0.08845077 -0.006406711
0003f0 4f 33 9b bc 40 88 45 bd 73 fe b0 3d ec 5b ae bd
       -0.018945364 -0.04822564 0.08642282 -0.085136265

fc1.bias f4 [64]
000000 be ed a9 bd c0 5d 41 be d0 63 34 bd 5c 50 40 be
       -0.08297299 -0.18883419 -0.0440405 -0.18780655
000010 a8 71 bb 39 64 ad 03 3e ab 6f 1a 3e 00 0f 90 bc
       0.000357521 0.12859112 0.1508166 -0.017585278
000020 73 af de bd 9f 4c 07 3e b9 44 b8 bc ef 19 4b 3e
       -0.10873308 0.13212822 -0.022493707 0.19834112
000030 0a 8a 03 bc 11 b8 0d be 37 57 66 be bb 20 41 be
       -0.008028517 -0.13839747 -0.22494207 -0.18860142
000040 9a aa 75 be 08 65 f4 3d 83 65 3a bd 51 63 0d be
       -0.2399086 0.11933333 -0.045506965 -0.13807417
000050 9b 5b 8d bc 1c 32 d1 bd 3c 86 91 3d 7d 1f b9 bd
       -0.017255595 -0.10214636 0.07105681 -0.09039209
000060 11 8d 6b bd 0f 00 0a 3d 4a 55 17 be 1e a6 57 3c
       -0.05750758 0.033691462 -0.14778629 0.013162164
000070 d2 27 9d bc df 50 cb 3d e6 d2 36 be d6 6b 3e 3c
       -0.019184027 0.09927534 -0.17853889 0.01162239
000080 37 3c 0b bd d8 35 a6 bd 7c ec 36 be ef e1 a1 3d
       -0.033992972 -0.08115739 -0.17863649 0.079044215
000090 80 58 97 3c a0 19 00 3e 12 4d 65 3e 14 1a e5 3c
       0.018474817 0.12509775 0.22392681 0.027966537
0000a0 2c f7 35 bd 83 3c 26 be f8 93 84 bc 68 2a 61 bd
       -0.044425175 -0.16234021 -0.016183838 -0.054972082
0000b0 46 a0 12 3e 81 f3 20 be e0 6f 2d 3d ba 53 08 bd
       0.14318952 -0.1571789 0.04234302 -0.033282973
0000c0 51 2a 25 3d 8b 60 8c 3d 30 e5 33 3e 54 ac 93 3d
       0.04032356 0.068543516 0.17567897 0.07210603
0000d0 87 95 e9 3d bd d0 c0 bd 39 10 18 3d 40 51 4e 3d
       0.11405473 -0.09414814 0.037124846 0.050370455
0000e0 b9 68 bc bd cf 24 e3 bd 31 c1 f4 bd 25 50 aa bd
       -0.09199662 -0.11091005 -0.11950911 -0.083160676
0000f0 42 b5 c7 3c 95 e9 87 3c ec d7 d1 bd 0e 73 1b bd
       0.024378423 0.016590873 -0.10246262 -0.03795152

fc2.weight f4 [64, 64]
000000 97 87 fb bd 9f 37 bc 3d d5 59 29 bc 13 8d f4 bc
       -0.12281721 0.091902964 -0.010336359 -0.029852426
000010 c3 40 95 be f0 3c 16 bf e5 a3 a6 3c 83 92 eb be
       -0.29150972 -0.58686733 0.020341823 -0.46010217
000020 03 5c 24 bc ee 01 89 3d 8a dd 76 be 80 06 85 3d
       -0.010031703 0.06689821 -0.24107948 0.064953804
000030 d2 8a 40 be 49 d1 ab be 08 97 c7 3d e0 04 5e bd
       -0.18802956 -0.3355811 0.09745604 -0.054203868
000040 1c 72 49 be 2b 90 f5 3d a9 ca 44 3d f7 6b 47 be
       -0.19672436 0.119903885 0.048044834 -0.19474779
000050 79 83 37 be 68 fe 5e bd f8 31 8f bd 47 c0 24 be
       -0.17921247 -0.05444184 -0.06991953 -0.16088973
000060 11 8b 4a bd 4d 3a 36 3d ac fa e1 bc fd be a8 bc
       -0.04944903 0.044489194 -0.02758535 -0.020598883
000070 3b 4a e3 3d 81 ee 9a be fd 5c a6 bd 3b 34 35 bd
       0.11098143 -0.3026009 -0.08123205 -0.044239264
000080 75 67 d0 bd 4a d9 ad 3c 34 12 24 3e 3e 02 06 be
       -0.10175983 0.021221776 0.16022569 -0.13086793
000090 91 61 cc be 30 70 72 bd 27 26 db 3d ec d6 a2 3d
       -0.39918187 -0.05918902 0.10700636 0.07951149
0000a0 59 54 0d 3d d7 c5 15 3e 3f 76 34 bd fa e6 28 be
       0.03450427 0.14626251 -0.04405808 -0.1649436
0000b0 8e 7f a1 3d a2 01 48 be e0 11 96 3d 62 af 51 be
       0.07885657 -0.19531873 0.07327628 -0.2047706
0000c0 2a c3 01 3d aa c7 07 3e d3 0e 0d 3d 78 2c e8 3d
       0.031680264 0.1325976 0.034437966 0.11336607
0000d0 61 47 d8 bc b6 51 95 be f2 96 88 be d4 73 09 bd
       -0.026401224 -0.29163903 -0.26677662 -0.033557728
0000e0 76 a1 b6 bd ee 24 80 3d d8 a8 99 be 73 10 d7 bd
       -0.08917515 0.06257044 -0.3001163 -0.10501184
0000f0 af 41 53 3e 02 e8 80 3d e4 13 61 bd 7a 77 a5 3d
       0.20630525 0.06294252 -0.05495061 0.08079429
000100 5f 8a 81 3b a8 a3 d9 3d 4e 1f ad 3d ce 56 dd 3d
       0.0039532627 0.10626918 0.084532365 0.10807572
000110 6a 3a 62 3e 43 94 e1 bb e5 30 23 3d ff a8 f0 3d
       0.22092596 -0.0068841293 0.03984155 0.117509834
000120 81 9e fa 3d 1b 05 9b bc 7f 27 06 3e 63 18 79 3e
       0.122372635 -0.018923333 0.13101004 0.24325709
000130 b4 79 e9 3d a3 9c 06 3e 49 8c 61 3e 3a b7 50 be
       0.11400166 0.1314569 0.22026171 -0.20382395
000140 50 44 56 bc d4 56 e1 bd 25 79 32 3e 66 d5 af bd
       -0.01307781 -0.11002889 0.17429025 -0.085856244
000150 30 7b 2e be 83 63 0b 3d c1 41 39 be 1c bd a2 bd
       -0.1703918 0.03403045 -0.1809149 -0.07946226
000160 11 aa e4 bc f3 65 07 3b 99 3e 25 be d4 84 b5 be
       -0.027913125 0.0020660132 -0.1613716 -0.35452902
000170 0b 56 4f 3d 48 d2 64 3d d1 72 3b bd 02 ea 36 3e
       0.050619166 0.055864602 -0.045763794 0.17862704
000180 66 3d 94 3d d5 23 d7 3d 51 4e b8 3c 4b d1 5e bd
       0.07238273 0.10504881 0.022498282 -0.054398816
000190 0f 25 8e 3d c4 2d 3f be 06 20 77 3b dc ef c4 3e
       0.06940662 -0.18669802 0.0037708296 0.38464248
0001a0 83 3a 90 be bf 22 0e 3d 8c fa 11 3d 20 89 db 3b
       -0.2816964 0.034701105 0.03563933 0.006699696
0001b0 98 03 8e 3c 70 3a 88 bd 76 f1 a1 3d 28 e8 99 bc
       0.017335698 -0.06651771 0.07907383 -0.018787459
0001c0 51 b1 a6 3c 8f 46 01 3e 00 91 64 3e 0a 51 a4 bd
       0.020348223 0.12624572 0.22320938 -0.080232695
0001d0 b1 d1 f7 3c f7 c0 bf bd 6c a8 17 be 2d db 16 3d
       0.030251356 -0.09362977 -0.14810342 0.036830116
0001e0 73 46 0f bd 16 bd 8b 3d a2 87 3e bd b3 86 90 be
       -0.034979295 0.06823175 -0.04651607 -0.28227767
0001f0 c7 e9 cc bd fb 6e 6d bd 37 5a 41 3c d3 cb 2c 3e
       -0.10005527 -0.057967167 0.011801294 0.16874628
000200 4e d5 9a 3d 63 1f f9 bc 51 bf 67 be 23 70 0a be
       0.07560216 -0.030410474 -0.22631575 -0.1351934
000210 48 b8 87 3e 56 0d 8e 3d 94 ac 48 3d 96 34 77 bd
       0.26507783 0.069361374 0.04899271 -0.060352884
000220 8d 6d 80 bc c4 4e af 3c dd 59 1a be bd d5 89 3e
       -0.015677238 0.021399863 -0.15073343 0.26920882
000230 25 dc fc bc 5b 9d 11 bc db 65 cb bc 54 d9 cb 3d
       -0.030866692 -0.008887614 -0.024828842 0.099535614
000240 09 6a 0c bd 8e 71 0e 3e 57 15 aa 3d 22 de fd 3d
       -0.03428081 0.13910505 0.083048515 0.12395884
000250 c3 3b e7 bb 24 f2 f0 3c 78 b0 b8 3d b9 e1 3a 3d
       -0.0070566847 0.029412337 0.09018034 0.045625422
000260 a1 c5 06 3e 67 62 8c 3d bf 8d 59 bb 0c 1a 00 3e
       0.13161327 0.06854706 -0.003319606 0.12509936
000270 09 cd ec 3d 88 2f f5 3d ad 89 2f 3e 10 73 32 3e
       0.11562545 0.119719565 0.17142363 0.17426705
000280 96 32 22 bd 5f 1c 2a be 3c 2b 58 bd 37 2d cb 3d
       -0.039599024 -0.16612385 -0.052775607 0.099207334
000290 60 ae 8c 3d dc 9a eb bd da 94 04 3d 15 1d c3 3e
       0.06869197 -0.115041465 0.03236852 0.38108125
0002a0 55 35 45 bd 00 49 e2 bd 75 c9 f8 3d 29 86 25 bd
       -0.048146565 -0.1104908 0.121478 -0.04041115
0002b0 35 bd 72 3d e4 fc f7 bb db 3d ac 3d e2 2b 30 3d
       0.059262473 -0.0075679887 0.084102355 0.0430106
0002c0 ec 05 48 be 3e 9a a8 3c fe a6 eb 3b a6 e6 11 be
       -0.19533509 0.02058136 0.007191538 -0.14248142
0002d0 88 1e 0c 3e e1 3f e6 bd ab e7 cc 3d d5 2f 28 3d
       0.13683522 -0.11242653 0.10005125 0.04106124
0002e0 99 5a a9 bd ea 8b b7 3c 0c a9 25 be b6 59 a3 bd
       -0.08269233 0.022405583 -0.16177768 -0.079760954
0002f0 36 47 d7 3d c3 0d 10 bd bc 97 08 3e 62 98 be 3e
       0.10511629 -0.035169374 0.13339132 0.37225634
000300 02 ae 56 bd d1 2c 2b be 88 42 d5 3e 19 1d 8c be
       -0.05241204 -0.16716315 0.41652322 -0.2736595
000310 1e 0d bc 3c fd cb 3a be cf 42 01 be 74 47 49 be
       0.022955474 -0.18241878 -0.12623142 -0.19656163
000320 9c 20 50 be c7 75 f3 3d 00 50 eb bd db 88 66 3d
       -0.2032494 0.118876986 -0.11489868 0.05628286
000330 4d e1 85 be c5 74 84 3d 23 4f 5f be 45 63 19 be
       -0.26148453 0.064675845 -0.21807532 -0.14979275
000340 7a f7 8a be 0c 6a de 3d a4 7a 62 be 9d ce 8a 3e
       -0.27141935 0.108600706 -0.22117096 0.27110758
000350 fd 82 a4 bd f8 31 c5 bd d3 50 24 3e 00 df 95 3e
       -0.080327965 -0.096286714 0.16046457 0.29271698
000360 fd e0 da bd 96 d1 1e be c7 0a a5 be 26 5d 83 bd
       -0.10687444 -0.15509638 -0.32234785 -0.06414251
000370 9c b9 8d 3d a4 ce 1a 3d 80 9c ac 3d 70 f3 05 3e
       0.06920168 0.037794724 0.084282875 0.13081145
000380 c6 b1 3d 3d 0e 29 d6 3d 4b b0 68 be 50 d9 c7 be
       0.046312116 0.10457049 -0.227235 -0.39032984
000390 f2 77 8e 3e 90 ad b5 bd 5f c3 80 bd cc 16 b1 bc
       0.27825886 -0.08870995 -0.06287264 -0.021617316
0003a0 44 7b da 3d ce ec 61 3d 12 92 d3 3b c0 00 51 be
       0.10668042 0.055157475 0.006456622 -0.20410442
0003b0 9e 74 29 3d 25 46 69 bd 69 56 5e 3e 1f de 6d be
       0.04137098 -0.05695166 0.2171265 -0.23229264
0003c0 d8 76 0e 3e 5d b0 24 3e cd 38 90 bc 3e dc 48 be
       0.13912523 0.16082902 -0.01760521 -0.19615266
0003d0 66 e0 5c bd b5 29 ac bc 9b 74 50 bd 0e ca a7 bd
       -0.05392494 -0.021015981 -0.050892454 -0.08192836
0003e0 3b d5 c9 bd a4 11 06 3e 88 e1 36 3e 65 de a1 3e
       -0.098551236 0.13092667 0.17859471 0.31614986
0003f0 45 59 d8 3d e2 2f f7 3c e3 8e 6c be 52 4c 2f ba
       0.10563902 0.0301742 -0.23101382 -0.0006687093

fc2.bias f4 [64]
000000 c3 8e fd bd 3e cb f4 3c bb 5f 6e 3e 47 b3 8e bd
       -0.12380745 0.02988207 0.23278706 -0.06967788
000010 e4 18 bf 3c 9b a0 4d bd 61 53 9c 3e a8 c8 9b bd
       0.023327298 -0.050201993 0.30532363 -0.076066315
000020 d3 2e 9f bd 91 ae 98 3d 57 c1 e9 3d 90 48 fb bc
       -0.07772603 0.07455171 0.1141383 -0.030674249
000030 5c fa de bd 1c 27 da 3c 5d d6 20 3e 9d 22 ef bc
       -0.10887596 0.026629977 0.15706773 -0.02919131
000040 3b 01 83 3d 52 00 f7 bc c0 9f 3b 3e 86 57 12 be
       0.06396719 -0.03015152 0.18322659 -0.142912
000050 e2 f9 ac 3e 9d f6 13 be ea a0 97 3d 48 c8 f6 bd
       0.33784395 -0.14449544 0.07403739 -0.12049919
000060 78 3a 52 3d f2 8d b6 3b 74 ee fc bd be 6e b0 bc
       0.05132529 0.0055711204 -0.12350169 -0.021537181
000070 2c be 3c 3e 59 0a 0e 3d 33 fd 5e 3d c8 58 e9 bd
       0.1843192 0.034677837 0.05444069 -0.11393887
000080 88 bf b6 3e e1 a5 9c 3a f5 2c 5f 3d 1b 67 04 3d
       0.35693002 0.0011951291 0.054486234 0.03232489
000090 01 f2 e5 3d f5 15 d8 bc eb 93 c2 bc 1b ce 97 bd
       0.11227799 -0.026377657 -0.023752173 -0.074123584
0000a0 4b 24 10 bd bf 51 80 bd f3 ea 87 3e b8 df c7 bc
       -0.03519086 -0.06265592 0.2654644 -0.02439867
0000b0 7a 85 c7 3d 68 65 72 3e fa 32 32 be e5 39 bf 3c
       0.097422555 0.23671496 -0.17402259 0.023343036
0000c0 e8 7d 88 3d d6 a6 a0 bd e2 fc 31 bc 65 7a dd 3e
       0.0666464 -0.078443214 -0.010863515 0.43257442
0000d0 ab 8c 88 3d 4c 05 8b bd 3b f0 2d 3e 79 fa 02 bd
       0.06667455 -0.0678812 0.16986172 -0.03197715
0000e0 85 a3 70 3e 76 0a d6 bb cc f2 35 3e 9f 05 91 bd
       0.23499878 -0.0065320088 0.17768401 -0.0708115
0000f0 4b df 0f 3e 34 8e dc 3d d3 39 95 3d 0a 32 eb bd
       0.14050023 0.107693106 0.0728642 -0.114841536

fc3.weight f4 [4, 64]
000000 bc 98 ac 3d c7 ac 8d bd 44 db 4d 3e ea 78 e6 3d
       0.08427569 -0.0691772 0.20103174 0.11253531
000010 b8 5b c6 3e 06 cd d6 3d 20 89 12 3e cb 69 8e be
       0.3874185 0.10488324 0.14310122 -0.2781509
000020 b9 2e e6 bd a8 8d ba bc b4 39 ff 3d 3b 0c 1b 3e
       -0.112393804 -0.022772625 0.12462178 0.15141384
000030 b2 b7 59 be 92 56 25 bd 78 4d 7b 3d bd 45 75 bb
       -0.2126148 -0.040365763 0.061353177 -0.00374256
000040 ca 2e 07 bd 11 b3 1e bd 7f 20 78 3e c4 be 8d be
       -0.033003606 -0.03874499 0.24231146 -0.27684605
000050 40 2a 39 3e 90 31 62 bd 26 a9 76 3d c6 d6 48 3d
       0.18082523 -0.055223048 0.060219906 0.04903295
000060 17 f8 c6 be 95 b9 ee 3e 21 21 ab bd f2 de 65 3e
       -0.38861153 0.46625963 -0.08355928 0.22448328
000070 95 d5 c1 3e be c6 19 bc c0 fa a6 3d f7 bc 59 ba
       0.37858263 -0.009385763 0.081532955 -0.0008306051
000080 70 1f 0c 3e f3 c5 d7 be 3a 35 32 3e 1b c9 9e 3e
       0.13683867 -0.4214321 0.17403117 0.31012806
000090 56 a3 2f 3e 6e fa c6 3e 8d c1 8d 3d 93 6a 03 3e
       0.17152151 0.38862938 0.069216825 0.12833624
0000a0 a1 64 49 3e f9 65 c5 bc ab ef 3c 3e 7d 1c b1 be
       0.19667293 -0.024096476 0.18450801 -0.34592047
0000b0 ef f6 07 3e ed 4a 9a 3d cd 05 4f be 8d c9 e1 bd
       0.13277791 0.07533822 -0.20217057 -0.11024771
0000c0 a7 d5 91 3d 88 51 89 3e e9 a1 cc be 47 2b 7e 3e
       0.07120829 0.26820016 -0.39967278 0.24821196
0000d0 2c cb 03 3e 68 ab 21 3f 7f 29 14 3e b6 42 ab be
       0.12870473 0.6315217 0.14468955 -0.33449334
0000e0 ad f1 45 3e a3 71 8d 3e 15 6e a2 3d b7 b5 16 be
       0.19330473 0.2762576 0.07931153 -0.14717756
0000f0 73 df 16 3e 8d b0 b8 3d 54 0f a7 3e 10 84 00 be
       0.14733677 0.090180494 0.32628882 -0.12550378
000100 a6 34 bd bd 24 e7 97 bd 98 83 06 3e 82 a0 d9 3b
       -0.092385575 -0.074171335 0.13136137 0.0066414485
000110 02 96 99 3e b5 4e a0 3e 89 43 52 3e e8 f0 08 be
       0.2999726 0.3131005 0.20533575 -0.13373148
000120 2e ce 46 be 62 ef cc 3d e9 e1 f6 3d 87 6e 3f 3e
       -0.19414589 0.10006596 0.12054808 0.18694507
000130 d2 98 5b be 1f ed ec be 71 f5 1b 3e 0b d7 80 3d
       -0.21445015 -0.4627466 0.15230347 0.06291016
000140 24 b7 51 3d 88 1f 83 3d 64 44 b5 3c db 67 81 be
       0.051200047 0.064024985 0.022127338 -0.25274548
000150 29 4a 93 3d 2e 04 10 bd b1 73 f2 3d c7 d3 82 be
       0.07191879 -0.035160236 0.11838473 -0.25552198
000160 1d 8e 3e be bd 5f 7f 3e c4 08 94 be be 69 24 3e
       -0.186089 0.24938865 -0.28912938 0.16055962
000170 f9 d6 c5 3e 74 d2 4c be e0 6c 4d 3e de a4 eb 3c
       0.38640574 -0.20002156 0.20061064 0.028765138
000180 87 74 2d 3e 3e a3 17 3e 76 f4 be 3d 2b 0f 80 3e
       0.16938983 0.14808366 0.09323971 0.25011572
000190 30 43 cc 3d e1 71 c1 3e b3 f2 85 3e b7 25 00 be
       0.099737525 0.37782195 0.26161727 -0.12514387
0001a0 aa 41 ec 3d 5f 4d 94 3e 83 ff 07 3e a7 62 7e be
       0.11535962 0.2896528 0.13281064 -0.2484232
0001b0 f4 09 16 3e 80 2d f9 3d 84 9c 9b bd 3e 70 95 3c
       0.14652234 0.121668816 -0.07598212 0.018241998
0001c0 4c af b4 3d 05 07 b4 3e 8c 17 2a be bd 2f 1d 3e
       0.08822498 0.35161605 -0.16610545 0.15350242
0001d0 61 09 7d 3e a0 3a 1a 3f 34 24 eb 3d a5 ee 37 bd
       0.24710609 0.60245705 0.114815146 -0.044905324
0001e0 e1 43 58 3e 70 56 f1 3e 2d d8 ec 3d 16 af 52 bc
       0.21119644 0.4713626 0.1156467 -0.012859127
0001f0 3b 95 4c 3e 46 2b 24 3e d6 9b a1 3e a8 de 7e be
       0.19978802 0.16032133 0.31564206 -0.24889624
000200 c7 a6 ad be 67 e5 78 3e 6b 25 0f 3e 01 73 da be
       -0.33916304 0.2430626 0.13979118 -0.42665866
000210 88 f4 be 3d c0 af 18 3f 61 21 2a 3e 2c 50 53 be
       0.093239844 0.59643173 0.16614296 -0.20636052
000220 22 24 33 be 01 ce a7 3e 24 17 74 3e 56 5c cf 3d
       -0.17494252 0.32774356 0.23836952 0.101250336
000230 2f f6 3f be 48 0c 3e 3e be dd 20 3e 39 80 7b bc
       -0.18746255 0.18559372 0.15709588 -0.015350395
000240 56 5a 77 3e 7a 7a 40 3e 60 8e d3 3d 90 5c 83 be
       0.24155554 0.18796721 0.1032989 -0.25656557
000250 f1 76 15 3e ab c8 df bd d6 ea ac 3c ed b4 9c be
       0.14596154 -0.10926946 0.021108072 -0.30606785
000260 4e 4a eb be 4c ac db 3e c3 84 c7 be 35 5d 48 3e
       -0.45955127 0.4290489 -0.38968477 0.19566806
000270 65 ee be 3e 8a 3c 84 bd 38 4c e4 3d 02 a6 b2 bd
       0.37291256 -0.064568594 0.1114735 -0.0872307
000280 59 d6 31 3e 00 c0 8b bd df fb 09 3e ca 11 22 be
       0.17366923 -0.068237305 0.13474987 -0.15827098
000290 68 f4 aa 3d cf 48 14 3f 31 b7 2a 3e 2d 5a 65 3e
       0.08347398 0.579236 0.16671444 0.2239768
0002a0 13 5d fe 3d a1 f5 b0 be 97 20 40 3d dc 11 ac be
       0.12420096 -0.345624 0.04690608 -0.33607376
0002b0 04 ef 02 3e 7d d3 16 3e 23 ef 9b be 6d c8 74 3e
       0.1278649 0.14729114 -0.30455884 0.23904581
0002c0 9f 68 01 3e 59 80 91 3d 43 b9 83 3c dc 9a 0f 3e
       0.12637566 0.071045585 0.01607955 0.14023918
0002d0 9b 15 61 3c 68 b4 0c 3f 25 c4 3f 3e a5 fd c5 bd
       0.013738061 0.5496278 0.18727167 -0.096675195
0002e0 57 e8 39 3e 10 6e 0f be 18 74 59 3d 67 8d df 3d
       0.18155037 -0.1400683 0.05308923 0.10915642
0002f0 b9 72 08 3e 74 bd d3 3e 8d f0 af 3e a4 80 ef be
       0.13325013 0.4135548 0.34363213 -0.46777833
000300 57 f0 a8 bd 06 f5 1d be 3a f4 ae 3d a0 87 cc be
       -0.08248966 -0.154255 0.08542676 -0.39947224
000310 75 45 f1 3e 0d 79 49 bb a2 17 1e 3d 4d 52 27 3d
       0.47123304 -0.0030742318 0.038596757 0.040849973
000320 b5 1d 30 be ae 30 57 be 1a 60 90 3e e6 c5 51 3e
       -0.17198832 -0.21014664 0.2819832 0.20485649
000330 13 6f c8 3c 89 ed 9a bd ad 7c 1f 3e 02 80 4b 3e
       0.024467027 -0.075648375 0.15574904 0.1987305
000340 64 4f cb 3d 70 39 8c 3d 54 39 10 3e 66 f5 55 be
       0.09927252 0.06846893 0.14084369 -0.20894393
000350 a0 07 09 3e ca bc 80 be 26 72 46 3e 46 3b 7f 3e
       0.13381815 -0.25144035 0.19379482 0.24924955
000360 38 71 df 3d 74 44 67 3e 43 04 8b be 50 d3 69 3e
       0.10910267 0.22584707 -0.2715169 0.22834516
000370 e4 3a 49 3e ab 90 3d 3d a3 c7 92 3d 9a 4e a7 3e
       0.19651371 0.046280544 0.07166984 0.32677156
000380 38 92 fa 3d 7e 7c 96 3e 49 61 0b 3e 00 e2 33 be
       0.1223492 0.29391855 0.1361133 -0.17566681
000390 5d fb 26 3e ae c8 4d 3e 7b e1 20 3e bc 9f cc bd
       0.16306825 0.20096084 0.15711014 -0.099914044
0003a0 27 4a 3d bd 3e b7 06 3d a8 b2 57 3e 14 e2 7c be
       -0.046213295 0.032889597 0.21064246 -0.24695617
0003b0 53 4b 8f 3e 5c 15 3c 3e e2 6d 64 be 79 d7 5c 3e
       0.27987155 0.18367523 -0.22307542 0.21566571
0003c0 7b 82 17 bd b2 2d 03 3f 13 b7 82 bd 62 df 42 3e
       -0.03698967 0.512416 -0.06382575 0.19030526
0003d0 f5 bc e0 bc dc 8d 56 3f 28 76 d4 3d 7c aa 83 be
       -0.027433852 0.8381021 0.10374099 -0.25716007
0003e0 1a 34 07 3e 7e 62 4e 3f 65 fc c0 3d 3a 2b 39 be
       0.13203469 0.8061904 0.094231404 -0.18082896
0003f0 69 7e ad 3d ee d0 39 3d ea a9 fa 3e 30 98 be bd
       0.084713764 0.045365267 0.4895776 -0.09306371

fc3.bias f4 [4]
000000 5f 01 5c 3e af da 74 3e 18 1a 9b 3e f8 a7 75 3e
       0.21484898 0.23911546 0.30293345 0.23989856
