mlruns/0/4af1c03dfa194a0ca01d31a7ef9b3a76/artifacts/checkpoint.pth (torch_old, 28447 bytes, 6 tensors)

fc1.weight f4 [64, 37]
00000000: cbe1 143e 3284 84bd 142d 1cbc ec88 d53d
00000010: b3be ebbd 22be 1d3d f7c9 823d 8995 17be
00000020: 2c6e 033d 980b 28bd daae 243e a5e7 923c
00000030: 022b 1b3e fa6d a63d c52f a73d 890e 0bbe
00000040: 5af9 1c3e dbd0 f7bd 6f4a bb3d 8b2c b33d
00000050: e877 553b c369 1f3e 7c4d 3bbd 0df5 79bd
00000060: 037f 8a3d 15cd 98bc 8e26 00be 7c41 d7bd
00000070: d1f7 bcbd e29b 803d 691a e7bd 6e75 b33d
00000080: 8dfe 283e a6f4 45bd 4f41 da3d 1579 8cbc
00000090: cc51 e53d 345e 88bc 1672 b8bd dfcb cc3d
000000a0: 66ea a3bd 5cbf f13c 22da 903d 3932 e6bd
000000b0: b185 03be 7ae7 a53d a8d8 1cbe 3224 fabd
000000c0: cba3 b93d 250b 78bd 56f7 b83d 49a1 cdbc
000000d0: 40bd c73c 41f8 97bd 7ca4 83ba a312 0bbe
000000e0: afc1 ecbd 2e32 11be e638 0d3d a460 43bc
000000f0: 1245 0e3e 0676 043d 57c4 dc3d 8570 a8bd
00000100: 47b7 733d c6a1 b8bc 8ded 2e3e 887f 6a3d
00000110: fbe0 6a3b e515 e6bd 00cc f4bd e39b 5cbd
00000120: 35da b23d 7ab4 e0bd 7a34 a9bd 0f37 1fbe
00000130: 8774 133e 3c67 0c3e 776d dcbd ea27 91b9
00000140: 3b06 e0bc 57eb 873c 9e76 dfbd 4956 eebd
00000150: 0998 f7bc 8a46 0cbe ed30 ddbb dc4b 92bd
00000160: ada8 11be 60c6 b1bc fdf2 7cbd 3087 663d
00000170: 664e 003e c7d6 e0bd 2ecd 0abd 869b 26bd
00000180: 4abd 2bbe 8462 29be ddbb 553d 73e3 8ebc
00000190: 8342 c5bd 4638 143e 87b2 2fbe 3482 073e
000001a0: 3db9 20be 85e8 d8bd a37e 913d 8178 04bd
000001b0: 94b5 7bbd c46a ccbd 3169 0d3d a394 083e
000001c0: c414 303d 2d7e 2d3e 99b9 17be 25cc 05be
000001d0: 8ee4 9ebd 3f55 00bd 9521 043d 5cf8 54bc
000001e0: 2f9d c03c dcfb e3bd ad46 32bd ed8b eb3c
000001f0: 6167 833d 7e3a d1bd e3dc ff3d 972f dcbc
00000200: 6669 953d c123 243e 896b a33d 3672 1f3d
00000210: 17a1 6ebd 43ef fbbd e95d af3d b334 093e
00000220: 082d ca3d da1b 023c 6f85 0d3e 6b53 5bbd
00000230: 56c1 81bd 3257 99bd 6916 a9bd 57a0 423c
00000240: a5cb 39be 3943 113e b4a2 3abe 6031 76bd
00000250: d68d 843d d33a 29bb 0857 66bd ef48 29be
00000260: f31c df3d 237c 313e 6688 d33c 7235 b6bd
00000270: 8209 23bd c76f f4bd 9efe 803d 36ad 793d
00000280: 0501 eebc bcfe 82bd 27bc c13d 269f e4bc
00000290: f43d 8b3d 7ab1 693d 605d df3d f2b9 a9bd
000002a0: b82a 0fbe 97f9 913c b6ce 27be 84f4 01be
000002b0: 2ac6 063e 5b80 873c 17f1 f23d 2010 413d
000002c0: 6c3a 173e 474f e53c 3498 1b3e 73bb 36bd
000002d0: eb60 c1bd 9ac7 2cbd 2cc1 dbbc 4726 ce3d
000002e0: e03e c1bb dee8 0abb 3227 b7bd 39aa 13be
000002f0: cd7b 9b3d f0a0 bcbd 5821 f23d 85bc 0d3e
00000300: 0523 1bbe 4b2e 86bd 2948 e9bd f95f 1c3e
00000310: 58b5 bfbd f7c1 093e 46f7 f33d 94ff 18bd
00000320: 80a1 8dbd d27d e13d 856a 11bd b369 3bbd
00000330: 4f53 8f3c e511 24be e490 a3bc fcb5 c63d
00000340: b330 cebd 2627 f6bc 542c 03be 475c 0dbd
00000350: 93f7 933d 8f6a bcbc aa0e 07be 36b8 e63c
00000360: 51bc 07be 3c02 e93d 79eb 563d b077 813b
00000370: 1712 f8bd 49e1 1b3e fe05 01be 5108 d438
00000380: 5cd7 01be 3006 08be 9031 7c3d 3381 073e
00000390: cd4a 963d be69 1b3e 3194 453b 8703 dbbd
000003a0: 6eab 5b3d f751 ebbb d241 323d b449 c7bb
000003b0: 3262 0bbe 058c e9bc d6db 273e 1273 f43d
000003c0: 7b85 163e 3057 603d a6a7 153e 3eed 2c3d
000003d0: 1c92 343d 6fda c63a 508b 5cbd 131d 093e
000003e0: 3847 d0bd bb6d 10bd be8f b33d bd78 09bb
000003f0: 8615 d1bd 3e13 86bc ef65 d63d 11aa 24bd
0.14539258 -0.06470527 -0.009532232 0.104265064 -0.11510982 0.038511403 0.06386178 -0.14803137
0.03208749 -0.04102668 0.16082326 0.017932722 0.15153125 0.08126445 0.08163408 -0.13579763
0.15329495 -0.12100383 0.091450565 0.0874873 0.003257269 0.15567689 -0.04572819 -0.061024714
0.06762507 -0.018652478 -0.12514707 -0.10510537 -0.09226955 0.06279732 -0.11284334 0.08762632
0.16503353 -0.048329018 0.10656988 -0.01714758 0.11197242 -0.016646482 -0.09006135 0.09999823
-0.08003692 0.029510193 0.070728555 -0.11240048 -0.12843968 0.08100791 -0.15317023 -0.12213935
0.09064444 -0.060557503 0.090315506 -0.02510132 0.024382234 -0.074203975 -0.0010043527 -0.13581328
-0.1156038 -0.14179298 0.03447809 -0.011924896 0.13893536 0.03233912 0.10779636 -0.082245864
0.05950096 -0.022538077 0.17082806 0.05725053 0.0035839665 -0.11234645 -0.119529724 -0.053859603
0.08733026 -0.10971923 -0.08261962 -0.15548347 0.1439992 0.13711256 -0.10763066 -0.00027686293
-0.02734672 0.016591711 -0.10911296 -0.11637551 -0.030223863 -0.13698784 -0.006750217 -0.07143375
-0.14224501 -0.021701038 -0.06175517 0.05628127 0.12529907 -0.109784655 -0.03388708 -0.040675662
-0.16771427 -0.16541487 0.052181114 -0.01744244 -0.09631827 0.14474592 -0.17157947 0.13233262
-0.15695663 -0.105912246 0.07104232 -0.032341484 -0.061452463 -0.099813014 0.034524146 0.1333795
0.042988554 0.16942663 -0.14816894 -0.13066156 -0.07758437 -0.031331297 0.03225859 -0.012998667
0.023512451 -0.11132023 -0.043524433 0.028753245 0.06416202 -0.102162346 0.12493303 -0.026878161
0.07295494 0.16029264 0.07979495 0.03892728 -0.058259096 -0.12301495 0.08562834 0.1339901
0.0987187 0.007941211 0.13820432 -0.05354635 -0.06335704 -0.07487334 -0.082562275 0.011879048
-0.1814409 0.141858 -0.18226129 -0.06010568 0.064723656 -0.0025822415 -0.056235343 -0.16531728
0.108941935 0.1733251 0.025821876 -0.08896913 -0.03980399 -0.11935382 0.062985644 0.060956202
-0.02905322 -0.06396243 0.09459715 -0.02790792 0.06798926 0.05705402 0.10906482 -0.082874194
-0.1398114 0.017819209 -0.16387448 -0.12690932 0.13161531 0.016540697 0.118623905 0.04713452
0.1476838 0.027991904 0.1519478 -0.04461236 -0.09442314 -0.042182542 -0.02682551 0.100658946
-0.005897388 -0.0021195929 -0.08943023 -0.14420404 0.075919725 -0.09210384 0.11822766 0.13841446
-0.15150078 -0.065517984 -0.113907166 0.15270986 -0.093607605 0.13452898 0.11912398 -0.037353113
-0.06915569 0.110103264 -0.035501976 -0.0457551 0.01749578 -0.16022451 -0.01996655 0.097026795
-0.100678824 -0.030047964 -0.12809879 -0.03451183 0.072249554 -0.02300003 -0.13189188 0.02816401
-0.13255431 0.11377379 0.052470658 0.0039510354 -0.12112825 0.15222658 -0.12599942 0.00010110497
-0.1267981 -0.1328361 0.061570704 0.1323288 0.07338486 0.15177056 0.0030148143 -0.10694032
0.053630285 -0.007181402 0.043519802 -0.006081784 -0.13611677 -0.02850915 0.16392455 0.119360104
0.14699356 0.05477065 0.14614734 0.04221844 0.044084653 0.00151713 -0.053843796 0.13389997
-0.10169834 -0.035260897 0.08767651 -0.0020976507 -0.102091834 -0.016366597 0.10468661 -0.04020125

fc1.bias f4 [64]
00000000: 0b3e 58bd 945c f9bd 2d39 fbbd 10eb 18be
00000010: e259 c8bd 61ee e83d b967 ee3d fa35 0fbc
00000020: 348f 75bd 5202 1c3e 34a4 4e3b 1161 063e
00000030: 74b3 663c 8fbf 06be 8b99 2ebe d8ae e2bd
00000040: d196 26be 08f9 843d 102a 04bd e8b0 0cbe
00000050: f03c 30bd 6eda 153d 0b3e 9c3d 805b c6bd
00000060: 7c97 07bd 6830 c53d 1c51 d7bd 9599 90bd
00000070: 2ff6 37bd 8afe 9e3d f26c ccbd dda4 2cbd
00000080: e9c4 fb3b 36e8 32bd bb96 1abe 4225 ef3d
00000090: 3a7e 0f3d c7a6 483d 5053 1b3e 7cc0 00bd
000000a0: 8b65 aebd 2cf2 d7bd 5214 c8bc 6d94 a13d
000000b0: 9205 1d3e 1854 b0bd 768d 7f3d 01ea 32bc
000000c0: c9e8 143e d7c9 ac3d 0270 163e 5d1f d23d
000000d0: be74 6abd 1a8f 22bd 893c cc3d b95c d33d
000000e0: 8d75 cebd 486b 2ebd 9b91 0ebe 8060 46bd
000000f0: e449 133d 2959 a5bb 3696 0cbe 219c dbbd
-0.052793544 -0.12175861 -0.12266765 -0.14933419 -0.09782769 0.11373592 0.11640877 -0.008740896
-0.059951022 0.1523526 0.0031530978 0.13122965 0.014080871 -0.13159011 -0.1705076 -0.11068505
-0.1626847 0.064928114 -0.032266676 -0.1373936 -0.043026865 0.036585264 0.07629021 -0.09685421
-0.03310345 0.096283734 -0.10513517 -0.070605434 -0.044912513 0.07763393 -0.09981717 -0.042149413
0.0076833856 -0.043678485 -0.15096562 0.11677028 0.03503249 0.048987176 0.151685 -0.031433567
-0.085154615 -0.105442375 -0.024423752 0.07889638 0.15334156 -0.086097896 0.062390767 -0.010920049
0.14541925 0.084369354 0.14691165 0.10259888 -0.05724024 -0.039687254 0.09972484 0.1032042
-0.10081015 -0.04258278 -0.13922732 -0.048431873 0.03595914 -0.005046029 -0.13729176 -0.107231386

fc2.weight f4 [64, 64]
00000000: ec2d 54bd aca5 5f3c 3645 c3bd 9003 57bd
00000010: e627 8ebd bcff 1bbd 628e ae3d 2662 a9bd
00000020: 609b ebbb c53f 873c aceb afbd 48b5 9d3c
00000030: 40ad dabc 1005 cd3d 39ae 533d 86eb debd
00000040: 84f7 dcbd b809 b73d e0c9 27bc 1a5d 393c
00000050: 0e2b c63d 1057 fc3c 389c 3cbd e4e8 62bd
00000060: 2c4e 513d 8015 7c3c dc2c d0bd f014 6f3c
00000070: b424 ac3d 2f69 ff3c 521b bdbd 10aa da3c
00000080: 360b c6bd 3ab3 19bd 37e6 56bd fe9e f63c
00000090: 2a26 dbbd 986d c5bd cc04 d83c 3845 4a3d
000000a0: 93ee 503d daeb adbc 64e0 763d fa1e 1e3d
000000b0: 625b 5ebc 16ec 32bd 14f9 9abd 27f3 c6bd
000000c0: 6b29 a3bd 6e99 e4bd e05d f3bd d650 823c
000000d0: 92e7 dd3d 7691 c9bd a879 bbbd bd50 f03d
000000e0: bce7 fabd f8bc 48bc 8855 e1bc c069 8ebc
000000f0: 2a04 a83d 6ce0 e1bd 20ea 443d 5556 a93d
00000100: 4162 e43d 4151 a63d 3b9f 15bc 7837 843d
00000110: f626 fc3c 8026 6abd 8746 363c 62b9 653c
00000120: 5bc3 d6bc 8378 bd3d bb67 9b3d d98f 813d
00000130: 00f8 9f3d 1008 dd3d 7499 c0ba 5b7c 05be
00000140: 46d6 d2bd 7b8a 61bd bb33 86bb 4eec acbd
00000150: 090d 4b3c 2e1a 88bd c431 02be 3bbc 95bd
00000160: d828 313b d0e2 e3bd 4d85 d93d ab28 afbd
00000170: 1270 c93d ca70 523c 98ed 8abd fe4a f83d
00000180: c231 a23d 9975 5f3d 05c2 fabb ff13 aebd
00000190: 9e79 49bd bda1 923c 0117 1c3c c35f b53d
000001a0: 1ab5 6abd 8c3c 7f3d a658 bf3d c3e3 d3bd
000001b0: 8101 cfbc 1efb 6ebd 9b75 863d 2067 f3bd
000001c0: ac59 adbd 44b9 e1bc e2b2 213d 5a8e 87bc
000001d0: 7d97 b9bd d0d4 adbd 0944 f0bd 53c0 38bd
000001e0: 437c 3c3d eb3c 993d 74f4 aebd f7b3 c4bd
000001f0: faa4 b8bd bdc2 a8bd 49dc cdbd f6b1 0b3d
00000200: 28bb f13d 148a 84bd 07bf 44bd 38fc bdbc
00000210: f0c3 e53d 32ed a43d d53d 193d 0af7 cebd
00000220: ad28 2a3d b130 9dbc 65c8 3abd 9590 f93d
00000230: 6c7b b3bd 1823 463b 2208 e0bd e549 a63d
00000240: 9608 3ebd 704e 053e 8f9d fc3c d04e 033e
00000250: 88bf 3cbd 87d2 87bd 8c24 1c3d df28 d83d
00000260: c452 923d 1634 d83d 1795 a23d 9ad4 b63d
00000270: ec57 be3d 74c3 c03d 2c7d ad3d 171e 873d
00000280: b5df b9bd 3c86 c9bd 0518 f1bd a44c bf3d
00000290: 3b46 b43d adbc c6bd 37c8 4ebd 559c aa3d
000002a0: 9ab3 dbbc f981 b0bd 0e3e 133d a97f bbbd
000002b0: 725e 8a3c 8020 60bd e822 643d 1c68 c43c
000002c0: 5fed 75bd aca0 5e3d 6c1b 003c 76e5 c8bd
000002d0: b17c 413d 407f 493d 8f57 1c3d 20cf e33c
000002e0: df6b 80bd 08ae c03d 9642 d2bd af9b b7bd
000002f0: 1208 153d 4998 e4bc 73e5 8d3d 7ce5 f03d
00000300: a016 39bd 79c2 883d 1b69 183d 4bfc b23c
00000310: 6f52 c9bd bc5c 07be ea21 04be 5a26 aabd
00000320: abec a93c 2581 9b3d 44c1 febc ec67 9b3d
00000330: bb7b a0bd 0d11 d2bd f47f cebc e048 f63b
00000340: 5e41 c2bd c6e5 2f3c d4de d1bd dc65 a43d
00000350: 24a3 10bd 823a d1bd e1e4 023d 8c25 c73c
00000360: 894a 503d e827 153d 655f 02be 0f1e 013d
00000370: 8bd7 b03d 2a65 963c 9b70 a93d 93d3 e13c
00000380: fb98 c43d d716 a53d 0ec4 22bd de42 643d
00000390: 3c2a 313d 3e74 e83c 11a9 0abc 3f6f 26bd
000003a0: 8c00 733d 81e5 aabd 16e6 443d dd9e 2dbd
000003b0: 76e6 dc3c e2de 27bd 7a10 c83d 3e12 cebd
000003c0: 75f4 a13d 3634 05be 4d75 6ebb d465 02be
000003d0: 6a7f b1bd 892c e9bc ece0 7c3c 9cf9 1c3c
000003e0: c8e8 1dbd ff4a 273d 7afb 9b3d 1f45 aa3d
000003f0: aa6f 993d b19a ce3d bd69 01bd b2a5 ecbd
-0.051801607 0.013650339 -0.09534685 -0.05249363 -0.06941204 -0.038085684 0.08523251 -0.082706735
-0.007190153 0.0165099 -0.08589873 0.01925148 -0.02669394 0.10010731 0.051679824 -0.10884766
-0.10789397 0.089374006 -0.010241002 0.011313701 0.09676181 0.030803233 -0.04604742 -0.055397883
0.05109994 0.015385985 -0.10164806 0.014592394 0.08405438 0.031178085 -0.092337266 0.02669242
-0.09670107 -0.03752444 -0.052465644 0.03010511 -0.107006386 -0.09640044 0.026369475 0.04938242
0.051008772 -0.021230627 0.06027259 0.03860376 -0.013571592 -0.04368218 -0.07567039 -0.097143464
-0.07966884 -0.11162077 -0.118831396 0.015907686 0.10835184 -0.098421976 -0.091540635 0.117341496
-0.12251231 -0.012252085 -0.027506605 -0.01738441 0.08203919 -0.11029133 0.04807484 0.0826842
0.11151553 0.08120967 -0.009132202 0.06455892 0.030780297 -0.057165623 0.0111252135 0.0140212495
-0.0262162 0.092515014 0.075881444 0.06326265 0.07810974 0.107925534 -0.001469417 -0.13035719
-0.10294776 -0.055063706 -0.004095522 -0.08443509 0.012393245 -0.066456184 -0.12714297 -0.07311293
0.0027032401 -0.111272454 0.10621128 -0.08552679 0.09835829 0.012844274 -0.06783599 0.121236786
0.07919647 0.05455551 -0.0076525235 -0.08499908 -0.04918825 0.017899388 0.009526969 0.08856156
-0.05730162 0.0623136 0.0934308 -0.103461765 -0.025269272 -0.058344953 0.065654 -0.11884904
-0.08464369 -0.027554162 0.039477237 -0.01654737 -0.09062097 -0.084878564 -0.11731727 -0.04510529
0.046016943 0.07482322 -0.085427195 -0.09604638 -0.09015842 -0.082402684 -0.10051782 0.034105264
0.11803275 -0.06471649 -0.04803374 -0.023191556 0.11219013 0.08053054 0.037412483 -0.10105713
0.041542698 -0.019188257 -0.045601267 0.1218578 -0.08763775 0.003023332 -0.10939051 0.08119563
-0.046394907 0.13018203 0.030836849 0.12823033 -0.046081096 -0.06631952 0.03812079 0.105546705
0.071446925 0.105568096 0.07938593 0.08927269 0.092941135 0.0941228 0.0847114 0.06597536
-0.09075872 -0.09840056 -0.117721595 0.0934079 0.08802458 -0.09703956 -0.05048391 0.08330599
-0.02681904 -0.0861854 0.03594785 -0.091552086 0.016890738 -0.054718494 0.05569735 0.023975424
-0.060040828 0.054352447 0.007819038 -0.09809391 0.047238056 0.04919362 0.03816944 0.027808726
-0.06270575 0.09408194 -0.102666065 -0.08965241 0.03638465 -0.027904646 0.069285296 0.11762521
-0.045187593 0.06677718 0.03720961 0.021848818 -0.09830176 -0.13218969 -0.12903562 -0.08308096
0.020742735 0.07592992 -0.031098016 0.07588181 -0.078361 -0.102571584 -0.025207497 0.0075160116
-0.09485124 0.010735935 -0.10247579 0.08027241 -0.035311833 -0.102162376 0.031956557 0.024309896
0.050852332 0.03641501 -0.12731703 0.031522807 0.086348616 0.018358786 0.08273431 0.027566707
0.09599491 0.08060997 -0.039737754 0.055727832 0.04325317 0.028375741 -0.00846316 -0.040633436
0.059326693 -0.08344556 0.04807099 -0.042387832 0.026965361 -0.040984042 0.09768768 -0.10062073
0.079079546 -0.13008198 -0.0036385835 -0.12734157 -0.086668804 -0.028463619 0.015434485 0.009580996
-0.038552076 0.040843006 0.07616325 0.08313965 0.07492001 0.10088099 -0.03159498 -0.115550414

fc2.bias f4 [64]
00000000: d013 c7bd 5faa ad3d 0d0b 3e3c 94fc c6bc
00000010: 717c 2b3d 2322 a8bd a649 873d d10e aa3d
00000020: 729d 2139 9293 be3d ec40 7abc bc5b d6bd
00000030: 2cbc 9dbd ab36 45bd 6ea7 603d 1318 98bd
00000040: 0136 c73d a538 2bbd 84ef 353d 6de7 dabc
00000050: 5374 433d 1a47 d4bd 0edb fc3c 165e b9bd
00000060: 2f55 b83d 7507 b0bd a937 b4bc 0311 c7bd
00000070: d1c2 cf3d 7278 9a3d 6399 34bd aea9 b4bd
00000080: 5c92 0d3d a57a 6dbd 945c a1bd a17d 243c
00000090: 16dd b5bd aa50 86bd 80d2 4dbd ce88 b1bd
000000a0: 1bf4 b7bd 2f9c 7fbd 4513 9a3c d51e 073d
000000b0: 9c8a 4bbd d1e5 da3d 0eb6 dbbd e22c 5a3d
000000c0: ea7e 9bbc e6b7 d2bd b5b6 313d 6522 113e
000000d0: 90fe 8a3c a989 4abd 849a 6f3d a039 1fbd
000000e0: efc9 933d fb4e 623d 3e0d 8d3c 9ad6 10bd
000000f0: 7713 0b3d 964c c63c f946 3a3d 86e4 8cbd
-0.09720576 0.08479761 0.011599314 -0.02429036 0.041866723 -0.08209636 0.06605844 0.08303607
0.0001541281 0.093054906 -0.015274268 -0.10466716 -0.077019066 -0.04814784 0.054847173 -0.07426467
0.09727097 -0.041802067 0.044417873 -0.02672168 0.047718357 -0.10365124 0.030866172 -0.090511486
0.090006225 -0.08595172 -0.021999197 -0.097200416 0.1014458 0.07542504 -0.044091593 -0.08821426
0.034563407 -0.05797829 -0.07878986 0.010039718 -0.088800594 -0.06558354 -0.050249577 -0.086686715
-0.08982106 -0.062404808 0.018808017 0.032988388 -0.049692735 0.10688365 -0.107280836 0.05326546
-0.018981416 -0.10288982 0.043387134 0.14173277 0.016967088 -0.04944769 0.058496967 -0.038873315
0.0721625 0.055251103 0.017218228 -0.03536091 0.03395411 0.02420644 0.04547784 -0.06879525

fc3.weight f4 [4, 64]
00000000: 44c6 f03d 9e90 59bc cec5 ed3d 1980 dabd
00000010: 1fe7 95bd 85c6 2fbc f00d 313d b9d1 53bd
00000020: e93c 173d 3861 64bb 31b7 45bd fd26 8a3d
00000030: ba8c b5bd f7ba 32bd d557 35bd 739f 7abd
00000040: 9425 a3bd 5ed7 69bd 0260 083e da3e 66bd
00000050: 830b 813d dc92 863b eb14 dd3c 18da eb3c
00000060: 1712 71bd 98cd b33d 15d2 c9bd 6dac 393d
00000070: 849b ec3d 6112 5cbd 1544 8f3d f4c9 c5bd
00000080: e538 633d 9e05 c5bd 1513 723d a8f9 713c
00000090: a395 c53d 93a8 9a3d 958b c53d 54b8 483b
000000a0: 6a36 1a3c 337a 013e c2e9 013e 043d c3b9
000000b0: 8103 e43d f9f7 71bc def1 90bd ae96 c6bd
000000c0: c414 d43d a381 c4bb c593 a7bd 3064 0c3e
000000d0: c985 dd3d 425e 83bd 4d78 2c3d a49a d1bd
000000e0: f62c ac3c 9537 f73d 9ae2 553d 26a5 b9bd
000000f0: 8772 983d 97fd 13bc b9a9 d7bd 8a0f 40bd
00000100: c4e4 a4bd 6eb0 8bbd e494 78bd 1517 b6bd
00000110: d184 4ebc f37c 033e 81dd a53d d233 0a3d
00000120: 0612 efbc a4d7 f13d f40f 86bc 785c cf3d
00000130: 4edb c8bd 56ae 0ebe e64c a13d 681c 833d
00000140: d5fc c83d a316 94bd 2f9f c0bd 745f 533c
00000150: a132 9abc c81b b03c 6d87 b73c 6612 66bd
00000160: 43e0 bf3c a5c0 97bc ad71 e9bd c072 e4bd
00000170: 6fbf a63d 0631 c4bd 778c a83d 7cef dabc
00000180: b2c7 393d e65a b6bc 302e aabd 1e42 e63c
00000190: 6bf5 cd3c 54d4 01be 7cbb d33d b61e 913c
000001a0: 61cb bbbd 1f1e 7b3d 6820 bd3b 70bf edbd
000001b0: 5353 6e3d d801 1e3c 885c 68bd e45a dc3d
000001c0: 0ea3 98bd 0ca8 2a3b 4dec d13c 1e64 c8bb
000001d0: 9329 033d 206f 0c3c a1a7 acbb bd64 1dbd
000001e0: 30fe 993d 35f0 b83d c1b3 e0bc 3910 adbd
000001f0: b5a5 013e 95b2 5bbd 84d8 993d 8d12 9cbd
00000200: ee9d 623d 4f88 373d d7e2 ef3c 06a7 c1bd
00000210: c1ef 2ebd c882 bb3d b79a c33d 85e9 9abc
00000220: c351 c1bd 492a 5a3b d30c a83d 5b23 9a3b
00000230: 22da d0b9 ca44 243c 543f d93d d83c d9bd
00000240: 4b75 703d 5f90 a93d 73cc d53d bece 24bd
00000250: 0474 04bd 7d9b c3bd cede 2bbd 0c77 94bd
00000260: e8a6 dfba e623 b33d 26b9 babd 05f8 b73d
00000270: 5efb d33d 4b65 8cbd e373 093e 03b5 8c3c
00000280: 72f6 6f3c 420c 84bd f2dc d9bd c484 12bb
00000290: 9757 2ebd e92e 433d 96f9 8bbc 6cd8 ae3d
000002a0: 58a0 8ebd d0fc cc3a 550c a9bd e61e e2bd
000002b0: 816f 123d 24e8 933d 00cc 0dbe 49f3 bf3d
000002c0: e943 0cbd 992b aebc 988b ca3c 6eac 3dbd
000002d0: 4fd8 5b3c 8b5a 743d 26d1 303d 009e 09bd
000002e0: 0056 af3c 1116 d1bd 2668 38bd 80f6 703d
000002f0: 46c1 64bc 2af3 9a3d 11e6 143d daa5 9abd
00000300: 101a c9bc e5d8 58bd f798 91b9 87b7 96bc
00000310: 9ef4 493c 13ec a6bd 998c b7bd f7ca 12bc
00000320: fdf0 a9bd edac 82bd 5dad e73d 77cb 20bc
00000330: 243d c63d 2bb6 9a3d a4d7 173d d916 ee3d
00000340: 8b40 3f3d ed46 0d3d c35c 06bd 87af 82bd
00000350: 2832 23bc 4b6a 02be 7471 463d 2c06 933d
00000360: 19b2 05bd 6ffa d0bd e245 fb3d 0771 a13d
00000370: cc33 3bbd 373c 9e3d 0f02 86bb a439 cebd
00000380: cbc8 953c 0b7f 193d 2bbf 893d 832f 15bd
00000390: ab39 e93d 49b8 d5bd 14b6 9c3d 3c90 9ebd
000003a0: 288f 20bd 2db7 15bc 9912 fe3d 1fc2 04bd
000003b0: bbb9 b43d 0ebe 863b c785 afbd 9c1c e43d
000003c0: 1cbd b8bd fdc3 e33d c7e4 46bd dc56 813d
000003d0: f817 46bd caf9 663d 63d6 7cbd e314 66bd
000003e0: dee8 7abd aafd 023d e18e 553d 4942 89bd
000003f0: c69f cd3c 3a72 c03b 246d 0e3e 8750 c23c
0.11756566 -0.013279108 0.11609994 -0.10668964 -0.073194735 -0.010728483 0.043226182 -0.05171368
0.036923323 -0.0034847986 -0.048270408 0.06745718 -0.08864732 -0.043635335 -0.044273216 -0.06118722
-0.07966152 -0.057090156 0.13317874 -0.056212284 0.06301024 0.0041068625 0.026987514 0.028790519
-0.058855142 0.08779448 -0.09854523 0.045330454 0.115531 -0.053728465 0.069954075 -0.0965766
0.05547418 -0.09620212 0.05910023 0.014768995 0.096476816 0.07551684 0.09645764 0.0030627446
0.009412387 0.12644272 0.12686828 -0.00037238759 0.11133481 -0.014768594 -0.070773825 -0.096967086
0.10355523 -0.005996899 -0.08182482 0.13710093 0.10816533 -0.064144626 0.042106915 -0.102345735
0.021017533 0.12071148 0.052218057 -0.09064703 0.07443719 -0.0090326285 -0.10530419 -0.04688982
-0.08051446 -0.06820761 -0.06068887 -0.08891121 -0.012604908 0.12840633 0.08098889 0.033740826
-0.029183399 0.11808708 -0.016365029 0.10125059 -0.09807454 -0.13933691 0.07875995 0.064019024
0.09813849 -0.0723088 -0.09405362 0.012901176 -0.01882297 0.021497622 0.022403443 -0.05616989
0.023422366 -0.018524477 -0.11398635 -0.11154699 0.08141982 -0.09579663 0.082299165 -0.026725523
0.04535646 -0.02226014 -0.08309591 0.028107699 0.025141438 -0.12678653 0.10338494 0.01771484
-0.09169651 0.061308023 0.0057716854 -0.116087794 0.058184933 0.009643994 -0.05672887 0.107595235
-0.07452975 0.0026040105 0.025625372 -0.0061154505 0.03202207 0.008571416 -0.0052690064 -0.03842615
0.075191855 0.09030191 -0.027429463 -0.0845036 0.12660868 -0.053637106 0.07512 -0.07620726
0.055326395 0.04480773 0.02928297 -0.09455685 -0.042709116 0.09155804 0.09550994 -0.018910179
-0.09439423 0.0033289364 0.08205571 0.0047039217 -0.00039835373 0.010026166 0.10607782 -0.10607308
0.05870561 0.0827949 0.10439386 -0.040236227 -0.032337204 -0.095511414 -0.04196053 -0.07249269
-0.0017063292 0.087470815 -0.091173455 0.08982853 0.10350679 -0.068552576 0.13423114 0.017176157
0.0146461595 -0.064476505 -0.10637845 -0.0022356967 -0.042564 0.04765216 -0.017086785 0.08537373
-0.06964177 0.0015639309 -0.08254305 -0.1104105 0.03575087 0.07222012 -0.13847351 0.09372575
-0.03424445 -0.021261023 0.024724767 -0.04630702 0.013418271 0.05965666 0.04316821 -0.033597946
0.021403313 -0.10209287 -0.0450212 0.05882883 -0.013962096 0.07565911 0.03635222 -0.07551165
-0.02454856 -0.05294122 -0.00027770523 -0.01839806 0.012326388 -0.08150496 -0.08962364 -0.008959523
-0.08297918 -0.06380639 0.11312363 -0.009814135 0.096796304 0.07554277 0.037070885 0.116254516
0.046692412 0.03449147 -0.03280331 -0.063811354 -0.009960689 -0.1273586 0.04844804 0.071789116
-0.03264055 -0.102040164 0.122691885 0.078828864 -0.045703694 0.07726329 -0.004089601 -0.10069588
0.018284222 0.037474673 0.067259155 -0.036422264 0.113879524 -0.1043554 0.07651916 -0.07742354
-0.039199024 -0.009137911 0.12405891 -0.03241169 0.08824488 0.0041120118 -0.08570438 0.11138269
-0.09020445 0.11121366 -0.048558023 0.06315395 -0.048362702 0.05639056 -0.061727893 -0.056172263
-0.061257236 0.031980194 0.052138213 -0.06702096 0.0251006 0.005872992 0.13908821 0.023720039

fc3.bias f4 [4]
00000000: bcce e7bc 7710 253d 1939 ad3d 0f56 4b3d
-0.02829682 0.040298905 0.08458156 0.04964262
