mlruns/0/2ee17b31c2014f7d9a4baeffb73cf994/artifacts/checkpoint.pth (torch_old, 28447 bytes, 6 tensors)

fc1.weight f4 [64, 37]
0	0x3e050324	0.1298948
1	0xbd8bd169	-0.06827051
2	0xbbe6e00d	-0.007045752
3	0x3e03c095	0.12866433
4	0xbdf8cdf1	-0.12148655
5	0x3cbe8c5d	0.02326029
6	0x3d73da3b	0.059534293
7	0xbe0b895d	-0.13626619
8	0x3d128dd1	0.035779778
9	0xbd2f78bb	-0.042839747
10	0x3e1c4c68	0.15263522
11	0x3ccd587c	0.025066607
12	0x3e00d090	0.1257956
13	0x3db0c0dc	0.08630535
14	0x3d98cbeb	0.07460769
15	0xbdfe5fde	-0.12420629
16	0x3e16e22b	0.14734714
17	0xbe0d42bf	-0.13794993
18	0x3ddcce2b	0.10781511
19	0x3dba389a	0.09092827
20	0x3a56a657	0.0008188239
21	0x3e21f258	0.15815103
22	0xbcebf8a5	-0.028805086
23	0xbda65499	-0.081216045
24	0x3d8297f7	0.06376641
25	0xbcc51dfa	-0.024062146
26	0xbe023874	-0.12716848
27	0xbdea635f	-0.11444735
28	0xbdbd017b	-0.09228798
29	0x3d763c9c	0.060116395
30	0xbddf20fb	-0.108949624
31	0x3db0b553	0.08628335
32	0x3e15a71f	0.14614533
33	0xbd2bba33	-0.04192562
34	0x3dc8ff8f	0.09814369
35	0xbcb1e618	-0.021716163
36	0x3de83cd0	0.11339724
37	0xbc8d76d6	-0.01726858
38	0xbde31ac6	-0.11089091
39	0x3def1ae9	0.116750546
40	0xbdc54bca	-0.09633596
41	0x3d24236b	0.04007284
42	0x3da44268	0.080204785
43	0xbdd18d68	-0.10232049
44	0xbe0d91f8	-0.13825214
45	0x3dac32f4	0.08408156
46	0xbe161fa6	-0.1466051
47	0xbe075e34	-0.1321953
48	0x3db484ab	0.08814367
49	0xbd666513	-0.056248736
50	0x3de42278	0.11139387
51	0xbd21608d	-0.03939872
52	0x3cc50728	0.024051264
53	0xbda2bcdb	-0.079461776
54	0x3c451f4b	0.012031387
55	0xbe17df16	-0.14831194
56	0xbded41e0	-0.1158483
57	0xbe087aa8	-0.1332804
58	0x3d25c578	0.040471524
59	0xbd0faa58	-0.03507456
60	0x3e1c83ce	0.15284654
61	0x3bc606e2	0.006043301
62	0x3dfc30e7	0.12314015
63	0xbda65ec3	-0.08123543
64	0x3d553b69	0.05205861
65	0x3a69f969	0.00089254096
66	0x3e1ee180	0.15515709
67	0x3d36f514	0.04466732
68	0x3caa8163	0.02081365
69	0xbdce7113	-0.10080161
70	0xbe0cd345	-0.13752468
71	0xbd5ed5bd	-0.054403055
72	0x3d8d6da4	0.06905678
73	0xbdd4a998	-0.1038391
74	0xbd875292	-0.06607546
75	0xbe0f76e9	-0.14010204
76	0x3e174f54	0.14776355
77	0x3e040b92	0.12895039
78	0xbdc26f97	-0.0949394
79	0x3c32a5b5	0.010903765
80	0xbd40f4d9	-0.047108505
81	0x3cbd37d6	0.023097914
82	0xbdea2b03	-0.11433985
83	0xbe01d4b7	-0.126788
84	0xbb027c36	-0.0019910461
85	0xbe0b8b3e	-0.13627335
86	0x3c9ef664	0.019404598
87	0xbd8b5e51	-0.06805099
88	0xbe0fdb66	-0.14048538
89	0xbd0f777b	-0.035026055
90	0xbd2a14c2	-0.041523702
91	0x3d87d9e6	0.06633358
92	0x3df9fdec	0.12206635
93	0xbdd1eff2	-0.10250844
94	0xbd3b80c5	-0.0457771
95	0xbd1d5f36	-0.03842088
96	0xbe19760b	-0.14986436
97	0xbe31f4d8	-0.17378557
98	0x3d6df80a	0.058097877
99	0xbd01a3ba	-0.031650282
100	0xbddaaeed	-0.10677896
101	0x3e23ba41	0.15989019
102	0xbe1a2631	-0.15053631
103	0x3e038a30	0.12845683
104	0xbe1e3d66	-0.15453109
105	0xbdcf0991	-0.101092465
106	0x3da9a9a0	0.082843065
107	0xbd4c221d	-0.04983722
108	0xbd468238	-0.04846403
109	0xbdd54710	-0.10413945
110	0x3d2b86b8	0.041876525
111	0x3def24d9	0.1167695
112	0x3d6eacbb	0.058270197
113	0x3e42d6eb	0.19027297
114	0xbded6b35	-0.11592714
115	0xbe0aaa42	-0.1354151
116	0xbdcd02d1	-0.10010303
117	0xbc6f6d72	-0.014613496
118	0x3d4a3300	0.049365044
119	0x3a5e282a	0.0008474613
120	0x3d4ec194	0.05047758
121	0xbde1029b	-0.10986825
122	0xbcc5e1ae	-0.024155464
123	0x3c69228b	0.014229427
124	0x3d3a4811	0.045478884
125	0xbdbd011a	-0.09228726
126	0x3e1a1a21	0.1504903
127	0xbce378d7	-0.027767582
128	0x3d64f42a	0.055896915
129	0x3e31d19e	0.17365119
130	0x3dab723a	0.08371396
131	0x3d5c7767	0.05382481
132	0xbd2590dd	-0.040421356
133	0xbdf7225b	-0.120671
134	0x3daf8ac6	0.08571391
135	0x3e1a1948	0.15048707
136	0x3dcabfa2	0.09899832
137	0x3d5a2559	0.053258274
138	0x3df40ac1	0.11916114
139	0xbd59c840	-0.05316949
140	0xbd0bd622	-0.03413976
141	0xbd8c6891	-0.06855882
142	0xbdbd414c	-0.0924097
143	0x3c94552d	0.018107021
144	0xbe257aca	-0.16160122
145	0x3de8639b	0.11347123
146	0xbe4db6ee	-0.20089313
147	0xbd5257a7	-0.051353123
148	0x3d3cd4db	0.046101432
149	0xbba40fbe	-0.0050067594
150	0xbd8cdf22	-0.06878497
151	0xbe188037	-0.1489266
152	0x3dbca8b5	0.09211866
153	0x3e1bca15	0.15213807
154	0x3c7858ff	0.015157937
155	0xbdafd001	-0.085845955
156	0xbd169074	-0.036758855
157	0xbdfe6e51	-0.12423385
158	0x3d584a58	0.052805275
159	0x3d15c4c4	0.036564603
160	0xbd055be4	-0.032558337
161	0xbda18486	-0.07886605
162	0x3daf4d86	0.08559708
163	0xbd167052	-0.03672821
164	0x3d83eeaf	0.0644201
165	0x3ce9494a	0.02847733
166	0x3dcb3a5c	0.099232405
167	0xbdaea63c	-0.085278004
168	0xbe146cbc	-0.14494604
169	0xbbc12e54	-0.0058954153
170	0xbe06814f	-0.13135265
171	0xbe226d97	-0.15862118
172	0x3e00db76	0.12583718
173	0xbb5744d1	-0.0032847414
174	0x3de6c1a8	0.11267406
175	0x3d274653	0.04083855
176	0x3e074cad	0.13212843
177	0x3cbbac47	0.022909297
178	0x3e19b631	0.15010907
179	0xbd889d17	-0.066705875
180	0xbddf4bd3	-0.10903134
181	0xbbab1316	-0.005220781
182	0xbd178711	-0.036994044
183	0x3dd16c88	0.10225779
184	0xbc70074d	-0.014650178
185	0x3c0222df	0.007942884
186	0xbdb02170	-0.08600128
187	0xbe142937	-0.14468847
188	0x3c8e6b6c	0.017385207
189	0xbdbc3c96	-0.09191243
190	0x3e1eb1da	0.15497532
191	0x3e0db4ae	0.13838455
192	0xbe28c23b	-0.16480343
193	0xbd9481ed	-0.07251344
194	0xbde6163c	-0.112347096
195	0x3e1f73db	0.15571539
196	0xbdd73fb2	-0.10510196
197	0x3e1fccb5	0.15605433
198	0x3df69a2c	0.12041125
199	0xbd09879d	-0.033576597
200	0xbd8c68b7	-0.0685591
201	0x3de93b68	0.11388284
202	0xbcfd349a	-0.030908871
203	0xbd77845a	-0.060428955
204	0x3c78b61c	0.015180137
205	0xbe1e7f15	-0.15478165
206	0xbd052e6c	-0.032514974
207	0x3d962587	0.073313765
208	0xbd8d0658	-0.068859756
209	0xbcf1c99a	-0.029515076
210	0xbde725f5	-0.112865366
211	0xbd00aba3	-0.031413686
212	0x3d9ab4f0	0.07554042
213	0xbd050735	-0.032477576
214	0xbe01e1c2	-0.12683776
215	0x3d0032d2	0.031298466
216	0xbe112c3d	-0.14177032
217	0x3e08a01a	0.13342324
218	0x3d34fba1	0.044185285
219	0x3bf8e6f6	0.007595892
220	0xbe063868	-0.13107455
221	0x3e1d5345	0.15363796
222	0xbe124f97	-0.14288174
223	0xbcc4a8e4	-0.024006315
224	0xbe125b33	-0.14292602
225	0xbdfb6148	-0.12274414
226	0x3d311c62	0.04323996
227	0x3dd4ea89	0.103962965
228	0x3d56183c	0.052269205
229	0x3e20d329	0.15705551
230	0x39be281e	0.00036269514
231	0xbe091ade	-0.13389155
232	0x3b908600	0.0044105053
233	0x3ab5545c	0.0013834345
234	0x3d012237	0.03152677
235	0xbbea2e47	-0.00714663
236	0xbe0ffa86	-0.14060411
237	0xbcba6679	-0.02275394
238	0x3e0be8e0	0.13663054
239	0x3dc29db7	0.09502738
240	0x3e20f7bc	0.15719503
241	0x3d37a5e7	0.04483595
242	0x3e0818a1	0.13290645
243	0x3c88446e	0.016634192
244	0x3cf5be4d	0.029997969
245	0xba84b006	-0.001012326
246	0xbdc32b47	-0.09529739
247	0x3de79b33	0.11308899
248	0xbe0b2130	-0.13586879
249	0xbd347b57	-0.04406294
250	0x3da383b0	0.07984102
251	0xbd110e6b	-0.03541414
252	0xbdd6d0e5	-0.10489062
253	0xbd11df0e	-0.035613112
254	0x3d8cf083	0.068818115
255	0xbcec8df7	-0.028876288

fc1.bias f4 [64]
0	0xbd70105b	-0.058609348
1	0xbdf89f47	-0.12139755
2	0xbdeadfe5	-0.11468486
3	0xbe187624	-0.14888817
4	0xbde03c67	-0.10949021
5	0x3deef898	0.11668509
6	0x3dc3c4d4	0.09559026
7	0xbc288a53	-0.010286885
8	0xbd826207	-0.063663535
9	0x3e13aa0b	0.14420335
10	0xbbe828ba	-0.007084933
11	0x3e0acf56	0.13555655
12	0x3c9df063	0.019279664
13	0xbe016cf0	-0.12639213
14	0xbe206133	-0.15662079
15	0xbdcbf5ba	-0.09958978
16	0xbe24d75e	-0.16097781
17	0x3d45c48d	0.04828315
18	0xbd05efb1	-0.03269929
19	0xbe04b0c8	-0.12958062
20	0xbd423884	-0.04741718
21	0x3d4f838c	0.050662562
22	0x3d9519aa	0.07280286
23	0xbdbe04d3	-0.09278264
24	0xbd1aa969	-0.03775922
25	0x3db978c0	0.09056234
26	0xbdc3d07b	-0.09561249
27	0xbdc73f9d	-0.0972893
28	0xbd79d72e	-0.060996227
29	0x3d74add9	0.059736107
30	0xbdbb283c	-0.091385335
31	0xbcb73f4b	-0.022369048
32	0xbc092182	-0.008369805
33	0xbd0d61f0	-0.03451723
34	0xbe221870	-0.15829635
35	0x3de94c3c	0.11391494
36	0x3c993756	0.018703144
37	0x3d41bc9e	0.04729902
38	0x3e22d735	0.15902407
39	0xbd0c65f0	-0.034276903
40	0xbdadb677	-0.08482068
41	0xbdd779e7	-0.10521298
42	0xbc89a98e	-0.016804483
43	0x3dc0e277	0.09418195
44	0x3e085a3b	0.1331567
45	0xbdc4b4b4	-0.09604779
46	0x3d73a20c	0.05948071
47	0xbcb2035c	-0.021730117
48	0x3e1b0878	0.1513995
49	0x3db065f4	0.08613196
50	0x3e013876	0.12619194
51	0x3de0058a	0.109385565
52	0xbdc8c2e8	-0.098028004
53	0xbd4fa69b	-0.050695997
54	0x3de70ded	0.11281953
55	0x3dbc3a25	0.09190778
56	0xbdd380a5	-0.10327271
57	0xbd64e3bb	-0.055881243
58	0xbe022840	-0.12710667
59	0xbd450832	-0.04810352
60	0x3ce3f5c5	0.027827153
61	0xbb9c14ce	-0.0047632223
62	0xbe0c079a	-0.13674775
63	0xbdca23b5	-0.09870092

fc2.weight f4 [64, 64]
0	0xbd81311f	-0.06308197
1	0x3ca2f210	0.019890815
2	0xbdc34536	-0.09534685
3	0xbd0b6e13	-0.03404052
4	0xbd6621ef	-0.056184705
5	0xbd51fcec	-0.051266596
6	0x3dc0b341	0.0940919
7	0xbda12ec2	-0.078702465
8	0xbc052776	-0.008127084
9	0x3cd4e186	0.025986444
10	0xbd741427	-0.05958953
11	0x3c02ae79	0.007976168
12	0xbd173327	-0.036914017
13	0x3db5f027	0.08883696
14	0x3d7a6529	0.06113163
15	0xbd892e3d	-0.066982724
16	0xbdde1c3e	-0.108452305
17	0x3de332e8	0.11093694
18	0xbb5f6de2	-0.0034092595
19	0x3d117457	0.03551134
20	0x3de3a018	0.1111452
21	0x3d0f0ba1	0.0349232
22	0xbd4d4874	-0.050117925
23	0xbd62e8e4	-0.055397883
24	0x3d759508	0.05995658
25	0x3cdd41b2	0.027008865
26	0xbdeff54e	-0.1171671
27	0x3bdca367	0.0067333463
28	0x3d9a3a98	0.07530707
29	0x3d74a0df	0.05972373
30	0xbdbd1b52	-0.092337266
31	0x3cc94e31	0.024573417
32	0xbda9026d	-0.08252416
33	0xbd04c321	-0.032412652
34	0xbccafae9	-0.024777846
35	0x3d51792e	0.051140957
36	0xbddb262a	-0.107006386
37	0xbdc56d98	-0.09640044
38	0x3d48e82d	0.049049545
39	0x3d16d418	0.036823362
40	0x3d81baf3	0.06334486
41	0x3bd9fa8c	0.006652182
42	0x3d6eec1e	0.058330648
43	0x3d6354ca	0.055500783
44	0x3c57d74e	0.013173891
45	0xbcc6df5b	-0.024276426
46	0xbd9519a7	-0.072802834
47	0xbd911649	-0.07084329
48	0xbd510f96	-0.051040255
49	0xbdf1b584	-0.118021995
50	0xbe07351b	-0.13203852
51	0x3d0d329c	0.034472093
52	0x3ddde792	0.10835184
53	0xbdba5823	-0.09098842
54	0xbdb9925a	-0.090611175
55	0x3e10d977	0.14145456
56	0xbe0009c6	-0.12503728
57	0xbbbd18d6	-0.005770783
58	0xbcd91c6e	-0.026502814
59	0xbbc1d21c	-0.0059149396
60	0x3db7c708	0.08973509
61	0xbdbef8c0	-0.09324789
62	0x3d992858	0.07478398
63	0x3df6807e	0.12036227
64	0x3df32675	0.118725695
65	0x3db4435a	0.08801909
66	0x3bb1061a	0.0054023387
67	0x3d697297	0.056994047
68	0x3d6ab14a	0.057297982
69	0xbd5e93ba	-0.0543401
70	0x3c92bf57	0.017913504
71	0x3c5b1730	0.013372228
72	0xbbf368af	-0.0074282507
73	0x3db486ba	0.088147596
74	0x3da56d83	0.08077528
75	0x3d8f1e18	0.06988162
76	0x3dabb24b	0.08383616
77	0x3dd3138f	0.10306465
78	0x3b0eca3d	0.0021788024
79	0xbe02f209	-0.12787642
80	0xbdd72967	-0.10505944
81	0xbce5992c	-0.02802714
82	0x3c1667f4	0.009180058
83	0xbd95c6e9	-0.0731333
84	0xbc194931	-0.009355829
85	0xbda599ca	-0.080859736
86	0xbdcc0d5b	-0.09963485
87	0xbdb2bbf5	-0.08727256
88	0x3a97995a	0.0011566088
89	0xbdd00a7c	-0.1015825
90	0x3dcd3549	0.10019929
91	0xbda20a6a	-0.079121426
92	0x3dd8e5c6	0.10590701
93	0x3cacdef2	0.021102402
94	0xbd58bde1	-0.052915458
95	0x3de819b1	0.11333025
96	0x3db47b07	0.08812528
97	0x3d488446	0.04895427
98	0x3b8c1d3c	0.004275946
99	0xbd9fe48d	-0.078072645
100	0xbd268045	-0.04064967
101	0x3cb34c5f	0.021887003
102	0x3cbebf0e	0.023284461
103	0x3db69d1b	0.08916684
104	0xbd786a58	-0.060648292
105	0x3d8c249f	0.068429224
106	0x3dc3aab6	0.09554045
107	0xbddb66e1	-0.10712982
108	0xbccd250e	-0.025042083
109	0xbd5bff67	-0.053710368
110	0x3d818116	0.06323449
111	0xbdb22632	-0.086986914
112	0xbd9f7b14	-0.07787147
113	0xbcc8f571	-0.024531098
114	0x3d3e0041	0.04638696
115	0xbc00f65c	-0.007871237
116	0xbd88462f	-0.066540115
117	0xbdaa4ddd	-0.083156325
118	0xbe05e775	-0.13076575
119	0xbce3be23	-0.027800625
120	0x3d21fc80	0.039547443
121	0x3da67ca4	0.08129242
122	0xbdb2b526	-0.087259576
123	0xbdcd1bea	-0.1001509
124	0xbdc02471	-0.09381951
125	0xbd9adea2	-0.07561995
126	0xbdcb9885	-0.099412
127	0x3d12e290	0.035860598
128	0x3de0cee2	0.1097696
129	0xbd66526e	-0.056230955
130	0xbd5bf2ca	-0.05369834
131	0xbc69f3f3	-0.014279353
132	0x3dd72ae8	0.105062306
133	0x3d9b40c6	0.07580714
134	0x3d0a76d8	0.033804744
135	0xbdd3d006	-0.10342412
136	0x3d256ac9	0.04038504
137	0xbc385d1b	-0.011252667
138	0xbd473849	-0.048637662
139	0x3df358e3	0.11882188
140	0xbdbd20d1	-0.09234775
141	0x3ab0653a	0.0013457902
142	0xbdcf353a	-0.10117574
143	0x3dba3959	0.090929694
144	0xbd32dee8	-0.04366961
145	0x3def52ee	0.116857395
146	0x3bc475b5	0.005995477
147	0x3dfa166b	0.12211307
148	0xbd4b0ef6	-0.049574815
149	0xbd4623a8	-0.04837385
150	0x3cb23c34	0.021757223
151	0x3da362a1	0.07977796
152	0x3d955668	0.07291871
153	0x3dc6ee50	0.09713423
154	0x3daeb066	0.08529739
155	0x3db8ff71	0.090330966
156	0x3db887f6	0.090103075
157	0x3dce2cd7	0.10067146
158	0x3d966090	0.073426366
159	0x3d92a703	0.07160761
160	0xbdb56403	-0.08856966
161	0xbdcfc5c7	-0.10145145
162	0xbde99402	-0.114051834
163	0x3db61165	0.088900365
164	0x3db47efe	0.08813284
165	0xbdb9b53b	-0.0906777
166	0xbd7cdb36	-0.061732493
167	0x3da7cdf2	0.08193578
168	0xbccccbaa	-0.024999458
169	0xbdda6735	-0.106642164
170	0x3d152fbf	0.036422487
171	0xbdb8b34a	-0.09018572
172	0x3ca4229c	0.020036034
173	0xbd57ef5c	-0.052718505
174	0x3d6dc782	0.058051594
175	0x3b4f3980	0.0031619966
176	0xbd81498f	-0.06312858
177	0x3d47686d	0.048683573
178	0x3b89c32c	0.0042041745
179	0xbdd59262	-0.10428311
180	0x3d2a2148	0.041535646
181	0x3d49942a	0.049213566
182	0x3d23f12d	0.040024925
183	0x3c8568eb	0.01628538
184	0xbd66762b	-0.056265038
185	0x3db38070	0.08764732
186	0xbda8516d	-0.08218656
187	0xbda29472	-0.0793847
188	0x3d2fa763	0.04288424
189	0xbcf29e3f	-0.029616473
190	0x3d85b81d	0.065292574
191	0x3ded8e84	0.11599448
192	0xbd35d799	-0.044395063
193	0x3dae8d3c	0.08523032
194	0x3d1b3802	0.03789521
195	0x3cb0bd89	0.021574752
196	0xbdb90426	-0.090339944
197	0xbe051a69	-0.12998356
198	0xbe02cdc1	-0.12773801
199	0xbd961ea3	-0.07330062
200	0x3ca96317	0.020677133
201	0x3d9b2e03	0.075771354
202	0xbce2eabb	-0.027699819
203	0x3da746fc	0.08167836
204	0xbd97dc76	-0.074150965
205	0xbdd419a7	-0.10356455
206	0xbced6a26	-0.02898128
207	0x3c2315f4	0.0099539645
208	0xbdc6eb2c	-0.09712824
209	0x3c8a6565	0.016894052
210	0xbdd1afb2	-0.10238589
211	0x3da970b3	0.08273449
212	0xbd03302e	-0.03202837
213	0xbdcd505b	-0.10025092
214	0x3d5b9455	0.053608257
215	0x3cfd7f20	0.030944407
216	0x3d6687bf	0.0562818
217	0x3d1c87fa	0.038215615
218	0xbe01a048	-0.12658799
219	0x3d081c05	0.033229847
220	0x3db5b863	0.088730596
221	0x3c78a81a	0.015176797
222	0x3da99c92	0.082818165
223	0x3ce911e7	0.02845092
224	0x3dcb1b4e	0.09917317
225	0x3d9fc9f0	0.078021884
226	0xbcebc06e	-0.028778281
227	0x3d68d34f	0.056842145
228	0x3d56f795	0.052482206
229	0x3cf752de	0.030190881
230	0xbbdfe491	-0.006832667
231	0xbd1e1eb4	-0.0386035
232	0x3d74baf7	0.059748616
233	0xbdb56cac	-0.08858618
234	0x3d54a682	0.051916607
235	0xbd18b194	-0.037278727
236	0x3cdede1b	0.027205518
237	0xbd1f72e8	-0.038927943
238	0x3dc6bb33	0.09703674
239	0xbdce692c	-0.10078654
240	0x3da555bb	0.080729924
241	0xbdfbf039	-0.12301678
242	0xba06fac9	-0.0005149064
243	0xbe011397	-0.12605129
244	0xbda2c6b4	-0.07948056
245	0xbceed350	-0.029153496
246	0x3c9542ae	0.018220272
247	0x3bf03252	0.0073302174
248	0xbcf551f7	-0.02994631
249	0x3d416946	0.047219537
250	0x3d9ef0ff	0.0776081
251	0x3daa53a0	0.083167315
252	0x3d96ca55	0.073628105
253	0x3dcf9538	0.10135883
254	0xbcbb4620	-0.022860587
255	0xbde8d7bd	-0.11369274

fc2.bias f4 [64]
0	0xbd95393e	-0.07286309
1	0x3dd11696	0.10209386
2	0x3ae4cbd4	0.0017455765
3	0xbcb777a6	-0.02239592
4	0x3d2d0d5c	0.04224907
5	0xbdb38c32	-0.087669745
6	0x3d85c636	0.06531946
7	0x3dad8fab	0.08474668
8	0x3b479a74	0.0030457051
9	0x3d8b47c3	0.06800797
10	0xbc666fc5	-0.014064734
11	0xbde74389	-0.11292178
12	0xbd986dd6	-0.074428245
13	0xbd277e23	-0.040891778
14	0x3d81fd8e	0.0634719
15	0xbd92c821	-0.07167078
16	0x3ddcdf40	0.10784769
17	0xbd038fd6	-0.032119595
18	0x3d086221	0.033296708
19	0xbcaff8f1	-0.02148101
20	0x3d1a50d7	0.03767475
21	0xbddfd27a	-0.10928817
22	0x3ca317af	0.019908754
23	0xbdc0cb76	-0.09413807
24	0x3db67753	0.08909478
25	0xbdba1550	-0.09086096
26	0xbcd006e8	-0.025393918
27	0xbdc8f7f3	-0.098129176
28	0x3db018a8	0.08598453
29	0x3d9e7ef8	0.07739061
30	0xbd18ec0a	-0.03733448
31	0xbdae805a	-0.08520575
32	0x3cf9782f	0.030452816
33	0xbd5161cb	-0.051118653
34	0xbda16355	-0.07880274
35	0x3c732e69	0.014842608
36	0xbdbb3c0f	-0.09142315
37	0xbd8793cc	-0.06619987
38	0xbd8edc4c	-0.06975612
39	0xbd9a0083	-0.07519629
40	0xbd8ce7d9	-0.06880159
41	0xbd8ad8db	-0.06779643
42	0x3c377cc2	0.011199178
43	0x3d0c5b3b	0.03426669
44	0xbd7991ef	-0.06093019
45	0x3de8fad2	0.11375965
46	0xbdf3c89c	-0.119034976
47	0x3d6d5594	0.05794294
48	0xbd01b782	-0.031669147
49	0xbdd40827	-0.103531174
50	0x3d4d6a4c	0.0501502
51	0x3e088ab4	0.13334161
52	0x3b305e50	0.0026911683
53	0xbd2d0d2a	-0.042248882
54	0x3d2ce9ee	0.04221528
55	0xbd077211	-0.033067767
56	0x3d9c380d	0.07627878
57	0x3d35008a	0.044189967
58	0x3bd8c727	0.0066155377
59	0xbcf1e1f0	-0.02952668
60	0x3cf300c1	0.029663445
61	0x3cd5d371	0.0261018
62	0x3d40a9ba	0.047036864
63	0xbd832307	-0.06403165

fc3.weight f4 [4, 64]
0	0x3e025025	0.12725885
1	0xbc878069	-0.016540723
2	0x3ddb3a81	0.10704518
3	0xbddb72f1	-0.10715283
4	0xbd79511a	-0.06086836
5	0xbb8c2620	-0.004277006
6	0x3d152c2f	0.03641909
7	0xbd554b6e	-0.05207389
8	0x3cf756df	0.03019279
9	0xbc54a84c	-0.012979578
10	0xbd4caf70	-0.049971998
11	0x3da4434c	0.08020648
12	0xbdb922e1	-0.09039856
13	0xbd61f248	-0.055162698
14	0xbd405da5	-0.046964306
15	0xbd7e4175	-0.062074143
16	0xbda94951	-0.08265937
17	0xbd6ad648	-0.05733326
18	0x3df4d674	0.11954966
19	0xbd708d51	-0.05872852
20	0x3d59d29a	0.05317936
21	0x3bf49418	0.007463943
22	0x3cc10f10	0.023566753
23	0x3d03d7ba	0.032188155
24	0xbd728f74	-0.05921884
25	0x3dba6702	0.091016784
26	0xbdc74008	-0.0972901
27	0x3d355249	0.044267926
28	0x3de823b1	0.113349326
29	0xbd74453d	-0.059636343
30	0x3da598f9	0.08085818
31	0xbdc81892	-0.097703114
32	0x3d4c047e	0.04980897
33	0xbde7aafd	-0.1131191
34	0x3d8c99a2	0.06865241
35	0x3c1caecf	0.009563162
36	0x3dc1131c	0.09427473
37	0x3d9ba66a	0.076001
38	0x3daf2c6b	0.08553394
39	0x3aed9cef	0.0018128435
40	0x3c9ad56a	0.018900592
41	0x3e0096e2	0.12557557
42	0x3dfe0458	0.12403172
43	0xbb6b1ea5	-0.003587642
44	0x3df1221d	0.11774085
45	0xbc9af6a6	-0.01891644
46	0xbd90f1de	-0.070773825
47	0xbdc4f126	-0.09616308
48	0x3dc6c4e6	0.09705524
49	0x3afa24d0	0.0019084457
50	0xbdadf082	-0.08493139
51	0x3e04536d	0.1292245
52	0x3dd8176d	0.10551343
53	0xbd9006a2	-0.07032515
54	0x3cf59268	0.029977039
55	0xbdce9136	-0.100862905
56	0x3c94c242	0.018159036
57	0x3e01e951	0.1268666
58	0x3d456472	0.048191495
59	0xbdb90ebf	-0.09036016
60	0x3d85caef	0.06532847
61	0xbc40d08a	-0.01176847
62	0xbdd6a17a	-0.10480018
63	0xbd2f8c50	-0.04285842
64	0xbdb1605f	-0.086609595
65	0xbd8e1a98	-0.06938666
66	0xbd8bf92b	-0.068346344
67	0xbdcd8a31	-0.100361235
68	0xbcd04c37	-0.025426967
69	0x3df80f53	0.12112298
70	0x3dc90ee0	0.0981729
71	0x3cdd8f53	0.027045881
72	0xbd064e8d	-0.032789756
73	0x3de708d8	0.11280984
74	0xbcf24034	-0.02957163
75	0x3dcd23c8	0.1001659
76	0xbdc58199	-0.096438594
77	0xbde84951	-0.11342109
78	0x3de12e95	0.10995213
79	0x3d6592f4	0.05604835
80	0x3ddf6455	0.10907809
81	0xbda29b8e	-0.07939826
82	0xbdc8a792	-0.097975865
83	0x3c200a6c	0.00976811
84	0x3ae6b056	0.001760016
85	0x3c0744db	0.0082561625
86	0x3c845063	0.016151613
87	0xbd63d47e	-0.05562257
88	0x3c9ba065	0.01899738
89	0xbc4f29a2	-0.012644203
90	0xbdec3043	-0.11532643
91	0xbde86386	-0.113471076
92	0x3d86c7b4	0.06581059
93	0xbdc560a9	-0.09637577
94	0x3ddd998c	0.10820302
95	0xbd00f3e9	-0.03148261
96	0x3d5a09f5	0.053232152
97	0xbba34ba3	-0.004983382
98	0xbda50ea8	-0.08059436
99	0x3d1f55ee	0.03890031
100	0x3d26181f	0.040550347
101	0xbe1286f5	-0.14309295
102	0x3dcbf54c	0.09958896
103	0x3d364840	0.044502497
104	0xbdbaa008	-0.09112555
105	0x3dcaab0d	0.098959066
106	0x3ca30c6f	0.01990339
107	0xbe0261b0	-0.12732577
108	0x3d4fc5bb	0.05072568
109	0x3bd5cbb2	0.0065245265
110	0xbd5658b1	-0.052330676
111	0x3dd5a716	0.1043226
112	0xbd335263	-0.043779742
113	0x3c1d82cc	0.009613704
114	0x3ca3ff51	0.020019205
115	0xbc96151c	-0.018320613
116	0x3c98b599	0.01864128
117	0x3c5033d1	0.0127076665
118	0x3b4cf955	0.0031276543
119	0xbd405fce	-0.046966366
120	0x3dc99418	0.098427
121	0x3dc4aded	0.09603486
122	0xbcab1b9c	-0.020887189
123	0xbdc25104	-0.09488109
124	0x3e1c10ce	0.15240785
125	0xbd656b8e	-0.056010775
126	0x3d8935d9	0.06699724
127	0xbdbba70e	-0.091627225
128	0x3db7cc6b	0.089745365
129	0x3d4599cb	0.04824237
130	0x3d141e34	0.036161616
131	0xbdaa80e4	-0.08325365
132	0xbd355c63	-0.04427756
133	0x3dbf0dc6	0.09328799
134	0x3dbaaf6a	0.09115489
135	0xbca9f48a	-0.020746488
136	0xbdcee8c2	-0.10102989
137	0xb97cf596	-0.0002412408
138	0x3d734a97	0.059397306
139	0x3c2e0984	0.010622386
140	0x3a3b7894	0.00071514514
141	0x3d291f10	0.04128939
142	0x3dbc864f	0.09205305
143	0xbdd42399	-0.10358352
144	0x3d51dd53	0.05123646
145	0x3d9ac87c	0.075577706
146	0x3de53d39	0.11193318
147	0xbd25a564	-0.040440932
148	0xbce24182	-0.027619127
149	0xbdc6ad2b	-0.09700998
150	0xbd489b70	-0.04897636
151	0xbd934d81	-0.07192517
152	0xba12bdeb	-0.0005597758
153	0x3d92ff59	0.0717761
154	0xbdac0aef	-0.08400523
155	0x3dbb603e	0.09149216
156	0x3dceafd6	0.10092132
157	0xbd8c735c	-0.068579406
158	0x3dfda0d1	0.12384189
159	0x3c7d2a2b	0.015451948
160	0x3ba40c55	0.005006353
161	0xbd66efbf	-0.056380983
162	0xbdcee51a	-0.101022914
163	0xbb5043cb	-0.003177869
164	0xbd7cbc62	-0.061703093
165	0x3d1ba556	0.037999474
166	0xbcbafedb	-0.022826603
167	0x3db5c593	0.08875575
168	0xbd8567d5	-0.06513945
169	0xbbf2ea6d	-0.0074131996
170	0xbdc46c11	-0.095909245
171	0xbdf3287d	-0.11872957
172	0x3d23e5f0	0.040014207
173	0x3d812247	0.06305366
174	0xbdfe92ae	-0.12430321
175	0x3dc35692	0.09537996
176	0xbd4f80d0	-0.050659955
177	0xbcdb4ae0	-0.026769102
178	0x3cbbc0a4	0.022919007
179	0xbd628b46	-0.055308603
180	0x3d1cb242	0.038255937
181	0x3d8fd82a	0.07023652
182	0x3cdb7c59	0.026792692
183	0xbd26e572	-0.04074616
184	0xbaba6eec	-0.0014223731
185	0xbd8abc7f	-0.06774234
186	0xbd5fccb6	-0.054638587
187	0x3d876426	0.06610899
188	0xbc9b94a2	-0.018991772
189	0x3d9623fb	0.073310815
190	0x3d1e3433	0.038624
191	0xbde9992c	-0.11406168
192	0xbc557180	-0.013027549
193	0xbd3e27df	-0.046424743
194	0xbc782317	-0.015145085
195	0xbcc665f1	-0.024218531
196	0x3c867e4d	0.016417647
197	0xbd9ffb86	-0.07811646
198	0xbdbff8b2	-0.09373607
199	0xbc557c53	-0.0130301295
200	0xbd7902f4	-0.060793832
201	0xbd50bbd2	-0.05096037
202	0x3dded694	0.10880771
203	0xbbfac116	-0.007652412
204	0x3dbbfb87	0.091788344
205	0x3dd65918	0.10466212
206	0x3cd5f53e	0.026117917
207	0x3dfdc11e	0.1239035
208	0x3d25ac61	0.040447596
209	0x3d0d8602	0.034551628
210	0xbd883a77	-0.06651776
211	0xbd57e02a	-0.052704014
212	0xbc8dcc25	-0.017309258
213	0xbdecd136	-0.11563341
214	0x3d037ee4	0.032103434
215	0x3d894c91	0.06704057
216	0xbcf32076	-0.029678565
217	0xbddc91d8	-0.10770005
218	0x3e076b3d	0.13224502
219	0x3d92c39c	0.07166216
220	0xbd47e7a4	-0.048804894
221	0x3d97d361	0.07413364
222	0x3b188d9b	0.0023277763
223	0xbde369f4	-0.11104193
224	0x3bcb94f0	0.006212823
225	0x3d298fd3	0.041396927
226	0x3d7aa77c	0.06119488
227	0xbd05879f	-0.03260004
228	0x3dce8c0e	0.10085307
229	0xbdc0e265	-0.09418181
230	0x3db523ba	0.08844705
231	0xbda8c680	-0.08240986
232	0xbcb96fd2	-0.022636328
233	0xbbb3cf60	-0.0054873675
234	0x3de8a8fb	0.113603555
235	0xbd61db58	-0.055140823
236	0x3dc7df28	0.097593606
237	0xbc3c0fde	-0.011478392
238	0xbdb7340e	-0.089454755
239	0x3ddfe208	0.10931784
240	0xbdca3ad1	-0.098744996
241	0x3e02ea08	0.12784588
242	0xbd5c9998	-0.053857416
243	0x3d245a5d	0.04012524
244	0xbd63f332	-0.05565185
245	0x3d4f1e6e	0.05056613
246	0xbd90016b	-0.070315205
247	0xbd8c35c1	-0.0684619
248	0xbd69a086	-0.057037853
249	0x3d2993df	0.041400786
250	0x3d5b955f	0.05360925
251	0xbd6fb105	-0.05851843
252	0x3cc4b61f	0.024012623
253	0xbc168626	-0.009187257
254	0x3e040559	0.12892665
255	0xbb85bc31	-0.004081272

fc3.bias f4 [4]
0	0xbd0c67c0	-0.03427863
1	0x3d4e3cbb	0.050350886
2	0x3d9f182c	0.07768282
3	0x3d1a5878	0.037682027
