mlruns/0/f10d2cfcb4f7495285f2fdf2c38c7ada/artifacts/checkpoint.pth (torch_old, 28447 bytes, 6 tensors)

fc1.weight f4 [64, 37]
00000000: 7396 b43d 5b73 303d 210c d2bc 1112 44bd
00000010: e20f 61be 6f4a 333d 151b c33b 3c4e 07be
00000020: c2c4 80be ae0d b7be 457b ae3d 7a67 993d
00000030: 7f96 463d 6062 d63d 8245 1d3e 2f82 2cbd
00000040: b865 123d 77b1 2ebe 427c ad3c fcfc f53d
00000050: 119a 5abe 4eaf 0c3e 1f7a dc3c 7c73 6d3d
00000060: 51c5 1d3e 281b 0cbe 9bd1 b5bd 6000 b4bd
00000070: cf90 a9bd 2afb 943e b968 fabd fc84 783c
00000080: 8202 9c3c 9e0c 513e b6c5 df3e c6d3 153d
00000090: b297 3f3d 829c edbc 6a2b 8fbd dbe2 ed3c
000000a0: 0b3b 11be 002d 943d 401a cabe 86b2 05ba
000000b0: 44e7 cd3d c65e 0fbe 7768 093e e412 4a3d
000000c0: 1629 243d 41ce bdbc 73bb 8fbe a99f 09be
000000d0: a611 b3bd 6b9a 4e3d 7944 b5bd 79a1 88bd
000000e0: 5c58 b53d 4847 d6bd 5b72 28be 1d16 c8bd
000000f0: d631 913e 609b dcbc e65d b9bd 7b72 8ebd
00000100: 15c7 1d3e ecc0 87bd 46e3 be3e 5732 c8bd
00000110: d791 573d 5b40 9b3d 5712 b1be 6fe7 b6bc
00000120: dad3 083d 142b 80bc 78d8 42be 4c4e 99bd
00000130: c6ac f53d d046 e93d 0a47 5dbd fb97 80be
00000140: 264c 2ebe 98e5 5a3e e037 8cbe 3bcc e7bf
00000150: 9c84 25ba 57ea 42be 9557 0c3d eeca f2bd
00000160: 1bd1 b1be 18b5 02be 3e34 5ebc a955 d1bb
00000170: 9490 153d 9847 6cbe 665b 0cbe a762 b4be
00000180: 87af b03d 5337 3cbf 73ff 0ebf 25a3 9cbc
00000190: 9522 8cbe 2110 913d 7a13 303d f605 f3be
000001a0: 1ab5 72be 134b 35be ef95 203e becf 2bbf
000001b0: c78a 79bf 0c05 6cbd cd4b 933d 8a06 ed3e
000001c0: 9014 80be c1a2 b1be 6b05 9bbe a709 cebf
000001d0: f60a aabd 4e07 063c b08b 86bc e2a2 ef3d
000001e0: 1fe1 043d 3661 9d3c 1348 713c a32d 27bc
000001f0: e775 5dbd 88c3 c8bd 29ab 203e 98a5 573d
00000200: 2eba 6a3d 259f 4b3e 2347 4f3d b6b7 b7bd
00000210: 2b92 0c3d ca1e 8d3b 3b41 a33c b166 40bc
00000220: b0e8 c13d cc26 0d3e 2660 013e 2be3 023e
00000230: 56d5 12bd f158 35bd 212d e3bc 2af4 0bbd
00000240: 1db7 cb3c 6d22 9a3d 6186 88bc 47c3 28bb
00000250: cc16 303b 1ee8 983d c949 8a3d 7ad4 a23c
00000260: 08a8 b1bc 3be4 c43e 83d0 1dbf e609 20bf
00000270: 7937 20bf 3eec debf fc75 873d b24d fd3d
00000280: f130 a03d bcc2 363d 2012 82bc cce4 aa3d
00000290: 4145 b33d 9903 e33d bf1b 143e 85be 5d3d
000002a0: bd1d a3bd aa9d 90bc 810d d1bc a7b0 5b3b
000002b0: 63aa 913d 74ee ee3d ea47 f83d c6fb 063e
000002c0: 2a54 763e dbb5 393e 30de 0d3e 71dd 2e3d
000002d0: d00e d93d 4d13 0c3e 6a82 5d3d 54a1 b43b
000002e0: 101b 403b b426 be3d c9b9 0cbf b572 5d3c
000002f0: 4fab 6abe f3e9 cdbe af50 51bd 2da3 623e
00000300: 1696 ff3c f450 01be 65a1 3abf 7bc3 753d
00000310: c987 a73c a83f fe3d c126 33bd 8a95 f7be
00000320: 1157 9cbd f154 e2bd 55fd 393d 8592 9dbd
00000330: 6476 93be 8af9 a7bd 05ed b83d be66 86bd
00000340: 0344 8bbe 1a19 19be 47dc 36be 95ac a73d
00000350: 398b f0bd 9e34 de3c 5d21 7abe eb45 2b3c
00000360: 8ae9 09be b200 31bd bf22 923c c6fa 22be
00000370: ed9e 33bd ab81 6a3d 82ee 08be 61b5 afbd
00000380: fdd5 79bd e7b3 50bc 7091 ec3c 8fe0 243e
00000390: 9332 863d 9b89 e93d 06c3 bcbd 2991 5ebe
000003a0: 6306 a93d 0352 193d 24b8 8e3c e17a 85bd
000003b0: 4615 8bbd 7798 813c a48f 233e a737 7c3d
000003c0: fe6a 553e 4cd3 6d3e e0f9 913d 8f8a f23d
000003d0: 9ced cb3c 12cc 393d 2632 2bbd 0c48 9d3e
000003e0: 2242 2fbf ec49 7abe 7bc8 f3be c6a9 adbf
000003f0: b953 193d 2c7d cfbd e60b ad3b 16a5 35bc
0.088177584 0.04307876 -0.02564055 -0.047868792 -0.21978715 0.043772157 0.005954156 -0.13213438
-0.25150114 -0.35752624 0.085196055 0.0749044 0.048483368 0.10467982 0.15358546 -0.04211634
0.035741538 -0.17059885 0.021177415 0.120111436 -0.21347834 0.13738748 0.0269137 0.057971463
0.15407301 -0.13682234 -0.0887787 -0.08789134 -0.08279573 0.29097873 -0.122270055 0.015168425
0.019044165 0.2041497 0.4370553 0.036578916 0.046775527 -0.029005293 -0.069907025 0.029038837
-0.1418268 0.072351456 -0.39473152 -0.00051001494 0.10053876 -0.14000997 0.13418756 0.04933442
0.040078245 -0.023169639 -0.280727 -0.13439812 -0.087436005 0.050440233 -0.08850951 -0.066714235
0.08854744 -0.104628146 -0.16449873 -0.09769843 0.28358334 -0.026929557 -0.09051113 -0.06955429
0.15407975 -0.06628594 0.3728277 -0.097752266 0.052629318 0.07580634 -0.34584305 -0.022327153
0.033405162 -0.015645541 -0.19027889 -0.07485637 0.119958445 0.113904595 -0.054022826 -0.25115952
-0.17021236 0.21376646 -0.2738638 -1.8109201 -0.0006314011 -0.19034706 0.034263212 -0.11855112
-0.34729847 -0.12764394 -0.01356226 -0.0063883853 0.036514834 -0.23074186 -0.1370674 -0.35231516
0.08627229 -0.7352192 -0.55858535 -0.019120762 -0.27370134 0.070831545 0.042987324 -0.47465485
-0.23701897 -0.1770442 0.15682195 -0.67113864 -0.9747738 -0.057622 0.07192192 0.4629405
-0.25015688 -0.34694484 -0.3027757 -1.6096696 -0.08302872 0.0081804525 -0.01642403 0.11700989
0.032441255 0.019211393 0.0147266565 -0.010203752 -0.05406752 -0.098029196 0.15690292 0.052648157
0.05730646 0.19884928 0.05060495 -0.08970587 0.034319084 0.004306649 0.019928565 -0.011743234
0.0946821 0.13784331 0.12634334 0.1278197 -0.035847984 -0.044274274 -0.02773148 -0.0341684
0.024867589 0.075260974 -0.01666564 -0.002575116 0.0026869057 0.07466148 0.06752355 0.019876707
-0.021686569 0.38455376 -0.6164629 -0.62515104 -0.62584645 -1.7415845 0.066143006 0.12368335
0.07821835 0.044619307 -0.015877783 0.08344421 0.087534435 0.110846706 0.1446371 0.05413677
-0.079646565 -0.017653305 -0.025519134 0.003352204 0.07112577 0.11666575 0.121230915 0.13181981
0.24055544 0.18135779 0.13854289 0.04269165 0.105985284 0.13679238 0.05407945 0.005512396
0.0029313006 0.09284726 -0.54970986 0.013516118 -0.22916912 -0.40217552 -0.051102336 0.22132559
0.031199496 -0.12628537 -0.7290252 0.060000878 0.02045049 0.12414485 -0.04373813 -0.48356277
-0.07633794 -0.110513575 0.045407612 -0.07693962 -0.28801262 -0.08201893 0.09029583 -0.06562565
-0.27200326 -0.14950982 -0.17857467 0.08187214 -0.117453046 0.0271247 -0.2442679 0.010453681
-0.13467994 -0.043213554 0.017838834 -0.15915975 -0.043852735 0.057252567 -0.13372234 -0.08579517
-0.06099509 -0.012738205 0.028877944 0.16101287 0.06552615 0.11403199 -0.09216885 -0.21735062
0.08253171 0.037431728 0.01742179 -0.06517578 -0.06791167 0.015819771 0.15972763 0.06157651
0.20841596 0.23225135 0.07127738 0.11842834 0.024893574 0.045360632 -0.041795872 0.3071903
-0.68460286 -0.24442261 -0.47613892 -1.3567436 0.03743336 -0.101312965 0.0052809594 -0.011086723

fc1.bias f4 [64]
00000000: 0045 dcbd 7795 51be 6fae f9bd fbe0 03be
00000010: 52ec 463c eed7 463d 65c3 d23d f05a 41bc
00000020: bbfe 0dbe 7e80 1e3e 7033 e6bc c8a3 6e3e
00000030: 5c0f 863c 2f63 ebbd 2f80 7bbe 873d c3bd
00000040: 964d 36be aac4 563e bbb4 bbbd b1af 84be
00000050: 56ca 48bd 1254 0abc b9ce 433d 6855 103d
00000060: 7fdf 0d3c 4644 fa3d 4b0b 4ebe 6494 75be
00000070: 9b70 743d 92c1 ec3d 4808 27bd 2d49 c0bc
00000080: fbdf 35bd 9139 883b 7ac9 6cbe 005f 2c3e
00000090: 40aa 913d 5158 55bb d4ac 1e3e 541f 12bd
000000a0: bf83 39bd 8873 babc 059d 03be 830d bfbc
000000b0: faca b53d be27 4abe d675 96bc f4d2 803d
000000c0: ea2c a13d e5fa b3bc 28c3 673e 3fe1 a3bd
000000d0: 2d71 313e ba04 edbd 145d f33d e0e9 ff3d
000000e0: 9a47 30be 302e 31be 7711 29be 8138 debd
000000f0: ec61 cf3d 4602 7fba 0561 35be f9b6 1dbe
-0.10755348 -0.20467173 -0.12191474 -0.12878792 0.012141304 0.04854577 0.10291175 -0.011801466
-0.13866703 0.15478703 -0.0281007 0.23304665 0.016364746 -0.11493527 -0.24560617 -0.0953322
-0.17803034 0.20973459 -0.09165331 -0.25915292 -0.049021088 -0.0084428955 0.047804568 0.0352377
0.008659243 0.122200534 -0.20121495 -0.23982388 0.0596777 0.11560358 -0.040779382 -0.023472393
-0.044403058 0.004157253 -0.23123732 0.16833115 0.07112551 -0.0032553861 0.15495616 -0.035674408
-0.04529166 -0.022760168 -0.12852867 -0.023321873 0.08876605 -0.19741723 -0.018366735 0.06290236
0.07869895 -0.021970222 0.2263304 -0.08001947 0.1732833 -0.11573167 0.118829876 0.1249578
-0.17214814 -0.17302775 -0.16510569 -0.10850621 0.10126099 -0.0009727817 -0.17712791 -0.1540183

fc2.weight f4 [64, 64]
00000000: b5a5 a0be 47af 2cbd db0a 983d 07de b3bd
00000010: 2255 36be 6f21 55be dd22 9c3d 6c7f 92be
00000020: 54b7 12be 7d56 5cbe 7be1 4a3d 2e31 3ebd
00000030: 989d 04be a14a 85bd aee7 6d3e ca65 1d3d
00000040: 4f43 3dbe 76a0 053e a6c6 a6be e7f2 873e
00000050: 5f02 ab3e 6b97 6cbe 2466 58be 5cb0 4cbe
00000060: 46eb 2e3e 32e9 e33c ffa6 4a3c 04fc 7fbc
00000070: 0cad b93d ae29 843e 74c0 63be b7a7 2b3c
00000080: e64a 29be 4139 cebd 097d 7fbe a240 363d
00000090: b645 613d 9119 a3bd f312 193e c9a7 b0bc
000000a0: b3b1 983d ad96 05be b979 8ebd 103c 623d
000000b0: 65b4 3abd 421b 4cbe cf57 92be a843 4cbe
000000c0: c4e9 dabd 8a14 2a3e 2d2c 71be aebe 6ebd
000000d0: 4f96 5e3d 8b5b 613c ddcd 0fbe 5787 c2ba
000000e0: cf80 80be 1254 f1bd 2480 3dbe d551 0b3e
000000f0: c1ee 1e3e ab79 87be 9787 42be 6dd1 493e
00000100: 3650 943d a50e 3b3e 679f 8d3d 0bf6 993d
00000110: 1458 01be bd11 e6bd 1c3b 22be 949c 5dbe
00000120: a0e8 c9be 80a9 6fbe 7010 9d3b 9e91 da3c
00000130: 2cc3 da3d 76f9 03bd 7a67 853e 15ac a7be
00000140: d1be 00be 87b3 a9bd c4e1 393d 169d 88be
00000150: cba4 913b 1c9d 513d 5fed a4bd 379a 0cbd
00000160: f350 da3d 7e9d bcbc 4bf5 823e df76 7ebe
00000170: 6501 76bd b012 55bd 439f ecbb 3ef3 d53d
00000180: 06b0 703d f863 dcbd d7f9 68bd 679f 303e
00000190: f53f 993e f9b1 233e 4961 ee3d 015a 833e
000001a0: c306 4fbe d898 133e 31bd 6d3d e744 71be
000001b0: 42ff a3bd 8fc2 27bd 4c8a c4bd 66e7 5bbe
000001c0: fbb5 18be 0813 eebd 11c4 6e3d a11d b73b
000001d0: 8045 69be 7870 c2be e546 593e 07fa a6be
000001e0: f944 c7bd c085 f9bd 79d1 823e be91 7dbe
000001f0: 93b5 d0bd d135 d7bd 4b60 b23c fb52 9dbe
00000200: f1d7 c83d 36c2 9dbd 96df c7bd 2374 81bd
00000210: 388c 753e b0b3 cc3d ad32 8a3c 43be 86be
00000220: ec83 24bd c395 67bd f7a3 3fbd 7f6f 333e
00000230: 5947 30be af2a 933d df86 b1bb 97be b43d
00000240: dc11 47be bfbb 253e 18ba f5bc 71e1 b63d
00000250: 2132 17bd 7ee0 4bbc 014e 5f3d ab87 d13d
00000260: 7ed4 02be e338 203e 320e ea3d c368 14bd
00000270: 5fbb 053e 169e 743e 8c99 ff3b 0433 13ba
00000280: 62ac d4bd 8bb7 8abd b8a2 863c ebff d93d
00000290: 39ec 76bc 2e4d 11bc 6c96 96bd e319 5bbe
000002a0: f355 dcbc cf17 15be 52c8 38be 6de2 60bd
000002b0: 9f97 063e 7826 1e3d c691 2ebd 8d4c a7bd
000002c0: 2559 45bd 7234 d33c cb0f 053d c095 30be
000002d0: 0b65 523e 7f55 0cbd b82f 253e a29e c5bc
000002e0: 0453 9dba d31b 653d 231a 1cbe 8bdc 863c
000002f0: 55b6 a53d 3a67 1dbe 925f cc3c 3000 af3c
00000300: 04b0 dfbd fdda cc3c f1e8 573e f55b 73be
00000310: 5174 bbbe 063c a0be 25d8 96be b190 5fbd
00000320: cafd 043e 0020 333d 8cef 4fbe 3b40 4fbe
00000330: ee91 d93d 4083 8bbd 6ba8 773d cb9f 80be
00000340: 9809 b8be 4606 c9bd 6134 61bd e855 983d
00000350: 95da 08be d0dd e03d d2a4 97bd b698 89be
00000360: 0d55 693e 7bb4 b3be 1e3c e3be e898 d13d
00000370: eac7 91bd 048b 053e ca1c 293e 5172 d73c
00000380: e146 38be 1a64 0d3e 7d25 57be da96 8dbd
00000390: 16f1 13bd eb6c b03e 5488 ba3b ec37 0f3e
000003a0: 74ed f5bd bc25 0a3e 807f 67be 927d 843e
000003b0: 3295 393a e684 04be 729d 84be c1cf 8dbb
000003c0: fa52 8d3d 4831 a0be 4744 01bd e976 15be
000003d0: c424 b5be 8243 943d bd64 683d 0b05 343d
000003e0: 172b bcbd 8a37 d03d 1cca bdbd 0432 5abc
000003f0: 1c5e 1cbe 5895 963e 8dde a2be 5945 d7be
-0.31376424 -0.042159345 0.074239455 -0.08782583 -0.17805913 -0.20813535 0.07623837 -0.2861284
-0.14327747 -0.21517368 0.04953144 -0.04643362 -0.12950742 -0.06508375 0.2323291 0.03842715
-0.18482707 0.13049492 -0.32573432 0.26552507 0.33400247 -0.23104636 -0.21132714 -0.19989151
0.17081937 0.027821157 0.0123689165 -0.01562405 0.09066209 0.2581305 -0.22241384 0.010476998
-0.16532478 -0.10069514 -0.24950041 0.044495232 0.054998122 -0.07963861 0.14948635 -0.021564381
0.074557684 -0.1304576 -0.069568105 0.05523306 -0.045582194 -0.19932273 -0.28582618 -0.19947684
-0.106891185 0.16609398 -0.23552008 -0.058287315 0.054342564 0.013754736 -0.14043374 -0.001484136
-0.25098273 -0.11783613 -0.18505913 0.13605435 0.15520765 -0.26460013 -0.18997036 0.19708796
0.072418615 0.18267305 0.06915169 0.07517632 -0.12631255 -0.11233852 -0.15842861 -0.21641761
-0.3943529 -0.23404503 0.0047932193 0.026680764 0.10681757 -0.032220326 0.2605551 -0.32748476
-0.1257279 -0.08286195 0.045381323 -0.26682347 0.0044446937 0.05117522 -0.080530874 -0.03432676
0.10659971 -0.023024317 0.2557777 -0.24850033 -0.060059924 -0.052019775 -0.007221134 0.104467854
0.05876162 -0.10761255 -0.05687889 0.17248307 0.29931608 0.1598586 0.116396494 0.25654605
-0.20217423 0.14413774 0.058041755 -0.2356144 -0.08007671 -0.04095703 -0.095966905 -0.2147499
-0.1491317 -0.11624724 0.058292452 0.005588249 -0.22780418 -0.37976432 0.2121845 -0.3261263
-0.09729952 -0.12183714 0.2555044 -0.24762627 -0.101908825 -0.105083115 0.021774432 -0.30727372
0.098068126 -0.077030584 -0.097594425 -0.063209794 0.2397927 0.0999521 0.016869867 -0.26317033
-0.040164873 -0.05653931 -0.04678723 0.17523001 -0.17214717 0.071858756 -0.005417689 0.08825415
-0.19440407 0.161849 -0.029995963 0.08929718 -0.03691304 -0.01244366 0.05451775 0.10230955
-0.12776372 0.156467 0.11428489 -0.03623272 0.13059758 0.2388843 0.0078002866 -0.0005615207
-0.10384442 -0.06773289 0.016435012 0.106445156 -0.015070968 -0.008868499 -0.073529094 -0.21396594
-0.026896453 -0.14559864 -0.18045166 -0.054903436 0.13143776 0.038610905 -0.04261949 -0.08168898
-0.048180718 0.025781844 0.032485764 -0.17244625 0.20546357 -0.034261223 0.16131485 -0.024123494
-0.001200289 0.05593474 -0.15244345 0.016462585 0.08091418 -0.15371409 0.024947915 0.021362394
-0.10922244 0.025006765 0.21084954 -0.23765548 -0.3661218 -0.31295794 -0.2946178 -0.054581348
0.12987438 0.04373169 -0.20306224 -0.20239346 0.10623537 -0.06812143 0.06046335 -0.25121912
-0.3594482 -0.0981565 -0.054981593 0.0743826 -0.13364632 0.109798074 -0.07404484 -0.26874322
0.2278635 -0.35098633 -0.44381803 0.10234243 -0.07118209 0.13041312 0.16514888 0.026299627
-0.17995788 0.13807717 -0.21010394 -0.06913538 -0.03611859 0.34458098 0.005692521 0.13986176
-0.12008181 0.13490957 -0.22607231 0.25877053 0.0007079422 -0.12941322 -0.2590137 -0.0043277447
0.06900592 -0.312876 -0.031559255 -0.14596142 -0.35379612 0.072394386 0.056736697 0.04395012
-0.09187906 0.10166843 -0.09267065 -0.013317589 -0.15270275 0.29410815 -0.31810418 -0.42045096

fc2.bias f4 [64]
00000000: ded3 b5bd 2545 f2bc b14d 593e 783e 5dbd
00000010: c2a4 393d 1097 59be 23db c43e 1eaa eb3a
00000020: 215a 0fbd 740b d83d 973f d8bd 0b95 16bd
00000030: fadc 7fbe 6361 45be ad19 ee3d 6299 b8bd
00000040: 8717 773e 76ca 263d df61 303e 4333 1cbe
00000050: ea22 dd3e 892c 11be 5e99 373d 6621 7cbc
00000060: d1be adbd 3c28 e3bd b4fe d0bd de34 3c3d
00000070: b8fb a83e c8fa 003d 5308 e7bd 270c 11be
00000080: f1df e33e 60c1 9f3d 6c2b e1bd b1ce b23e
00000090: ee62 2f3e cb35 543e e977 bf3c 3c65 06bc
000000a0: 055f ba3c ecca c73d ada3 c43e c335 6cbd
000000b0: bb95 aa3e 7bf0 143e 6e0e 10be ede7 f23d
000000c0: 3db8 9c3b 7770 74be 0e6c 743d 77e6 0a3f
000000d0: 2b99 533e a813 35be 2078 843e eeff 80bd
000000e0: 5b1a 323e e037 c53e abf3 2c3b d681 25be
000000f0: 176e e23e 9103 e13d 55f3 753d 88ca 19be
-0.08878301 -0.029573986 0.21221043 -0.054014653 0.04532314 -0.21249032 0.38448438 0.0017979776
-0.034998063 0.105490595 -0.10559004 -0.036763232 -0.2498664 -0.19275431 0.11625991 -0.090136304
0.24130069 0.040720426 0.17224835 -0.1525393 0.431907 -0.14177145 0.044823997 -0.015388822
-0.08483661 -0.110916585 -0.10204831 0.045948856 0.33004546 0.031489164 -0.112808846 -0.14164792
0.4450679 0.07800555 -0.1099461 0.34923318 0.17127582 0.20723645 0.023372607 -0.008202847
0.022750387 0.09755501 0.38406125 -0.05766846 0.3331736 0.14544861 -0.14068004 0.118606426
0.004782705 -0.23871027 0.05967336 0.5425791 0.20663898 -0.1768328 0.25872898 -0.06298815
0.17392866 0.38519192 0.0026390355 -0.1616281 0.44224617 0.10987008 0.060046513 -0.15018666

fc3.weight f4 [4, 64]
00000000: 8a1e 793e d633 133c fe86 103e 7af5 53bd
00000010: 4cc0 333e 0026 b6be cdd9 013e 66a2 23be
00000020: f810 883d e0c1 113e 4796 a8bd 380f 663e
00000030: c249 13be 807d 0cbe fd77 403e fc17 08bd
00000040: 5022 ec3c ed5b ca3e 1627 5f3e b870 27be
00000050: 9f72 193e 6ba5 38bd 45fc d13c 4e8c 253e
00000060: 5110 69be da18 023d 0fa8 013c f0f5 003e
00000070: b951 1a3e af35 0f3c 073c 95bd d209 a0bd
00000080: d662 023e 94f0 10bd 982b 63be 89eb 933d
00000090: 0a12 093e bdd8 563e fc27 093e c779 aa3c
000000a0: 2d4c c93e 5c99 8a3d 1a8d 453e e061 6abe
000000b0: 6852 c03e db38 643c dec7 6cbd 9021 133f
000000c0: 4e61 b63d 1db1 35be f9a8 b53d 2e58 853e
000000d0: 5578 133e 14dc 13be 2490 e03d 0e97 3fbf
000000e0: 53a5 c63e 9386 453e 6caf 543d 51f5 85be
000000f0: 8075 173e b90b be3d 79f8 23bd 68f1 23be
00000100: e261 3d3d 4288 43bc ea8e 913d 6279 b43d
00000110: b289 953e c784 01be 9be3 3f3e 9a92 87bc
00000120: 0c4e 03bd 171c cb3c 46d4 0cbd 7467 353e
00000130: 7493 03be 6b50 cabd 81a4 8b3e dabe 8ebd
00000140: 63dd e33c 5444 963e 3316 a73d 8ea1 0bbe
00000150: 9e33 eb3d 2d23 7dbd cc40 633d 69bb 8cbc
00000160: 4397 913d 5301 113e 2e4b 37be 4310 f13d
00000170: ecd9 473e 367b 2b3d ae20 133e e401 3bbd
00000180: c6cd 283e 6342 073e e64a 2cbe 1e26 233e
00000190: 1417 ca3d ff0b de3d e945 0e3e 4725 013d
000001a0: d8fb 033f e2c3 4d3e f9aa 103e 39a0 32be
000001b0: 13cd 813e 1921 903d c02c 29bd dd61 103f
000001c0: f85b 65bd 5e3b 013d f4f5 be3d df45 393e
000001d0: a0bc 513e 2191 1ebe 3388 7d3d 4464 333c
000001e0: ab3c b53e 3dfe 3c3e f22c 903e dfef 21be
000001f0: 21d3 553e 5237 1c3e ec67 873c 14fd 8abe
00000200: bc41 763e 8d80 243e 909f 173e f14b 2fbe
00000210: c58b 263e 9a33 243b 79d8 303e 64d9 e2be
00000220: 77ab 87bd eaac 0c3e 5d9f ce3d 238c 923e
00000230: b99c ca3d 96ad a5bd 3e75 bd3e 4c51 92bd
00000240: e05b 783e bdb8 823e 7f7d 883d 4e77 e43c
00000250: 4b2c 223e 5512 25be e1d7 fdbd c00b 303e
00000260: bf29 5ebd 00b8 953e 066f d0be ec06 3f3d
00000270: 8475 823e 9ee6 a9bd 60e2 053f db3e 813e
00000280: 4f0e 5a3e 6d55 993e bfe5 02bf 31d0 0e3e
00000290: 40fd 673d 34cf 503e 8f5a c3bc 2977 d43e
000002a0: 1d87 ed3e 8e19 81bc c811 8d3d d5d8 7dbe
000002b0: 9605 543e 54c8 aa3e ae92 febd 2159 833e
000002c0: c456 1ebe e0d7 13be e9f1 be3d b122 213e
000002d0: cd82 a23d bc46 92be f7e5 9b3e aa27 58be
000002e0: df1c 873e da1d b63d 1438 81be 1492 1bbe
000002f0: 3b9b 183e 393a 8b3e a22d e73d b7ec 28bf
00000300: 6a49 b73d 3c90 8dbe 8194 fb3c 2bb3 9dbe
00000310: 0965 f83e 5b2a c4be fff1 173d 6669 4dbe
00000320: 8509 403b 6b6e bbbd 8896 3e3d 7a3a 0a3f
00000330: ed88 c1be 5408 573e ed06 a73e f68c 8d3e
00000340: c766 193e 5953 c83e d94f 3f3d 9d55 f4bd
00000350: aad2 e13d 6b06 c9bd 8bab 2a3e 1bda dd3e
00000360: 8e8e 01be fb76 fb3e 5f5f 4fbe 912f df3c
00000370: 5f98 f23c 9e11 b23e 6c51 7b3b 64d8 413e
00000380: 7752 213e 06fb 413e b487 9fbe 4a41 083e
00000390: 68ec 4a3e 5cb7 013e a2c6 513e 8df0 5cbe
000003a0: 02ea cc3d b25b 933e b6ed 6b3e fca7 6ebe
000003b0: 0bd9 973e ee32 7b3c 0e34 b7bd 01fc bd3e
000003c0: 2b94 bdbe 05c1 03be 0f85 49be 8ebb 633e
000003d0: 3400 e03b 4407 85be 2b59 9f3d 906b 89bd
000003e0: 8aed 4a3e 1aca 8f3e 2218 af3d 53fb ddbd
000003f0: b680 fb3d 8942 a43e a8cd 353e add6 78bd
0.24328056 0.008984527 0.14113995 -0.051747777 0.17553824 -0.35575867 0.1268074 -0.15979919
0.066438615 0.14234114 -0.08231788 0.22466743 -0.14383605 -0.1371975 0.18795772 -0.033226
0.028824955 0.3952326 0.21792254 -0.16351593 0.1498513 -0.04507963 0.025632987 0.16166803
-0.2276013 0.03176198 0.007913603 0.12593818 0.15070237 0.0087408265 -0.0728684 -0.07814373
0.12733015 -0.035385683 -0.22184598 0.07222659 0.13385788 0.20981117 0.13394159 0.020810021
0.3931593 0.06767532 0.19292107 -0.22888899 0.3756287 0.013929571 -0.057807796 0.5747309
0.08905278 -0.17743345 0.088701196 0.26043838 0.14401372 -0.14439422 0.10964993 -0.74839866
0.38798007 0.19289617 0.051925108 -0.26163724 0.14790916 0.0927958 -0.040031884 -0.16010058
0.046235926 -0.011934342 0.07107337 0.088122144 0.29206616 -0.12648307 0.18739168 -0.016549397
-0.032056853 0.024793668 -0.034382127 0.17715245 -0.12849218 -0.0987862 0.27273944 -0.06969996
0.027815526 0.29349005 0.08158531 -0.13635847 0.114844546 -0.061801124 0.055481717 -0.017179208
0.07108929 0.14160661 -0.17899773 0.1177068 0.19516724 0.04186555 0.14367935 -0.0456561
0.16484746 0.13208918 -0.16825446 0.1593251 0.09867683 0.10842132 0.13893856 0.03152969
0.5155616 0.20094255 0.14127721 -0.17443933 0.25351772 0.07037563 -0.041302443 0.5639933
-0.05599591 0.031550758 0.093242556 0.1809306 0.20482111 -0.1548505 0.061897468 0.010949198
0.35397848 0.18456359 0.2815929 -0.1581416 0.2088132 0.15255478 0.016529046 -0.27146208
0.24048513 0.16064663 0.14806962 -0.17118813 0.16264255 0.002505517 0.17270078 -0.4430648
-0.06624501 0.13737836 0.1008899 0.2862254 0.09893174 -0.080897495 0.3700351 -0.071444124
0.24253798 0.2553157 0.066645615 0.02788892 0.15837209 -0.16120274 -0.12394691 0.17191982
-0.05423903 0.29241943 -0.40709704 0.04663746 0.25480282 -0.0829594 0.52298546 0.25243267
0.21294521 0.29947987 -0.51131815 0.13946606 0.056638002 0.20391542 -0.023846893 0.41497162
0.46392146 -0.015759256 0.06888157 -0.24789746 0.20705256 0.33355963 -0.12430321 0.25653937
-0.15462786 -0.14437819 0.093234845 0.1573589 0.079351045 -0.2856959 0.30448887 -0.2110888
0.26389214 0.088924125 -0.25238097 -0.15192443 0.14902966 0.27192858 0.11288001 -0.659862
0.089495495 -0.27649105 0.03071046 -0.30800757 0.48514584 -0.38313565 0.03709602 -0.20059738
0.002930255 -0.0915192 0.046530277 0.5399548 -0.3779978 0.2099927 0.3262247 0.27646607
0.14980613 0.3912609 0.046707008 -0.11930392 0.11026509 -0.09815677 0.16667001 0.43330464
-0.12652037 0.49114212 -0.20251225 0.027244361 0.029613672 0.34779066 0.0038348092 0.18930203
0.15754114 0.18943414 -0.3115822 0.13306156 0.19816744 0.12667602 0.20485929 -0.21576138
0.10005571 0.28780895 0.23039898 -0.23306268 0.29657778 0.015331967 -0.089454755 0.37106326
-0.37027106 -0.128666 -0.19679664 0.22239515 0.0068359617 -0.25982106 0.07780679 -0.06709969
0.19817176 0.2808388 0.08549525 -0.10838952 0.12280409 0.32082012 0.17754233 -0.060751606

fc3.bias f4 [4]
00000000: 4bc3 9c3e f549 8c3e 5df1 c13e 425d a43e
0.30617747 0.27400175 0.37879458 0.321024
