mlruns/0/8f7ef001e39f4d45be2c14ddba0be6de/artifacts/checkpoint.pth (torch_old, 28447 bytes, 6 tensors)

fc1.weight f4 [64, 37]
0	0x3e096b50	0.13419843
1	0xbd891bcb	-0.06694754
2	0xba95ed05	-0.0011438435
3	0x3e107ef6	0.14110932
4	0xbdde45c8	-0.108531535
5	0x3d042a90	0.032267153
6	0x3d94ba7b	0.07262131
7	0xbe2101de	-0.15723369
8	0x3d4b1469	0.04958001
9	0xbd19073b	-0.03736041
10	0x3e2e6df4	0.17034131
11	0x3c540668	0.0129409805
12	0x3e09debb	0.13463871
13	0x3d98e6d7	0.07465904
14	0x3dd2f2c7	0.10300212
15	0xbdcfce3c	-0.10146758
16	0x3e05963f	0.13045596
17	0xbe02ff43	-0.12792687
18	0x3db9410b	0.09045609
19	0x3db79ea8	0.08965808
20	0x3bd16612	0.0063903416
21	0x3e2518da	0.16122761
22	0xbd365b58	-0.044520706
23	0xbd7e2198	-0.062043756
24	0x3da40058	0.08007878
25	0x3c1eeba0	0.009699732
26	0xbe0c9613	-0.13729124
27	0xbddaed09	-0.10689742
28	0xbdc8d043	-0.09805348
29	0x3d86b62d	0.06577716
30	0xbde870bf	-0.113496296
31	0x3dd457cd	0.10368309
32	0x3e178e19	0.148003
33	0xbd7239bc	-0.05913709
34	0x3df98140	0.121828556
35	0xbcb1cf6b	-0.02170535
36	0x3ddfae13	0.10921874
37	0xbb22bf4c	-0.002483326
38	0xbe0c5623	-0.13704734
39	0x3e0330a3	0.12811522
40	0xbd5f042c	-0.054447338
41	0x3d72ff21	0.05932534
42	0x3d6bec1f	0.05759823
43	0xbe0716c6	-0.13192281
44	0xbd9f5d34	-0.07781449
45	0x3dc4f835	0.09617654
46	0xbe14ada5	-0.14519365
47	0xbddb9aa2	-0.10722853
48	0x3da52523	0.08063724
49	0xbd4e142b	-0.050312202
50	0x3da55472	0.08072747
51	0xbb9f10a8	-0.0048542805
52	0x3c7528d6	0.014963349
53	0xbda7babc	-0.08189914
54	0x3cf8fe02	0.030394558
55	0xbdd16299	-0.10223884
56	0xbdc7be51	-0.09753097
57	0xbd983146	-0.07431273
58	0xbc96bb48	-0.01839985
59	0xbc32e7ff	-0.01091957
60	0x3db9efe3	0.09078958
61	0x3d3d3d9e	0.04620134
62	0x3db4592b	0.0880607
63	0xbd79c07e	-0.06097459
64	0x3d3a09cc	0.0454195
65	0xbc86218d	-0.01637342
66	0x3e368b6e	0.17826626
67	0x3db17ec5	0.086667575
68	0xbcd6e474	-0.026231982
69	0xbe2e2a7c	-0.17008394
70	0xbdb8e704	-0.09028438
71	0xbd23e36a	-0.0400118
72	0x3d848ec1	0.06472541
73	0xbdf09dd8	-0.11748856
74	0xbd455a98	-0.0481821
75	0xbe37b35f	-0.17939518
76	0x3dbca110	0.09210408
77	0x3d8dd6a9	0.06925709
78	0xbda98be9	-0.08278639
79	0xbcc801f1	-0.024414988
80	0xbd7bba84	-0.061457172
81	0x3d37f6ce	0.044913106
82	0xbe0a5f2f	-0.13512872
83	0xbe599c30	-0.21250987
84	0xbdb22d8e	-0.08700095
85	0xbe451bfe	-0.1924896
86	0x3d4854ec	0.048909113
87	0xbe0d481e	-0.13797042
88	0xbe80f969	-0.25190285
89	0xbd51b1a1	-0.05119479
90	0xbdd831e4	-0.10556391
91	0x3dc23620	0.0948298
92	0x3d36ecb3	0.044659328
93	0xbdeab498	-0.11460227
94	0xbde5cb3c	-0.112204045
95	0xbddb1964	-0.10698202
96	0xbe036647	-0.12831984
97	0xbe4a8519	-0.19777335
98	0xbd433b0e	-0.04766374
99	0xbd79b4a1	-0.060963277
100	0xbdb0b9cd	-0.08629189
101	0x3e2de04f	0.16980098
102	0xbe40e720	-0.18838167
103	0x3d543756	0.051810585
104	0xbe4e77bb	-0.20162861
105	0xbe23284f	-0.15933345
106	0x3df02f58	0.1172778
107	0xbdf99b66	-0.12187843
108	0xbe2f5c6c	-0.171251
109	0xbd89a0c1	-0.067201145
110	0x3d82d771	0.063887484
111	0x3e02262d	0.12709875
112	0x3d57be5d	0.05267178
113	0x3e24ecf0	0.1610601
114	0xbdd69e4b	-0.10479411
115	0xbe2da328	-0.1695677
116	0xbdab5d1c	-0.083673686
117	0xbc3c057e	-0.011475919
118	0x3ca7235c	0.020402603
119	0xbcfbf192	-0.030754838
120	0xbca680ea	-0.020325143
121	0xbe093101	-0.133976
122	0xbd9fb4c9	-0.07798154
123	0x3d27ef5c	0.040999755
124	0x3d77e0ba	0.06051705
125	0xbe25adb6	-0.16179547
126	0x3e05785e	0.13034198
127	0xbd42c409	-0.047550235
128	0x3da19b22	0.07890917
129	0x3e22da21	0.15903522
130	0x3cfd96e5	0.030955741
131	0x3d78958b	0.06068949
132	0xbd4b7374	-0.04967065
133	0xbde73a56	-0.112904236
134	0x3cf75ae1	0.030194702
135	0x3e04bb55	0.12962086
136	0x3de35e52	0.111019745
137	0xbc02d375	-0.007984986
138	0x3e1fa304	0.1558953
139	0xbd974161	-0.07385517
140	0xbde9e456	-0.11420505
141	0xbddf8d99	-0.109156795
142	0xbd902e33	-0.07040062
143	0x3cac01a9	0.020996885
144	0xbe2b8f60	-0.16753912
145	0x3d954ce3	0.072900556
146	0xbe1e7b30	-0.1547668
147	0xbd28ad59	-0.041180942
148	0x3dd0723f	0.10178041
149	0xbd17d07b	-0.037064057
150	0xbda4f512	-0.08054556
151	0xbdf19342	-0.11795665
152	0x3db2a1c0	0.087222576
153	0x3e3e3d52	0.1857808
154	0x3d02c7bd	0.031928767
155	0xbdce27b9	-0.1006617
156	0xbd9635ee	-0.07334505
157	0xbdd61791	-0.10453714
158	0x3d796940	0.06089139
159	0x3d6f24d1	0.05838472
160	0xbcac6b5d	-0.021047289
161	0xbd1f33eb	-0.038867872
162	0x3dba7e41	0.09106112
163	0x39bb4a3a	0.00035722723
164	0x3d05f91a	0.032708265
165	0x3d4173a7	0.047229435
166	0x3df949b8	0.12172264
167	0xbd9957a2	-0.07487418
168	0xbdfe0386	-0.12403016
169	0x3c97eb90	0.018544942
170	0xbe0184cb	-0.12648313
171	0xbe14cd2f	-0.14531396
172	0x3de8e74f	0.113722436
173	0x3d6ff987	0.058587577
174	0x3da2a3d1	0.07941402
175	0x3da7010d	0.08154497
176	0x3e0aef3c	0.13567823
177	0x3cf076ae	0.029353466
178	0x3e1fdfd6	0.1561273
179	0xbd6e1456	-0.058124863
180	0xbd7e5d2e	-0.06210058
181	0xbca7f5b4	-0.020502903
182	0xbd412ace	-0.047159962
183	0x3dca11dd	0.098666884
184	0xbae775e9	-0.0017659041
185	0xbb797362	-0.0038063158
186	0xbdac8be2	-0.08425118
187	0xbe1b405d	-0.15161271
188	0x3cbbf659	0.022944616
189	0xbdb40d50	-0.08791602
190	0x3e04fd6e	0.12987301
191	0x3e020d53	0.12700395
192	0xbe10aa41	-0.14127447
193	0xbd9113d1	-0.07083858
194	0xbdf78697	-0.12086218
195	0x3e0e5286	0.13898668
196	0xbda62056	-0.08111636
197	0x3e1610c9	0.1465484
198	0x3dfa29b1	0.12214983
199	0xbd98f2e0	-0.074682
200	0xbdb67971	-0.08909882
201	0x3dee5231	0.116367705
202	0xbd0416e8	-0.032248408
203	0xbd1360ef	-0.035981115
204	0x3c272c8e	0.010203494
205	0xbe2bb4d6	-0.16768202
206	0xbc9e330e	-0.019311454
207	0x3db1a7ab	0.08674558
208	0xbdc5acdf	-0.09652113
209	0xbd4f607f	-0.050629135
210	0xbe2a4627	-0.16628323
211	0xbcd7976c	-0.02631732
212	0x3d9ace37	0.075588636
213	0xbc9a1f47	-0.018813742
214	0xbe10e271	-0.1414888
215	0x3cc05ff1	0.023483248
216	0xbe15f1d4	-0.14643031
217	0x3e219599	0.15779723
218	0x3d46829f	0.048464414
219	0xbc82f56e	-0.01598617
220	0xbe08f5be	-0.13374993
221	0x3e19e477	0.15028559
222	0xbe0e4988	-0.13895237
223	0x3b342417	0.0027487332
224	0xbe0d15e5	-0.13777883
225	0xbe0b4111	-0.1359904
226	0x3d875d84	0.066096336
227	0x3e103cea	0.14085737
228	0x3d684ec0	0.056715727
229	0x3dd7c29a	0.10535164
230	0x3caffb5e	0.021482166
231	0xbdfa61bc	-0.122256726
232	0x3d608385	0.054812927
233	0xbd310fa3	-0.043227803
234	0x3ce9d112	0.028542075
235	0x3c2b0ea1	0.0104404995
236	0xbe1c3e06	-0.15258035
237	0xbcbb0bf1	-0.022832843
238	0x3e096fb3	0.13421516
239	0x3e07b3f0	0.13252234
240	0x3dee928c	0.11649045
241	0x3d2504cd	0.04028778
242	0x3e2761c0	0.16345882
243	0x3d0951a7	0.033525135
244	0xbc5f135c	-0.0136154555
245	0xbb94b10d	-0.0045377077
246	0xbd96377e	-0.07334803
247	0x3e030b37	0.12797247
248	0xbdfd8eee	-0.12380777
249	0xbd0628fc	-0.03275393
250	0x3dae640e	0.08515178
251	0xbb25bae5	-0.00252884
252	0xbdad9b81	-0.08476926
253	0xbd08f513	-0.033436846
254	0x3dcfb21a	0.10141392
255	0xbd45df1c	-0.048308477

fc1.bias f4 [64]
0	0xbd502ed1	-0.050825898
1	0xbe01db13	-0.12681226
2	0xbdd2a8f5	-0.10286132
3	0xbe1f1914	-0.1553691
4	0xbdb66caa	-0.08907445
5	0x3dded0f7	0.10879701
6	0x3dec28eb	0.11531242
7	0xbcc3e453	-0.023912584
8	0xbd82ccea	-0.063867405
9	0x3e12eba1	0.14347698
10	0xbb091832	-0.0020918963
11	0x3e054d8b	0.13017862
12	0x3cf1f77d	0.029536957
13	0xbe082bcf	-0.13297962
14	0xbe239d2c	-0.15977925
15	0xbdf16fdc	-0.117889136
16	0xbe2cad1f	-0.16862915
17	0x3d85971f	0.06522965
18	0xbd32aedc	-0.04362379
19	0xbe0bcc5b	-0.13652174
20	0xbd549cb0	-0.05190724
21	0x3cf5b4a6	0.029993366
22	0x3d64bd6b	0.055844706
23	0xbda74cb7	-0.08168929
24	0xbd03b7c1	-0.032157663
25	0x3db71ab6	0.089406416
26	0xbdca109c	-0.09866449
27	0xbddfc2be	-0.10925816
28	0xbd3aac50	-0.045574486
29	0x3da99073	0.082795046
30	0xbdb5ef15	-0.08883492
31	0xbd0233eb	-0.031787794
32	0x3d08897b	0.033334237
33	0xbd18e5d5	-0.03732856
34	0xbe06a53a	-0.13148966
35	0x3de78f73	0.11306658
36	0x3d23d816	0.040000997
37	0x3d2cabd2	0.042156048
38	0x3e1a7688	0.15084279
39	0xbd6dd193	-0.058061194
40	0xbdb8a971	-0.090166934
41	0xbdf4350f	-0.119241826
42	0xbd015bb6	-0.031581603
43	0x3d9feb80	0.0780859
44	0x3e2e8ba4	0.17045456
45	0xbd8160e5	-0.06317309
46	0x3d8683db	0.06568118
47	0xbaca0ac7	-0.0015414589
48	0x3e0cdf87	0.13757144
49	0x3da34c12	0.07973494
50	0x3e1a14ce	0.15046999
51	0x3dd634f0	0.10459316
52	0xbd822998	-0.0635559
53	0xbd31f711	-0.04344851
54	0x3ddb08c0	0.10695028
55	0x3df11813	0.1177217
56	0xbdc48769	-0.0959614
57	0xbd2d922f	-0.04237574
58	0xbe0e1c68	-0.13878024
59	0xbd52c089	-0.051453147
60	0x3d0bed79	0.03416202
61	0xbbf90798	-0.007599782
62	0xbe134319	-0.14381064
63	0xbda6f679	-0.0815248

fc2.weight f4 [64, 64]
0	0xbd6edf83	-0.058318626
1	0x3c8e8633	0.017397976
2	0xbddbe977	-0.10737889
3	0xbd4b8f0e	-0.049696974
4	0xbd88d5fe	-0.06681441
5	0xbd49ce53	-0.04926903
6	0x3d9725ed	0.07380281
7	0xbda07a24	-0.078357965
8	0xbc0b86dc	-0.00851604
9	0x3cafa7d4	0.021442331
10	0xbda1d8ef	-0.07902705
11	0x3d01c80c	0.03168492
12	0xbda42870	-0.08015525
13	0x3dcd0510	0.10010731
14	0x3d4c7ec5	0.049925584
15	0xbd9a2b7b	-0.075278245
16	0xbde0e48f	-0.10981094
17	0x3db43fc9	0.088012286
18	0xbc28119b	-0.010258104
19	0x3c4ac140	0.012375176
20	0x3d97e1f7	0.07416146
21	0x3ce3bf45	0.027801165
22	0xbd3d4b92	-0.046214648
23	0xbd62e8e4	-0.055397883
24	0x3d2fc8be	0.042916052
25	0x3c51b1c2	0.012798728
26	0xbddcac95	-0.10775105
27	0x3c242821	0.010019333
28	0x3d8758db	0.06608745
29	0x3ce16feb	0.027519187
30	0xbdc3ef79	-0.0956716
31	0x3d009cfc	0.031399712
32	0xbdbbe7b9	-0.09175057
33	0xbcde09be	-0.027104255
34	0xbd3698ab	-0.04457919
35	0x3cf5367f	0.029933212
36	0xbddf4cc9	-0.109033175
37	0xbdcf7f96	-0.10131757
38	0x3c5f89e4	0.0136437155
39	0x3d51f1c6	0.051255964
40	0x3d6ad1b3	0.05732889
41	0xbcb0f18c	-0.021599554
42	0x3d737b01	0.059443478
43	0x3d2ee1ea	0.042695917
44	0xbc9c261c	-0.01906114
45	0xbd124e4e	-0.03571921
46	0xbda9b212	-0.08285917
47	0xbdbc8f41	-0.09207011
48	0xbda6207d	-0.081116654
49	0xbde2067f	-0.11036395
50	0xbdfe848b	-0.12427624
51	0x3c86d0ac	0.016456924
52	0x3dc86ee9	0.097867794
53	0xbdd4b9a3	-0.1038697
54	0xbdc2d9ea	-0.0951422
55	0x3df19a7c	0.11797044
56	0xbdf94b99	-0.12172622
57	0xbc871d95	-0.016493598
58	0xbd07ea40	-0.033182383
59	0xbc335ef0	-0.010947928
60	0x3d8e5d16	0.069513485
61	0xbde3a32c	-0.11115107
62	0x3d4fafab	0.05070464
63	0x3dc8c150	0.098024964
64	0x3dd667e2	0.10469033
65	0x3d8e0935	0.0693535
66	0x3d2de35d	0.04245316
67	0x3db1d9d2	0.08684124
68	0x3d1633a4	0.036670342
69	0xbd84099c	-0.06447145
70	0x3bc34be0	0.0059599727
71	0x3c040d96	0.00805988
72	0xbce2f2ac	-0.027703606
73	0x3dc614b3	0.09671917
74	0x3d92c1b1	0.0716585
75	0x3d6e0892	0.058113642
76	0x3d8f6cc9	0.07003171
77	0x3ddbcf36	0.10732882
78	0xbca94f10	-0.020667583
79	0xbdde53a9	-0.10855801
80	0xbdd247ca	-0.10267599
81	0xbcefc90e	-0.029270675
82	0x3c954d69	0.018225389
83	0xbda3d35a	-0.079992965
84	0xbc6676f5	-0.0140664475
85	0xbd979fe5	-0.07403544
86	0xbdd2e3f5	-0.102973856
87	0xbd43ffd7	-0.04785141
88	0xbc89984d	-0.016796255
89	0xbdf0e4d7	-0.11762398
90	0x3da525cd	0.080638506
91	0xbdbcd132	-0.09219588
92	0x3dbf16ae	0.09330498
93	0xbc93fc17	-0.018064542
94	0xbda98f5c	-0.08279297
95	0x3dceff9a	0.10107346
96	0x3db5623c	0.08856627
97	0x3d752378	0.05984828
98	0x3c966a41	0.018361213
99	0xbdb29920	-0.087206125
100	0xbcd92b5b	-0.026509931
101	0x3ca30191	0.019898208
102	0x3b456abd	0.0030123435
103	0x3da30e45	0.07961706
104	0xbd647a60	-0.05578077
105	0x3d76d682	0.060263164
106	0x3dbb7f77	0.09155171
107	0xbde4c1a4	-0.111697465
108	0xbccc399b	-0.024929812
109	0xbd34a8f9	-0.044106457
110	0x3dac536c	0.08414349
111	0xbe178f40	-0.1480074
112	0xbdba9dce	-0.0911213
113	0xbd1b023c	-0.037843928
114	0x3cf37abf	0.029721616
115	0xbcb2c2b2	-0.021821354
116	0xbde55c91	-0.11199296
117	0xbda92289	-0.0825854
118	0xbe0ceaa7	-0.13761388
119	0xbd9633dd	-0.07334111
120	0x3d26d2d8	0.04072842
121	0x3d8de9f4	0.06929389
122	0xbdcc7551	-0.09983314
123	0xbdfcdeca	-0.12347181
124	0xbdb80af1	-0.08986462
125	0xbdc33370	-0.09531295
126	0xbddb4ea2	-0.107083574
127	0x3d852e7d	0.065030076
128	0x3df31b18	0.11870402
129	0xbd8d02dd	-0.06885312
130	0xbdbccf3c	-0.09219214
131	0xbc190b6b	-0.009341101
132	0x3dcb4112	0.099245206
133	0x3d98886f	0.07447898
134	0x3d191e81	0.037382606
135	0xbdcb61a1	-0.099307306
136	0x3d2b8c40	0.0418818
137	0xbcb3e883	-0.021961456
138	0xbd4d8cf9	-0.05018327
139	0x3dfc45e3	0.12318017
140	0xbdb7d17e	-0.08975504
141	0xba16b0ad	-0.00057483726
142	0xbdf0cb34	-0.11757508
143	0x3da3378a	0.079695776
144	0xbd58b63e	-0.052908175
145	0x3de39807	0.11112981
146	0x3c8b7fff	0.017028807
147	0x3e019feb	0.1265866
148	0xbd64f591	-0.055898253
149	0xbd5ffc66	-0.054684065
150	0x3ccb59d7	0.024823112
151	0x3dfc666e	0.123242244
152	0x3d72d235	0.0592825
153	0x3dbed039	0.09317059
154	0x3d9eab15	0.07747475
155	0x3da36014	0.0797731
156	0x3db60779	0.08888144
157	0x3db4bccd	0.088250734
158	0x3db1c31d	0.08679793
159	0x3d89b837	0.06724589
160	0xbddea32a	-0.10870965
161	0xbdd72033	-0.105041884
162	0xbde6c2db	-0.112676345
163	0x3db396b9	0.087689824
164	0x3d8e8a39	0.06959958
165	0xbdc578e9	-0.096422024
166	0xbd360259	-0.044435833
167	0x3d973e9d	0.073849894
168	0xbcde1c2b	-0.02711304
169	0xbda6747a	-0.08127685
170	0x3d0ddee0	0.03463638
171	0xbdd0c0f3	-0.10193052
172	0x3be718ef	0.007052533
173	0xbd679016	-0.056533895
174	0x3d48c5dd	0.049016822
175	0x3c16b2ef	0.0091979345
176	0xbd7d7f69	-0.061889086
177	0x3d202174	0.039094403
178	0x3c0bb15d	0.008526173
179	0xbdd0d301	-0.10196496
180	0x3d766d13	0.060162615
181	0x3d355b4c	0.04427652
182	0x3d4b0034	0.04956074
183	0x3beb5205	0.0071814083
184	0xbd83abf7	-0.06429284
185	0x3db8e901	0.09028817
186	0xbdd2084f	-0.10255491
187	0xbda38c98	-0.079858005
188	0x3ca21cf3	0.019789195
189	0xbd0b49e3	-0.03400601
190	0x3d8e0900	0.0693531
191	0x3df17cf1	0.11791409
192	0xbd2eca54	-0.042673424
193	0x3d9c2c6f	0.076256625
194	0x3d4e72cd	0.05040245
195	0x3cc1b409	0.023645418
196	0xbdc9a64b	-0.09846171
197	0xbe02804a	-0.12744251
198	0xbe026454	-0.12733585
199	0xbda6a01b	-0.081360064
200	0x3cc8c9f1	0.024510356
201	0x3d8ea640	0.069653034
202	0xbce8000c	-0.028320335
203	0x3da2a957	0.07942455
204	0xbdaa5e9c	-0.083188266
205	0xbde03757	-0.10948055
206	0xbcd829a3	-0.026387041
207	0x3bcb4c7f	0.0062041874
208	0xbdc5f8d6	-0.09666602
209	0x3bc7b179	0.0060941544
210	0xbdd23651	-0.10264266
211	0x3dab1c0e	0.083549604
212	0xbd0660fa	-0.032807328
213	0xbdc9cb95	-0.09853283
214	0x3d359c3d	0.044338454
215	0x3d3726e5	0.044714827
216	0x3d56ed2e	0.052472286
217	0x3d22a325	0.039706368
218	0xbe0517f5	-0.1299742
219	0x3cfbe1ef	0.030747382
220	0x3db8fabd	0.090321995
221	0x3c76b6a8	0.015058197
222	0x3dad8b3f	0.08473825
223	0x3cd90b00	0.026494503
224	0x3dbd8d5a	0.09255476
225	0x3da7e0b7	0.08197158
226	0xbd26acdc	-0.040692195
227	0x3d7c62a6	0.061617516
228	0x3d3d2fe7	0.04618826
229	0x3cfb206e	0.030655112
230	0xbbd24962	-0.0064174393
231	0xbd59684b	-0.053077977
232	0x3d65018d	0.055909682
233	0xbda7e8a1	-0.08198667
234	0x3d33efe0	0.043929935
235	0xbd255aac	-0.040369675
236	0x3cb7d976	0.02244256
237	0xbd324729	-0.043524895
238	0x3dc6c005	0.097045936
239	0xbdd10b10	-0.10207188
240	0x3da5c4fe	0.08094214
241	0xbe03e786	-0.12881288
242	0x3adb46d4	0.0016729482
243	0xbe01699c	-0.12637943
244	0xbdaec377	-0.08533376
245	0xbcd9fdde	-0.026610311
246	0x3c45845b	0.012055482
247	0x3b9358d5	0.0044966736
248	0xbd111bb8	-0.035426825
249	0x3d0ca949	0.03434113
250	0x3d98df5c	0.074644774
251	0x3da37cb2	0.07982768
252	0x3d843899	0.06456108
253	0x3dcdd6f6	0.10050766
254	0xbcb2bfa9	-0.021819906
255	0xbdef3ed1	-0.11681903

fc2.bias f4 [64]
0	0xbdcfaf89	-0.101409025
1	0x3db4715b	0.08810683
2	0x3c5e77fb	0.01357841
3	0xbcca3413	-0.024683034
4	0x3d3090f1	0.043106977
5	0xbdb9dcaa	-0.090752915
6	0x3d74e42b	0.05978791
7	0x3da2336d	0.07919965
8	0xbad5a058	-0.0016298397
9	0x3d8686e4	0.06568697
10	0xbbe6d049	-0.0070438725
11	0xbdc2ded0	-0.09515154
12	0xbda2be0a	-0.07946403
13	0xbd333fa3	-0.04376186
14	0x3d4ce878	0.050026387
15	0xbd94323c	-0.07236144
16	0x3dc7844c	0.097420305
17	0xbd263047	-0.040573385
18	0x3d48b04a	0.048996247
19	0xbcce24dc	-0.02516406
20	0x3d47e693	0.048803877
21	0xbdccb3f6	-0.09995262
22	0x3cde6bf0	0.027151078
23	0xbdc22f29	-0.09481651
24	0x3db9732d	0.09055171
25	0xbdac98ce	-0.08427583
26	0xbcf5c887	-0.030002845
27	0xbdb81890	-0.0898906
28	0x3ddd2a0b	0.10799035
29	0x3d90336a	0.070410565
30	0xbd20f5d5	-0.039296944
31	0xbdb1157a	-0.086466745
32	0x3d1d23a7	0.03836408
33	0xbd65ec7c	-0.056133732
34	0xbdc1a784	-0.09455779
35	0x3c9dbb38	0.019254312
36	0xbdb0160c	-0.08597955
37	0xbd832753	-0.06403985
38	0xbd573f57	-0.05255064
39	0xbde8d16c	-0.11368069
40	0xbdc49161	-0.09598041
41	0xbd7ce289	-0.06173948
42	0x3cb07b9d	0.021543318
43	0x3d072da1	0.0330025
44	0xbcfbb54b	-0.030726096
45	0x3ddbeb39	0.107382245
46	0xbdf2dc42	-0.11858417
47	0x3d5ca76a	0.053870596
48	0xbc9f9bc6	-0.019483458
49	0xbdd99169	-0.10623438
50	0x3d168aa6	0.03675332
51	0x3e19ae36	0.15007862
52	0x3c5af2e8	0.013363577
53	0xbd3fa70a	-0.04679016
54	0x3d75ea32	0.0600378
55	0xbd352dbb	-0.044233065
56	0x3d972f79	0.073821016
57	0x3d9425a7	0.07233744
58	0x3ca3aa88	0.019978777
59	0xbd0984dc	-0.03357397
60	0x3d09efa2	0.033675797
61	0x3ce64e85	0.028113613
62	0x3d2eaca8	0.042645127
63	0xbd7b2114	-0.061310843

fc3.weight f4 [4, 64]
0	0x3de0544a	0.10953577
1	0xbbdcf29e	-0.0067427894
2	0x3de319a6	0.110888764
3	0xbdd89d3b	-0.10576864
4	0xbd73e99b	-0.059548955
5	0xbb8c2620	-0.004277006
6	0x3d2de6be	0.04245638
7	0xbd5e5e16	-0.054288946
8	0x3ca8093a	0.020512212
9	0xbb80f107	-0.0039349827
10	0xbd552292	-0.052034922
11	0x3d8ad38b	0.0677863
12	0xbdb478ab	-0.08812078
13	0xbd9a4a04	-0.075336486
14	0xbd34a231	-0.04409999
15	0xbd7a294a	-0.061074533
16	0xbda5085c	-0.08058235
17	0xbd6826b7	-0.056677546
18	0x3e01fa65	0.12693174
19	0xbd78c53d	-0.060734976
20	0x3d84c60e	0.064830884
21	0x3be1e78c	0.0068940576
22	0x3cec562a	0.02884968
23	0x3cbb56e6	0.022868585
24	0xbd76fc1d	-0.060299028
25	0x3da82880	0.0821085
26	0xbdb83407	-0.089942984
27	0x3d4d26f2	0.05008597
28	0x3dd63131	0.10458601
29	0xbd387450	-0.0450328
30	0x3d99daf0	0.07512462
31	0xbdc7e00a	-0.09759529
32	0x3d5a2d34	0.053265765
33	0xbdbfefa6	-0.09371881
34	0x3d7a237c	0.061068997
35	0x3c4c7903	0.012480023
36	0x3dc7fd63	0.097651266
37	0x3d8a1c10	0.06743634
38	0x3d708fa4	0.058730736
39	0xbb0a1e37	-0.0021075138
40	0x3aa60f77	0.0012669404
41	0x3de8c1c3	0.11365082
42	0x3e008afd	0.1255302
43	0xba9e1820	-0.0012061633
44	0x3dc930df	0.098237745
45	0xbc8a32f0	-0.016869992
46	0xbd895242	-0.067051426
47	0xbdc4456e	-0.09583555
48	0x3ddc927b	0.107701264
49	0xbd16a8dc	-0.03678213
50	0xbdaef15b	-0.08542129
51	0x3e1590f5	0.14606078
52	0x3db48f5a	0.08816405
53	0xbd84c27c	-0.064824075
54	0x3d433b52	0.047663994
55	0xbdd4a9b7	-0.10383933
56	0x3ce7e17f	0.028305767
57	0x3dd370a9	0.103242226
58	0x3d39b36e	0.045337133
59	0xbdadd17f	-0.08487224
60	0x3d8f6d3e	0.07003258
61	0xbbfe00ea	-0.007751574
62	0xbdd3927d	-0.10330675
63	0xbd561e0d	-0.052274752
64	0xbd8b75e0	-0.06809592
65	0xbd941b75	-0.072317995
66	0xbcfc6c37	-0.03081332
67	0xbdcb1988	-0.09916979
68	0xbce68d08	-0.02814342
69	0x3deb18b3	0.114793204
70	0x3d809ead	0.06280265
71	0x3d186942	0.037209757
72	0xbc893fde	-0.016754087
73	0x3dfde9f1	0.123981364
74	0x3cf838ba	0.030300487
75	0x3dee59fd	0.11638258
76	0xbdc9782d	-0.09837375
77	0xbd553565	-0.052052874
78	0x3d88f715	0.06687752
79	0x3d3da85f	0.04630315
80	0x3dbdc087	0.09265237
81	0xbd9a2963	-0.07527425
82	0xbdb765c8	-0.0895496
83	0x3b7e402c	0.0038795574
84	0xbcc41fff	-0.023941038
85	0x3d01522e	0.031572513
86	0x3cd48335	0.02594147
87	0xbd5f0cb7	-0.054455485
88	0xbbe2aa46	-0.006917271
89	0xbc79cf5d	-0.015247193
90	0xbde5ebc0	-0.11226606
91	0xbdde44a7	-0.10852938
92	0x3d9a85b0	0.0754503
93	0xbdafccab	-0.08583959
94	0x3d84665f	0.06464838
95	0xbced20bb	-0.028946271
96	0x3d4829f0	0.04886812
97	0xbc78ca39	-0.015184932
98	0xbd9a8b96	-0.07546155
99	0x3cc9ddd8	0.024641916
100	0x3d1535e1	0.036428336
101	0xbe02c1de	-0.12769267
102	0x3e1c80c0	0.15283489
103	0x3c809b94	0.015699185
104	0xbd91c011	-0.07116712
105	0x3d713fd3	0.05889876
106	0x3c72ece7	0.01482699
107	0xbdccce56	-0.10000293
108	0x3d921048	0.07132012
109	0x3c523d4d	0.012831998
110	0xbd685c88	-0.05672887
111	0x3dc9890b	0.09840592
112	0xbd9a696b	-0.07539638
113	0xbcff9e65	-0.031203458
114	0x3cbe6760	0.023242652
115	0xbcb91414	-0.022592582
116	0x3d6fadc5	0.05851533
117	0x3cd7e177	0.026352627
118	0x395e90ba	0.00021225485
119	0xbd44b748	-0.048026353
120	0x3d37ba58	0.044855446
121	0x3d8611c1	0.06546355
122	0xbcbb5eb5	-0.022872308
123	0xbdcd6226	-0.10028486
124	0x3dc3fe2c	0.09569964
125	0xbd47e651	-0.04880363
126	0x3d8cbd01	0.06871987
127	0xbd855f35	-0.065123
128	0x3d55cfdf	0.052200194
129	0x3d446dfa	0.047956444
130	0x3ce1c035	0.027557472
131	0xbd8b7582	-0.06809522
132	0xbd03d843	-0.032188665
133	0x3d931664	0.07182005
134	0x3d982e8d	0.07430754
135	0xbc4246d4	-0.011857707
136	0xbdb1a265	-0.086735524
137	0x3c8172f9	0.015801894
138	0x3db89cd0	0.090142846
139	0x3c80ee77	0.015738709
140	0x3bd777ee	0.006575576
141	0xbcb6d5fa	-0.022318829
142	0x3dd8d375	0.10587207
143	0xbddd2465	-0.10797957
144	0x3d6297a0	0.055320382
145	0x3da2c82d	0.07948337
146	0x3dd42a31	0.1035961
147	0xbcec3fad	-0.028838957
148	0x3b1c457c	0.0023845127
149	0xbd65a626	-0.056066655
150	0xbd1c3bf9	-0.038143132
151	0xbd87fb17	-0.066396885
152	0xbc165419	-0.009175324
153	0x3dadffd0	0.08496058
154	0xbd811126	-0.06302099
155	0x3db9aabd	0.09065769
156	0x3d7273f2	0.059192605
157	0xbcf507cf	-0.02991095
158	0x3db673a9	0.08908779
159	0x3ca51d49	0.020155566
160	0x3b9758d6	0.0046187444
161	0xbcc92e0f	-0.024558095
162	0xbdcd9a64	-0.10039213
163	0xba9306aa	-0.0011217196
164	0xbd1bedf0	-0.03806871
165	0x3c52ff8d	0.012878311
166	0xb8bee7e2	-9.1030975e-05
167	0x3d4958cb	0.049156945
168	0xbd27e38d	-0.040988494
169	0x3b1d3742	0.0023989235
170	0xbdb12850	-0.08650267
171	0xbdcfdae1	-0.1014917
172	0x3c8005cc	0.015627764
173	0x3d802678	0.06257337
174	0xbdfe92ae	-0.12430321
175	0x3dd24cb6	0.10268538
176	0xbbc56f5a	-0.006025237
177	0x3c7347e0	0.014848679
178	0x3c37a320	0.011208326
179	0xbd237ced	-0.03991406
180	0x3cace159	0.021103548
181	0x3c3e4c38	0.011614852
182	0x3da590c4	0.080842525
183	0xbd294136	-0.041321956
184	0x3d09fc27	0.033687737
185	0xbd9f1674	-0.077679545
186	0xbd204ff3	-0.039138746
187	0x3d9d0f47	0.076689295
188	0x3bd6b82d	0.006552717
189	0x3d988645	0.07447485
190	0x3d3e77f9	0.046501134
191	0xbde876bd	-0.113507725
192	0xbc44d67d	-0.012014029
193	0xbd1df877	-0.038567033
194	0xbc41d12b	-0.011829655
195	0xbc6ce6b2	-0.014459299
196	0x3c85eb2f	0.016347496
197	0xbdaf5f30	-0.085630774
198	0xbdb2350d	-0.08701525
199	0xbc974cbe	-0.01846921
200	0xbdef0c71	-0.11672295
201	0xbd9247a1	-0.071425684
202	0x3db4c1ea	0.08826049
203	0x39d0e14d	0.00039840714
204	0x3dce3f12	0.100706235
205	0x3dd4fa8b	0.1039935
206	0x3ccaa9d7	0.02473919
207	0x3e00a184	0.12561613
208	0x3d213e8b	0.039366286
209	0x3ce25213	0.027627027
210	0xbd2d2206	-0.042268775
211	0xbdaa709b	-0.08322259
212	0xbc3ec846	-0.011644429
213	0xbde45e2a	-0.11150773
214	0x3d3992de	0.04530608
215	0x3d47c642	0.048773058
216	0xbc92fff3	-0.017944312
217	0xbdbc5a60	-0.09196925
218	0x3e1ca3ed	0.15296908
219	0x3dbacf2c	0.09121546
220	0xbd6ab012	-0.05729682
221	0x3de3c8e5	0.11122302
222	0xbc68db15	-0.0142123895
223	0xbdc2db4b	-0.09514483
224	0x3c086271	0.0083242515
225	0x3dac412c	0.08410868
226	0x3d85fe60	0.06542659
227	0xbcc5ab90	-0.024129659
228	0x3dde1749	0.10844285
229	0xbdb91ed0	-0.0903908
230	0x3d95f667	0.07322388
231	0xbd957447	-0.07297569
232	0xbd2873df	-0.04112613
233	0xbc359f4e	-0.0110853445
234	0x3df0b866	0.11753921
235	0xbd46fe65	-0.048582453
236	0x3dc1ac26	0.09456663
237	0xbc1d5180	-0.009601951
238	0xbdb7340e	-0.089454755
239	0x3dec15ed	0.115276195
240	0xbdad4928	-0.08461219
241	0x3df0c040	0.11755419
242	0xbd7df1a7	-0.061998036
243	0x3d3a6d7a	0.04551456
244	0xbd29f43b	-0.041492682
245	0x3d2f9fad	0.042876888
246	0xbd4b4fb3	-0.049636554
247	0xbd80ec47	-0.06295066
248	0xbd8c7760	-0.068587065
249	0x3c6fe6dd	0.014642444
250	0x3d2b6422	0.04184354
251	0xbbb1b054	-0.0054226313
252	0x3c7c8e89	0.015414842
253	0xb86c1ccc	-5.6293604e-05
254	0x3e10b3d4	0.14131099
255	0x3b5ec35e	0.003399096

fc3.bias f4 [4]
0	0xbcc42f7c	-0.023948424
1	0x3d1ef69e	0.03880941
2	0x3da14168	0.078738034
3	0x3d360266	0.04443588
